src/kernel/kernel2.npy (npy, 101696 bytes, 1 tensors)

array f8 [23, 23, 24]
0	0x8febc31e0d807de0	-5.5881348211270506e-232
1	0x0ff1a67fd0d6a780	7.10554835942309e-232
2	0x1023d5aeade5f990	6.387911594335163e-231
3	0x103c5a1bed2f5b30	1.8261937664517694e-230
4	0x1045be3139b9f990	2.800990046976927e-230
5	0x102ae2e5a6cdd1c0	8.65893828816642e-231
6	0x905e05d897eea000	-7.735262179085232e-230
7	0x9078411769481198	-2.4996051096806786e-229
8	0x9087c895c3a957b4	-4.902185236199624e-229
9	0x9092474337f85a57	-7.534956590831234e-229
10	0x9098492838779017	-1.0011408469973696e-228
11	0x909d62f9543dace7	-1.2114148587015771e-228
12	0x90a08dc6b1cd0d63	-1.3648073318899892e-228
13	0x90a1650a9da4c6df	-1.4341351286129918e-228
14	0x90a0efa9cacb18b6	-1.3963326006094323e-228
15	0x909e5b1739989996	-1.2513687861570265e-228
16	0x9098f031349d1a6e	-1.0280382948082503e-228
17	0x9092beb01e0c9c33	-7.727265759917844e-229
18	0x9089c34f3da0c9c4	-5.310171236351042e-229
19	0x90802e9cf7a70bcc	-3.335398452376967e-229
20	0x9072944903cd5f77	-1.9147462909832778e-229
21	0x90637ee1e6015fac	-1.0045942541274333e-229
22	0x9052b24f3cce80a6	-4.817083075917776e-230
23	0x9040630e743a03e7	-2.1110142782824834e-230
24	0x1450b41193011d08	7.938669966986627e-211
25	0x146d51055107f776	2.7866663449842444e-210
26	0x1484e18b4c408871	7.939350677426948e-210
27	0x149823777ac1699a	1.8355831343134718e-209
28	0x14a69683a1aeeac0	3.435340297088833e-209
29	0x14b0febf25129351	5.169479863333584e-209
30	0x14b4362eebc0c1d8	6.147872628254697e-209
31	0x14b2110e88cd1c5b	5.495410267773969e-209
32	0x14a3b7594960562f	2.998585059369602e-209
33	0x948303d9484e4b7a	-7.229864236546876e-210
34	0x94aeb5a0725952fe	-4.6705225943591717e-209
35	0x94ba630f9c9e4570	-8.026243416028442e-209
36	0x94c102bc4fb649aa	-1.0348438882604898e-208
37	0x94c2da1d16d0b18b	-1.1468604898501406e-208
38	0x94c2b83f53f28750	-1.138812633451798e-208
39	0x94c0e35f4b1eeb61	-1.027390812927831e-208
40	0x94bbce1cc068b75e	-8.457614551405636e-209
41	0x94b4e96856621c84	-6.360823736664205e-209
42	0x94acbecafbc6dc78	-4.371793477654596e-209
43	0x94a20e538c07f85d	-2.7460830159438585e-209
44	0x9494bb19994dfb06	-1.5764504754556734e-209
45	0x9485c0df8cb2457f	-8.271045274596397e-210
46	0x9474dc9c3833c5e9	-3.9660113562593224e-210
47	0x946248e272fded7d	-1.738044955739403e-210
48	0x181890cd2eb39e65	1.3460794832325441e-192
49	0x1834bccda04876f4	4.545267400363608e-192
50	0x184cdf0ec6222d28	1.2656085460579957e-191
51	0x18608dba8fe9cf73	2.902591722286619e-191
52	0x186f379b80495f91	5.4737749595175633e-191
53	0x1878215c9e1d3252	8.462249573957709e-191
54	0x187e6109b30b9594	1.0653615219430618e-190
55	0x187e9fd3eb91b3f5	1.0739629934810913e-190
56	0x18777fc7507d15dd	8.240899822171324e-191
57	0x18661e6016906b00	3.878389755385736e-191
58	0x9845f08565f87060	-9.617455802983297e-192
59	0x986cf59f67ae19fc	-5.077889840875264e-191
60	0x9876736b8f4f7285	-7.87328076842955e-191
61	0x987a62ab2acead75	-9.253091146885999e-191
62	0x987abb84cc35fb74	-9.374805222913227e-191
63	0x987846f11af4bd0b	-8.51372973705286e-191
64	0x9874068f1ab22431	-7.02277496677915e-191
65	0x986e238ae1b3403f	-5.284686936945298e-191
66	0x9864b7a7d13ffe35	-3.632688059110083e-191
67	0x985a07101a2b2772	-2.2819005555809857e-191
68	0x984de2373a12b9d8	-1.3099854967713425e-191
69	0x983f5b931577af8c	-6.873012867375996e-192
70	0x982e12889513c3d9	-3.2956479986669165e-192
71	0x981a5b88a8f62568	-1.4442683327427029e-192
72	0x1b739710a65247d2	1.9337447775247494e-176
73	0x1b9041ea84213368	6.419125910274184e-176
74	0x1ba6658621a36dfe	1.7686186580519422e-175
75	0x1bb995d4c1859d5d	4.040849415097441e-175
76	0x1bc836136c225b54	7.647675474692254e-175
77	0x1bd2f2b69770ab9a	1.19703861421861e-174
78	0x1bd872f94933ad8a	1.5445632236795162e-174
79	0x1bd9cdf814d5fb0d	1.630193263110118e-174
80	0x1bd5cf65b1a0e5e9	1.377847288566087e-174
81	0x1bcb91bb4fae5dd9	8.708386708097641e-175
82	0x1bb2530cd770c591	2.8940940734640054e-175
83	0x9ba9fbd4ad9705c4	-2.0518885274900732e-175
84	0x9bc0fcb99a4e5cac	-5.365800341163331e-175
85	0x9bc64071d423ba54	-7.028723254379417e-175
86	0x9bc74ebcf06c7c62	-7.362232597031959e-175
87	0x9bc5644dff4e891f	-6.757097179274691e-175
88	0x9bc1b3b50d8adb4d	-5.591578263256812e-175
89	0x9bbaaa588545a131	-4.211442255330488e-175
90	0x9bb2557c8ab8aee8	-2.895597141245482e-175
91	0x9ba708cf4d35ef2a	-1.8189873932818055e-175
92	0x9b9a7284191c79bb	-1.0442496656050389e-175
93	0x9b8bc07f6f04dc53	-5.478806512100831e-176
94	0x9b7a9d4b9639bf53	-2.627119295411237e-176
95	0x9b6753a63f749bbd	-1.1512957224285331e-176
96	0x1e63e4d2fee989b2	2.7637010632137514e-162
97	0x1e804944c22e9843	9.050076399307664e-162
98	0x1e963e490b1611c0	2.472074712719582e-161
99	0x1ea95492c79db172	5.630328972288118e-161
100	0x1eb80a93c123d552	1.068760956619876e-160
101	0x1ec301ada201c4d4	1.68987951713371e-160
102	0x1ec9019802483437	2.2233122806032453e-160
103	0x1ecb4ef45134d84d	2.428000778137532e-160
104	0x1ec8995977a7fa7d	2.1871076030953398e-160
105	0x1ec1f6197a995421	1.5969478053994637e-160
106	0x1eb41ba56d94c498	8.939043466949125e-161
107	0x1e9a9a81b3a99520	2.9566627421014757e-161
108	0x9e81d62e3a36ef42	-9.911638502493133e-162
109	0x9e9b13735bf86b68	-3.0091684603342956e-161
110	0x9ea07bf343ed96ec	-3.664035684472424e-161
111	0x9e9f92a415f6453e	-3.5089376783278523e-161
112	0x9e9a73e1ddba6812	-2.9398946503099887e-161
113	0x9e93fde1dd7eb6b5	-2.221839380865296e-161
114	0x9e8b83c55e90da21	-1.5289651916303093e-161
115	0x9e8149ba61ce946a	-9.606763434477868e-162
116	0x9e73d9b067655c4c	-5.515316825983099e-162
117	0x9e64d46859cdef35	-2.8937147690083017e-162
118	0x9e53f9d9148f00e4	-1.3875549705495176e-162
119	0x9e418222c3533165	-6.080753509581812e-163
120	0x20e9d5c989ed6200	3.946230313209169e-150
121	0x2104cb7c2f822ed0	1.2705397040860816e-149
122	0x211c171a3c141faf	3.4325563214753365e-149
123	0x212fdbe76a38a19e	7.7861773745425525e-149
124	0x213e5aa16e0eb46b	1.483673871453194e-148
125	0x21484eff95b2f271	2.376358004359607e-148
126	0x215060f242152378	3.202296046434025e-148
127	0x21529c10c6a4aa34	3.6384792572287625e-148
128	0x2151ebde4c959ca2	3.5039114679887094e-148
129	0x214da0a7ab632768	2.896329779822602e-148
130	0x2145a59d8585856a	2.1161602686751715e-148
131	0x213db43fae9a165b	1.4519060029874849e-148
132	0x2134fde54c0fe706	1.026056835170924e-148
133	0x2130612da29cf940	8.006182970524723e-149
134	0x212ba8795fb4c583	6.759499328015303e-149
135	0x21277c818a7f197c	5.739944773390243e-149
136	0x2122f6f3af1b7f19	4.63486533558448e-149
137	0x211c5ed0dbce1561	3.466787539634182e-149
138	0x211378bd7586e0b3	2.3793849556860116e-149
139	0x2108742580bcdabf	1.4940897789327817e-149
140	0x20fc130de65ee20c	8.576559967422172e-150
141	0x20ed7574552850f3	4.499738936479464e-150
142	0x20dc4051dad5c9b8	2.15764419752983e-150
143	0x20c8c2e8a0cacf11	9.455548194926653e-151
144	0x2302af739783a8be	4.903356132450015e-140
145	0x231cf593d2dd45ad	1.5198820413456563e-139
146	0x23330f8893df59a6	4.001477241017249e-139
147	0x2345684d6c846f40	8.988279493258865e-139
148	0x235495ec1011a8fb	1.7286466748039802e-138
149	0x2360fdaba56a380c	2.85356908977005e-138
150	0x23682377c2e987e6	4.05399406359175e-138
151	0x236db021809cfaa2	4.9860095290464504e-138
152	0x2370092a19489804	5.38632542282147e-138
153	0x236f5ecc62670baa	5.2685457556836166e-138
154	0x236d3546c864864c	4.9054118278427636e-138
155	0x236b5bef4d28ac02	4.5948794978259495e-138
156	0x236a6ee05858ef04	4.4393590763270655e-138
157	0x2369c6f4f5fd23d7	4.3291967528207505e-138
158	0x23685a1a14c48caf	4.0898363347363476e-138
159	0x2365984f27733907	3.626806275498786e-138
160	0x2361aece2fe0cfae	2.969777144688464e-138
161	0x235a8ee315952ad4	2.2301797294098943e-138
162	0x23523f1690f3a62b	1.5322163805880496e-138
163	0x2346eba384cfde6e	9.623552279025028e-139
164	0x233a50c5688ad948	5.524510960993619e-139
165	0x232b9d097740ea50	2.8984933229985777e-139
166	0x231a7b477931e501	1.3898424596384521e-139
167	0x230735d58766563e	6.090775347486411e-140
168	0x247557c1040983a0	4.6982172464972124e-133
169	0xa48f5b5e5f7be560	-1.3805278213969014e-132
170	0xa4b936c9a21b3bd0	-8.88063254479532e-132
171	0xa4d162899b0753a8	-2.4492572412743224e-131
172	0xa4db92916042a4c0	-3.884530440728296e-131
173	0xa4cd13a5b6d0fa40	-2.0482253000538518e-131
174	0x24eaa00950193b60	7.502116935294128e-131
175	0x250823cea0a78414	2.720738753100397e-130
176	0x2518621f20194ef3	5.496346961063512e-130
177	0x2522fbb8c57ddbc3	8.558217455030119e-130
178	0x25296462dd721da0	1.1447511046107424e-129
179	0x252ed58288af7f63	1.39008728235154e-129
180	0x25316626f50e67d6	1.568797752701072e-129
181	0x25324be40d2ebbc2	1.6497140444139004e-129
182	0x2531d1ba164327b2	1.6066866664182538e-129
183	0x252ff113a11a49e6	1.440024835864428e-129
184	0x252a3decb916b094	1.1830607434057314e-129
185	0x2523b994c951e3c9	8.89256958384105e-130
186	0x251b1c26dde5bf95	6.110980357123738e-130
187	0x251107374a86bfbd	3.838400644517473e-130
188	0x25038cf9b0d97f73	2.2035041061902355e-130
189	0x24f483d6c65267ce	1.1560944761145775e-130
190	0x24e3ac91d4f3d91a	5.543534748266246e-131
191	0x24d13e66e63a5201	2.4293708097491514e-131
192	0xa61cdba0e78e6150	-4.2631135177372545e-125
193	0xa6394d201f40e719	-1.4950790258212379e-124
194	0xa65202fa0047d14d	-4.257304804819693e-124
195	0xa664d15439115efb	-9.841116133048216e-124
196	0xa6737bd91730cce7	-1.842107761044755e-123
197	0xa67d565bf4fd096b	-2.773719438796244e-123
198	0xa6817803c861e005	-3.303201344670724e-123
199	0xa67f540e6e3c588c	-2.9619603589447145e-123
200	0xa671498e27c6ee09	-1.634442296219381e-123
201	0x264d8ae7d8c62bd3	3.4914073084132206e-124
202	0x2679f6cddd8abfe7	2.454792028068032e-123
203	0x268672c251d7b61e	4.244776282778213e-123
204	0x268cff32d3c1ff3c	5.483058674340904e-123
205	0x26901418e304ed70	6.080614010551656e-123
206	0x268ff05cdb7c79c8	6.0393745762257184e-123
207	0x268cd0f7937ac3a0	5.448910355521616e-123
208	0x2687b8f6446ae5f8	4.4857222497225336e-123
209	0x2681d7663447c04b	3.373655958224318e-123
210	0x2678865b5c073c6b	2.318717390525752e-123
211	0x266ecf5552c88f2c	1.4564715931755049e-123
212	0x2661afe698896ba2	8.361202189389687e-124
213	0x26528f3d712ff070	4.3868097405068874e-124
214	0x2641cc7db5792a3c	2.103499221983515e-124
215	0x262f33415a3e1d05	9.218269655622647e-125
216	0xa7211ec950f3b74e	-3.314988895342975e-120
217	0xa73ce58903c6c1ea	-1.1190482444944772e-119
218	0xa7541ca41ba91dd3	-3.1154040142710425e-119
219	0xa7670fad59dd8a30	-7.144541377688096e-119
220	0xa775bef7a2d15276	-1.3474120415765965e-118
221	0xa780d006e828c764	-2.0834675104904853e-118
222	0xa7852ccb901c6312	-2.6240659423148487e-118
223	0xa7855cdc9d1f8895	-2.647333735456065e-118
224	0xa7806be9f2b2d363	-2.035005352895165e-118
225	0xa76f1e3090aa0747	-9.640563079072975e-119
226	0x274d02643c79e080	2.2468268644127928e-119
227	0x2773f10f26cbd6e4	1.2356131829687378e-118
228	0x277f05162a48604e	1.9220367309510604e-118
229	0x27823ea3268e0b7e	2.2609340340596794e-118
230	0x27827d7dc3e63c50	2.2913600028630087e-118
231	0x2780cb235ccbc1e5	2.081100947659135e-118
232	0x277bb4b98a2d2077	1.7167017861153387e-118
233	0x2774d95e5e16d5e9	1.2918406610453434e-118
234	0x276ca9d176b3ae77	8.88011734428524e-119
235	0x2762014ef4e8ad33	5.57811579306763e-119
236	0x2754ac312039c09b	3.202265555613043e-119
237	0x2745b13cd5096518	1.6801111820666665e-119
238	0x2734cd9de93558f5	8.056226841841609e-120
239	0x27223bbe55df6e5c	3.53052065043502e-120
240	0xa7b62078757c8045	-2.1936182825558902e-117
241	0xa7d25bfff2ac45f8	-7.280472484912723e-117
242	0xa7e94a10dc6b8c3a	-2.005713209487017e-116
243	0xa7fce38130149a4a	-4.58236343595311e-116
244	0xa80b569a71c63cd8	-8.672875055756015e-116
245	0xa81565f1cd4ab1c7	-1.3576859987693636e-115
246	0xa81b9e210ad55c02	-1.752302379484506e-115
247	0xa81d2991056a81a8	-1.850309915177859e-115
248	0xa818abafe87980e3	-1.565317053380823e-115
249	0xa80f41b0db1884c2	-9.915930644561016e-116
250	0xa7f504695b44dcf2	-3.3337821220558296e-116
251	0x27ec904ca43f722c	2.2654041170145743e-116
252	0x2802f6e6c9f18f60	6.016336758252401e-116
253	0x2808e6148f6d16b4	7.898947803742487e-116
254	0x280a18e4de9e2ed1	8.279160375390754e-116
255	0x2807f501aad39a6b	7.600202059330229e-116
