src/kernel/kernel4.npy (npy, 169408 bytes, 1 tensors)

array f8 [23, 23, 40]
0	0xbdc7e5949032e773	-4.346802260570645e-11
1	0xbdc89f257607a840	-4.478654838808549e-11
2	0xbdb98d5125977a6c	-2.3239426311697287e-11
3	0x3dcb479eb0c2a311	4.962160378346527e-11
4	0x3dee73dc8a883f27	2.2157170999531178e-10
5	0x3e0366fb870a2d9c	5.646805367738567e-10
6	0x3e143778d946919e	1.1767661056554643e-09
7	0x3e22b3d74da89a24	2.1772580242787748e-09
8	0x3e2fc2f1b19fec0f	3.697525297224167e-09
9	0x3e39345e3351cde7	5.868394483126539e-09
10	0x3e42e9fae0691410	8.807510288046449e-09
11	0x3e4b10b1b171f9ba	1.2603221173502121e-08
12	0x3e528e6d568cd5a6	1.7281953121347228e-08
13	0x3e586bb5f37ddcca	2.2743591204335568e-08
14	0x3e5ec84ca2b1269d	2.8668362056061017e-08
15	0x3e627d5220ef8d8b	3.443944162470664e-08
16	0x3e65062a1b74a3fe	3.9160400639518236e-08
17	0x3e66754e039d0a53	4.183169761844838e-08
18	0x3e665ea882a08fd6	4.166692264853053e-08
19	0x3e64a067e2552862	3.842000876693146e-08
20	0x3e61790e9ba8e5d9	3.2545773593879134e-08
21	0x3e5aef67cfaac523	2.5085339120771187e-08
22	0x3e529910653ff8c2	1.7320650094737016e-08
23	0x3e46455eb0ff9ab6	1.0370731412480529e-08
24	0x3e351db63492933b	4.916466186563038e-09
25	0x3e13a302d1de4ab0	1.1430099709369949e-09
26	0xbe138c6f604ddb72	-1.1378767938445893e-09
27	0xbe23b579cc10b06f	-2.294416740386497e-09
28	0xbe2747c4569636ac	-2.7101882306893846e-09
29	0xbe272339de174d6c	-2.693571352706433e-09
30	0xbe25168cb59a5e58	-2.4549761501666134e-09
31	0xbe223b0a1f94edf9	-2.1223238692979774e-09
32	0xbe1e5d45570e47c7	-1.7674371655666222e-09
33	0xbe188a96077a1984	-1.4284946818382266e-09
34	0xbe13521dd8e9d42f	-1.1246167084859104e-09
35	0xbe0db03efd3ab347	-8.640479394981007e-10
36	0xbe0648a9ed4b4151	-6.48545185079975e-10
37	0xbe005a026e51dfe1	-4.758941822554901e-10
38	0xbdf778c6285a4098	-3.41559260347766e-10
39	0xbdf07bda705201ec	-2.3987088731998957e-10
40	0xbde32f4d26d05a05	-1.3958758056283812e-10
41	0xbde3c446ebdcdd66	-1.4382172356818046e-10
42	0xbdd4837c10e3a309	-7.462808515454127e-11
43	0x3de5e692bd90bc26	1.5934839453387918e-10
44	0x3e0872a7b3f05a12	7.115267055041077e-10
45	0x3e1f27298f447bda	1.813341974034026e-09
46	0x3e303af5d2c97701	3.7789143312729216e-09
47	0x3e3e0786c424f434	6.991764558211145e-09
48	0x3e497faa53397ee9	1.1873754069541074e-08
49	0x3e543c13260d3d20	1.884500233926911e-08
50	0x3e5e5e742f93ae97	2.8283298346525475e-08
51	0x3e65ba7a52e88ac8	4.047235290331659e-08
52	0x3e6dcb740c1d8673	5.549702698674306e-08
53	0x3e739afbcfe9b19b	7.303582448000918e-08
54	0x3e78b6717c131d3e	9.206186659108994e-08
55	0x3e7daffca25b027c	1.1059436441207696e-07
56	0x3e80e0e5853ed331	1.257546410317767e-07
57	0x3e8207a4ab6fb25c	1.343328983322302e-07
58	0x3e81f57654d27c52	1.3380376132508397e-07
59	0x3e808f33f122f38d	1.233770424209485e-07
60	0x3e7c0e192315e975	1.04513284046169e-07
61	0x3e759fc0ce86cf8d	8.05558105835501e-08
62	0x3e6ddc8848cc47c0	5.5621293437498866e-08
63	0x3e61e129090ee010	3.330322429585602e-08
64	0x3e50f3ccfbe525ee	1.578810304132039e-08
65	0x3e2f878bd380b720	3.6705142502007783e-09
66	0xbe2f634c25cdd938	-3.654030229811143e-09
67	0xbe3fa531a0b1e0a8	-7.367992892121564e-09
68	0xbe42b09b23720cd0	-8.703147631614283e-09
69	0xbe4293453454c3fb	-8.649786340828453e-09
70	0xbe40ee0d056449dd	-7.883592595174573e-09
71	0xbe3d459034d7fe42	-6.815356124508279e-09
72	0xbe386084d8d9739a	-5.6757189066589135e-09
73	0xbe33b3c5586de65e	-4.587282892838612e-09
74	0xbe2f05a8c4fff2a8	-3.611448508299117e-09
75	0xbe27d59c8f9e7b9e	-2.7746916959827793e-09
76	0xbe21e3cdffeec8b8	-2.0826540487513966e-09
77	0xbe1a413459b2c264	-1.5282249691352066e-09
78	0xbe12d7f324be2c0f	-1.0968391914960982e-09
79	0xbe0a778b9640a8d7	-7.702903146107892e-10
80	0xbdfb907ca8267e2b	-4.0111484286006287e-10
81	0xbdfc6688743b0c26	-4.1328195399836624e-10
82	0xbded7941e0f0d69c	-2.1444911165456893e-10
83	0x3dff77718796e453	4.5789894756924133e-10
84	0x3e21902c3356cd44	2.0446226055228334e-09
85	0x3e36614c90c20381	5.210767161615642e-09
86	0x3e4751c973f2caaf	1.0858979158878823e-08
87	0x3e5592a9dc73b513	2.0091332844750605e-08
88	0x3e62516d7c2c192c	3.4120077005124105e-08
89	0x3e6d12a81ed5fe68	5.4152454835411443e-08
90	0x3e75d11c8ea882ff	8.127406984265147e-08
91	0x3e7f38167edb2839	1.1630018522803154e-07
92	0x3e856781e6853e89	1.594746550461703e-07
93	0x3e8c2b3409728992	2.0987363733456184e-07
94	0x3e91c0df083bc7c4	2.645463228332518e-07
95	0x3e9553c695820c8c	3.17800773704139e-07
96	0x3e984033ab310869	3.613649070568799e-07
97	0x3e99e7b089c7d88a	3.860151396578785e-07
98	0x3e99cd9140864100	3.8449462682559716e-07
99	0x3e97cad35741ef6a	3.5453270830881626e-07
100	0x3e94279148ff9432	3.0032635667108123e-07
101	0x3e8f11b0b3d4c9c2	2.3148285236693925e-07
102	0x3e8573c6e24ec55e	1.5983174353260092e-07
103	0x3e79b065da2b3cd9	9.569918417027195e-08
104	0x3e685b5cf0a3fe8c	4.536823723817505e-08
105	0x3e46a68a616962b0	1.0547483814450978e-08
106	0xbe468c7fed2a5d18	-1.0500115809205596e-08
107	0xbe56bbd6d6d3fa97	-2.1172451726727684e-08
108	0xbe5ada73ef4d3e0f	-2.5009113852155106e-08
109	0xbe5ab04dc519291a	-2.485577638701627e-08
110	0xbe58531a0b816a29	-2.2654064152667693e-08
111	0xbe550752623874cb	-1.958441066099615e-08
112	0xbe518324ce71bb0f	-1.6309582042920464e-08
113	0xbe4c4ed13520e22f	-1.3181883727021762e-08
114	0xbe46493b0fb35a06	-1.037775420322219e-08
115	0xbe411f5a8db1fc7f	-7.97327397703715e-09
116	0xbe39b432813d0368	-5.984654566891973e-09
117	0xbe32dc76fdfc08c0	-4.391463165116912e-09
118	0xbe2b12fb3f0e2201	-3.151845444743273e-09
119	0xbe230380b95d958e	-2.213484016671841e-09
120	0xbe11b83c3429c154	-1.0314204634928125e-09
121	0xbe1241d5780082de	-1.0627067836901818e-09
122	0xbe02f2707739713d	-5.51431107762679e-10
123	0x3e143a6915fe682f	1.1774342264853674e-09
124	0x3e3694b1b6c243be	5.25751074285716e-09
125	0x3e4cc61d80941a14	1.3398885572683065e-08
126	0x3e5dfb4effba422d	2.792260998682862e-08
127	0x3e6bbc720cc00f0a	5.1662540551137224e-08
128	0x3e778d2921796005	8.77358349247451e-08
129	0x3e82b07ba010b954	1.3924677946933878e-07
130	0x3e8c0cbc05452a72	2.0898687814526925e-07
131	0x3e9411aebe31b211	2.990524860583251e-07
132	0x3e9b84f5c5d33846	4.1007064572891264e-07
133	0x3ea21bb1a766e234	5.396658043144404e-07
134	0x3ea6d34e38e7fb79	6.802502968138329e-07
135	0x3eab6b9755a1d1b0	8.171879628664162e-07
136	0x3eaf2dd63715ca5b	9.292080972846843e-07
137	0x3eb0a727e61c736b	9.925933217087964e-07
138	0x3eb0965d00c3cec4	9.886834986789727e-07
139	0x3eae96ed505b36ee	9.116398877685351e-07
140	0x3ea9e99da571cabd	7.722545189006165e-07
141	0x3ea3f8ffb2df9484	5.952314034966831e-07
142	0x3e9b94bc1c60c28a	4.109888575047624e-07
143	0x3e90839c9d3384e0	2.4607939259735035e-07
144	0x3e7f50c1fb614b56	1.1665917906801399e-07
145	0x3e5d1f2371d94678	2.7121635706657905e-08
146	0xbe5cfda86fc40594	-2.6999834355262992e-08
147	0xbe6d3a85a0ddbe14	-5.444251281640851e-08
148	0xbe7143371c654402	-6.430804608727336e-08
149	0xbe71281eb207ab90	-6.391375651614552e-08
150	0xbe6f4622e0b9d41e	-5.8252307946859194e-08
151	0xbe6b094b824396d9	-5.0359048738182255e-08
152	0xbe6683f16c739f8b	-4.193820540306405e-08
153	0xbe623296977172ff	-3.389569063684938e-08
154	0xbe5ca72bb450721f	-2.668519562622159e-08
155	0xbe5603a4ce19009e	-2.0502352598853783e-08
156	0xbe50860de148baef	-1.538884760088912e-08
157	0xbe483feb6d013497	-1.1292140028726602e-08
158	0xbe41678defee45eb	-8.104606317470408e-09
159	0xbe38721c4a08ff70	-5.691718347122061e-09
160	0xbe2462e2461545f7	-2.3732736198704615e-09
161	0xbe250130843a4ff0	-2.445262688359361e-09
162	0xbe15cc5f3938b7a2	-1.2688296844502456e-09
163	0x3e2745b2e7aa885f	2.70924776825487e-09
164	0x3e49fa9e75f849f8	1.2097405465424334e-08
165	0x3e608d503ab900c2	3.0830512667575395e-08
166	0x3e713f2ccd1fea5c	6.424925239049579e-08
167	0x3e7fe8fa1a420564	1.1887426027043951e-07
168	0x3e8b187a06f3952e	2.0187804092919095e-07
169	0x3e95807d6b08fc1a	3.204034824434181e-07
170	0x3ea022ac995e1c96	4.808737681252205e-07
171	0x3ea716d785e664fc	6.881125605317678e-07
172	0x3eafa92440c7c991	9.435626693850797e-07
173	0x3eb4d54f5d800a3c	1.2417580048668106e-06
174	0x3eba42a7110663c7	1.565239532741316e-06
175	0x3ebf8bf47ae97a1a	1.8803298008834424e-06
176	0x3ec1ef80e53bbd48	2.1380854294744506e-06
177	0x3ec328b59c984df7	2.2839333027131634e-06
178	0x3ec31563c8a780de	2.2749368941838818e-06
179	0x3ec198b18d44bd39	2.0976614029316374e-06
180	0x3ebdcfe51ffabfce	1.7769390296233539e-06
181	0x3eb6fa7189f19c7c	1.3696131089481654e-06
182	0x3eafbb4a4ff61ae2	9.45675452544044e-07
183	0x3ea2ffd0fe852b52	5.662227496120527e-07
184	0x3e92039771410d84	2.684299584868488e-07
185	0x3e70c08601a515dc	6.240622988259776e-08
186	0xbe70ad4395ed724a	-6.212596790955986e-08
187	0xbe80d0469283daf2	-1.2527090943017942e-07
188	0xbe83dc40ffe39ca2	-1.4797126363724046e-07
189	0xbe83bd14bcb68856	-1.470640128400448e-07
190	0xbe81fd7b4b4d039c	-1.3403715617458737e-07
191	0xbe7f1addcd52e0a8	-1.1587495703485395e-07
192	0xbe79e758d5a622e4	-9.649879953976146e-08
193	0xbe74efa64da9366e	-7.799316696055198e-08
194	0xbe707b83434c80aa	-6.140199177969447e-08
195	0xbe6953bd7f3025a3	-4.717541903654635e-08
196	0xbe6302a05aeb8315	-3.54093673182697e-08
197	0xbe5be622fef6ed89	-2.598294196268569e-08
198	0xbe54060fca02153c	-1.8648503741677064e-08
199	0xbe4c1fe1755a59a0	-1.3096506694480205e-08
200	0xbe34fcd9c0acb9ec	-4.8865791506912385e-09
201	0xbe359fd3982af9ae	-5.034804908652828e-09
202	0xbe267100d4d31890	-2.612525007610011e-09
203	0x3e37f57643880dda	5.5783511633747584e-09
204	0x3e5abed314895846	2.490860254369971e-08
205	0x3e710a526c7e7dfa	6.348013947701453e-08
206	0x3e81c16e4a68d2ed	1.3228944802244612e-07
207	0x3e906cfd0a28dcb9	2.4476254104365754e-07
208	0x3e9be51d9434eb13	4.156676320536618e-07
209	0x3ea622e1edc51c7e	6.597119539896674e-07
210	0x3eb09c89676c15e6	9.901208650198937e-07
211	0x3eb7c538fef814cc	1.4168263041691892e-06
212	0x3ec04c210ebbbf76	1.942799021985239e-06
213	0x3ec572a70b5ebdad	2.5567843193391704e-06
214	0x3ecb08fbb7c3f924	3.2228339802424012e-06
215	0x3ed03d1af49e3aad	3.871606006357564e-06
216	0x3ed276f619dab1a0	4.402325797830611e-06
217	0x3ed3b9684be632fb	4.702627107622212e-06
218	0x3ed3a5848eba47b8	4.684103469225773e-06
219	0x3ed21d9720b0a0ae	4.319092577844e-06
220	0x3eceb10cce0f0cf5	3.658724026385524e-06
221	0x3ec7a7fc88a78d10	2.8200384509666506e-06
222	0x3ec055789ef13694	1.947149250314617e-06
223	0x3eb38f4ed5e00545	1.1658547331985872e-06
224	0x3ea28ba45cd24372	5.5269827616183e-07
225	0x3e813f0af6a6ceac	1.284946578701667e-07
226	0xbe812b371610b09a	-1.279175974323342e-07
227	0xbe914f427f5dc55a	-2.579332652941458e-07
228	0xbe94723fb06eca61	-3.046733784664251e-07
229	0xbe945227fe8a9c68	-3.028053457234217e-07
230	0xbe92855a11ae4a56	-2.759829997252632e-07
231	0xbe9002e49137fded	-2.3858696460152227e-07
232	0xbe8aaafbe72320a4	-1.9869138473947636e-07
233	0xbe858dc4e9635bab	-1.6058821889513797e-07
234	0xbe80f7ff04b4585f	-1.2642692790641938e-07
235	0xbe7a1305c4d568f3	-9.713436207228924e-08
236	0xbe7392336b3a9318	-7.290801811805791e-08
237	0xbe6cb8d7ca20b202	-5.3498973487688526e-08
238	0xbe649d4a3b144844	-3.8397338095655674e-08
239	0xbe5cf44a5ca99dde	-2.6965755665218367e-08
240	0xbe4355ad9528053e	-9.003411937001104e-09
241	0xbe43ebd15bf119b0	-9.276514554895593e-09
242	0xbe34ac84fd7ab376	-4.813518437719889e-09
243	0x3e461261f9580832	1.0277986277170555e-08
244	0x3e68a38f57c8d799	4.589353872314514e-08
245	0x3e7f657ada6837c6	1.1696072608360387e-07
246	0x3e905b6d4a65158a	2.4374032605122046e-07
247	0x3e9e4398ae4929ab	4.5096946469217874e-07
248	0x3ea9b2ac15f36ff1	7.658582425146087e-07
249	0x3eb4648d3a007c4e	1.2155044046902814e-06
250	0x3ebe9b33fcd778b2	1.8242753755319733e-06
251	0x3ec5e5f159a6c1ca	2.610470528817604e-06
252	0x3ece070dcb181bc8	3.5795634054677372e-06
253	0x3ed3c233a5d69e9d	4.71081747602906e-06
254	0x3ed8e7e0b9f1a9fc	5.937998962849633e-06
255	0x3eddeb5f6fe3fdaa	7.133346797027533e-06
