src/kernel/kernel6.npy (npy, 141248 bytes, 1 tensors)

array f8 [21, 21, 40]
-5.0422865978230186e-08 -6.021102861960069e-08 -5.4981706020261135e-08 -1.2079203976197435e-08 1.0701709463622987e-07 3.596412928558095e-07 8.195352842902335e-07 1.5651549364305548e-06
2.6565520755422222e-06 4.103361696117786e-06 5.83295703140251e-06 7.67311389580684e-06 9.363387442825247e-06 1.060127841552022e-05 1.1114873878502061e-05 1.0739459867419732e-05
9.469785601364474e-06 7.466897506114847e-06 5.016260320820582e-06 2.4534216040262933e-06 8.48583791238539e-08 -1.870086709995454e-06 -3.3025936031204342e-06 -4.2048037896524755e-06
-4.639793918883558e-06 -4.706336116328724e-06 -4.509840574329871e-06 -4.144357893585939e-06 -3.6850131393948463e-06 -3.187469468288035e-06 -2.69076073559022e-06 -2.2209261077025975e-06
-1.794201393123776e-06 -1.4194607936470424e-06 -1.1000442808173325e-06 -8.351966118860713e-07 -6.21276858306938e-07 -4.5280463577900663e-07 -3.233482218415883e-07 -2.2623816252395584e-07
-7.409368015832494e-08 -8.233140430131999e-08 -5.993940833822944e-08 3.4071009441434166e-08 2.6887837033886434e-07 7.482775858051893e-07 1.6101900238816086e-06 3.0146108972766045e-06
5.118492351130951e-06 8.041749711455763e-06 1.1833253481595526e-05 1.6444345740359475e-05 2.1708929687246098e-05 2.732117786685199e-05 3.280784315406801e-05 3.7517024415513136e-05
4.067113362346047e-05 4.1524197916754624e-05 3.960445898647292e-05 3.49428978859408e-05 2.8154399390834836e-05 2.0296733531327222e-05 1.2555378841668974e-05 5.901954815902754e-06
8.784348277555087e-07 -2.427000512872417e-06 -4.253292415771251e-06 -4.986500420622976e-06 -5.012211655409535e-06 -4.636987418313558e-06 -4.07076161029974e-06 -3.4428401075758518e-06
-2.826995003347791e-06 -2.2626180060536782e-06 -1.7686359262740685e-06 -1.3516176196047646e-06 -1.0104386721994868e-06 -7.392127173204801e-07 -5.29359566947057e-07 -3.711478743874362e-07
-7.07317729680818e-08 -6.544014766139101e-08 -1.257919044006764e-08 1.4345777860877664e-07 4.956287450002183e-07 1.1848602065499537e-06 2.4060981295384864e-06 4.407785758744676e-06
7.486839608403892e-06 1.1984128530271559e-05 1.8279380636027904e-05 2.6763739700333267e-05 3.774234857045915e-05 5.122012625910357e-05 6.658755953044947e-05 8.234493284757177e-05
9.610187430060311e-05 0.00010504275947564504 0.00010680937189470874 0.00010044209494961127 8.688013037153083e-05 6.870764817080173e-05 4.9251782580114365e-05 3.1495293302066996e-05
1.7314181669121645e-05 7.292097401129294e-06 1.021022303727195e-06 -2.3981743431448528e-06 -3.922693983696988e-06 -4.326347532163509e-06 -4.136162396580923e-06 -3.6704725682846076e-06
-3.1065547082539096e-06 -2.5384239463332778e-06 -2.014158584245379e-06 -1.5564671008626363e-06 -1.173322132199913e-06 -8.637427868192846e-07 -6.214024872623227e-07 -4.3715926252746727e-07
-1.243117696038638e-10 3.8090067716198144e-08 1.296184231344198e-07 3.2241160453043896e-07 6.948065313842203e-07 1.3685617002580722e-06 2.5277986486248036e-06 4.450898347295946e-06
7.565534489043009e-06 1.2529778162740977e-05 2.0311579465802072e-05 3.218244161265664e-05 4.9489540679829406e-05 7.309502482392691e-05 0.00010253973294052434 0.00013527299189393995
0.00016650445480284498 0.0001901204046339885 0.0002005760730699979 0.00019499706281648417 0.00017440789613901986 0.00014338531269224102 0.00010831094919496487 7.515862713052404e-05
4.7877207830047994e-05 2.791822767552392e-05 1.4758468127963604e-05 6.855468752094106e-06 2.496714272725966e-06 2.835103063579428e-07 -7.336031110376655e-07 -1.1211803187693987e-06
-1.1898412703481007e-06 -1.10357362886488e-06 -9.496146744766392e-07 -7.757409491673439e-07 -6.082370294689178e-07 -4.6057152926518504e-07 -3.3814742679825346e-07 -2.4137796238059724e-07
1.7248104946326944e-07 2.6380010892223517e-07 3.843318158781635e-07 5.290205092980189e-07 6.844421165701244e-07 8.384235918175245e-07 1.0169305018363501e-06 1.3723557198223993e-06
2.345924552514225e-06 4.899992988104927e-06 1.0747316192749518e-05 2.2400845002972876e-05 4.279009210062048e-05 7.42549643345297e-05 0.00011703211227391151 0.00016782762386694525
0.00021941395123682808 0.00026199244199499996 0.0002861989334489692 0.00028653676643214203 0.0002635060524111083 0.000223278112102711 0.0001751326974287824 0.00012807846353402906
8.830417054628445e-05 5.834354361096016e-05 3.7766169365756e-05 2.4561103598357805e-05 1.63953805848449e-05 1.1344051406321222e-05 8.104700597227231e-06 5.9095684949919726e-06
4.3444322773354695e-06 3.1916451791644436e-06 2.33069592882428e-06 1.6867349505737651e-06 1.2075380452510628e-06 8.539664333773219e-07 5.958230452581614e-07 4.0964383173480694e-07
4.41991323983284e-07 5.935702445943065e-07 7.05158935647202e-07 6.605547937106543e-07 2.5669182191845105e-07 -7.997940451504348e-07 -2.8388835461445185e-06 -6.069751082253133e-06
-1.0283351547412902e-05 -1.443215188385684e-05 -1.621412680180662e-05 -1.1931608185897922e-05 3.0169358474122187e-06 3.276749367968095e-05 7.89148625084699e-05 0.00013851583732167507
0.00020337598553873588 0.00026156596279343304 0.0003010440050672678 0.0003139227683182577 0.0002992768798476853 0.00026305574808181014 0.00021528288886011693 0.00016616570950281508
0.00012305032386139247 8.929992821109081e-05 6.493890851321065e-05 4.8138700963893164e-05 3.661223323772573e-05 2.8441596378190316e-05 2.233582851380816e-05 1.7548689615747318e-05
1.3688229969769752e-05 1.0550179811861534e-05 8.013762589670887e-06 5.990168401820682e-06 4.402251123326644e-06 3.1787790834199594e-06 2.2540521592332516e-06 1.5688688177679334e-06
7.353164517067523e-07 9.264425091849591e-07 9.659829391057864e-07 5.841540529091975e-07 -6.817862484831638e-07 -3.5140520003090953e-06 -8.75527173286685e-06 -1.7197560825369805e-05
-2.917568277598873e-05 -4.399748067101921e-05 -5.937881084557544e-05 -7.119868748201335e-05 -7.395357491372424e-05 -6.214025986606864e-05 -3.2373590997641935e-05 1.4521459612321596e-05
00000000: cc6b dce0 1012 6bbe 3409 0e9e ab29 70be
00000010: 2c76 7dcd a084 6dbe 4286 35d4 9cf0 49be
00000020: cda7 86a3 28ba 7c3e 9584 1f22 9722 983e
00000030: 7a49 1e26 c17f ab3e 96c5 470d 4a42 ba3e
00000040: a604 ccf2 e648 c63e e368 7679 f335 d13e
00000050: ad5e 2405 1777 d83e a8da 63be 7817 e03e
00000060: e2dd cc2b eea2 e33e 5393 639c 843b e63e
00000070: e0fb 42a2 404f e73e d024 0220 b485 e63e
00000080: c52a 336c 0ddc e33e 2c9c 6828 8551 df3e
00000090: 5c90 3e23 2b0a d53e 8167 6dca ae94 c43e
000000a0: cef8 9964 6cc7 763e a293 2415 f65f bfbe
000000b0: 79f4 c208 44b4 cbbe d1fa 30aa dfa2 d1be
000000c0: b9a3 50d7 f075 d3be 071d 2fd2 63bd d3be
000000d0: 9b35 a889 67ea d2be 75f9 646c f861 d1be
000000e0: db78 cb65 81e9 cebe 3918 2ddf 09bd cabe
000000f0: 9f2d b15b 5d92 c6be db88 380a 67a1 c2be
00000100: 70ff 574b 091a bebe a35f d5a5 89d0 b7be
00000110: 37e1 527a a774 b2be 5d47 c2c5 4806 acbe
00000120: cb14 7242 bad8 a4be 69d2 3dd9 1f63 9ebe
00000130: 5d63 d984 14b3 95be c44d 38ec 7b5d 8ebe
00000140: 96fe 59ce ade3 73be f478 bb61 c519 76be
00000150: 418e 0e39 0117 70be 7e62 d912 af4a 623e
00000160: 83d4 1d94 4b0b 923e 2243 13d0 a71b a93e
00000170: 4ec8 78a7 b603 bb3e b822 0dde d349 c93e
00000180: 2302 d576 f077 d53e 83d6 17aa 61dd e03e
00000190: a696 84f9 edd0 e83e 71a2 a4d5 3e3e f13e
000001a0: 0518 e249 72c3 f63e 487a fc0b f9a5 fc3e
000001b0: c4be 3de8 6433 013f 9ce0 ac24 73ab 033f
000001c0: 16ad ab82 c952 053f 9f60 8c93 48c5 053f
000001d0: 43d8 56d9 9ec3 043f 242f 45d4 f451 023f
000001e0: 6567 0d98 a385 fd3e 0686 60e8 5c48 f53e
000001f0: eeab e120 9e54 ea3e eba0 96fc 2cc1 d83e
00000200: 005e 5e9d b279 ad3e a633 6ba4 f15b c4be
00000210: 870f eb1d f0d6 d1be 44cd 70cc 36ea d4be
00000220: f26a be3f d205 d5be 58f4 6465 ed72 d3be
00000230: 450a 5d6e f212 d1be 3399 8c5d 71e1 ccbe
00000240: 303e 5df0 ecb6 c7be 9b8f 4767 effa c2be
00000250: fa59 28c4 3bac bdbe 9afd ff49 27ad b6be
00000260: d592 b911 cdf3 b0be 9ab4 c8f4 c9cd a8be
00000270: 2854 8eff 29c3 a1be 5899 329d 45e8 98be
00000280: ebde 6182 a6fc 72be 1577 9f40 0391 71be
00000290: d830 07ab 7b03 4bbe e697 24f7 2b41 833e
000002a0: c281 e922 6ba1 a03e a245 0b93 efe0 b33e
000002b0: dbd9 7c6f 0e2f c43e 2e72 72ec d27c d23e
000002c0: 9c5c 1acd ee66 df3e 0e95 5e15 ee21 e93e
000002d0: 8efa ec78 d52a f33e 3c76 0d30 5610 fc3e
000002e0: ec00 e738 b1c9 033f 2e2f 2f23 a6da 0a3f
000002f0: f335 e08f 9d74 113f 0e0b 9e2c 1396 153f
00000300: 5b73 faa0 4931 193f f41e d4dd 4c89 1b3f
00000310: f82b 6a09 dbff 1b3f 67d8 420d 8e54 1a3f
00000320: 16c8 4346 6dc6 163f a7e1 5268 e402 123f
00000330: 6091 155d 76d2 093f 848e a509 3a83 003f
00000340: 0448 2181 bd27 f23e a8e6 8978 d495 de3e
00000350: e8a4 29e5 4121 b13e ce40 b149 0a1e c4be
00000360: a210 6de9 f573 d0be 4ae8 b65a 6125 d2be
00000370: 5cf1 8fa9 2b59 d1be c866 56a2 47ca cebe
00000380: a8fc 1383 460f cabe e784 9652 394b c5be
00000390: d5c7 4b64 5fe5 c0be b959 f7ac f91c babe
000003a0: 00c7 d553 61af b3be 06a0 9b79 7efb acbe
000003b0: 419d 4285 ced9 a4be 2e7f f4c4 5656 9dbe
000003c0: 0070 e7e0 d415 e1bd 28df 8b1d 0f73 643e
000003d0: 7c73 10b5 a765 813e 407c 813b fda2 953e
000003e0: 1cc5 7ab8 5750 a73e 760d b580 edf5 b63e
000003f0: 4e1d e000 6834 c53e 4862 299f 1dab d23e
00000400: d6d9 0649 6ebb df3e af82 1199 df46 ea3e
00000410: 107e d11c 594c f53e 0c51 1b46 74df 003f
00000420: 5735 72ab 5ff2 093f 29eb e7f6 5229 133f
00000430: 6667 b532 53e1 1a3f e2da 0527 02bb 213f
00000440: d9b3 4360 f6d2 253f 1325 25d7 61eb 283f
00000450: 5c2f 3059 374a 2a3f 19d5 e503 048f 293f
00000460: 2fc5 8f6b 28dc 263f b865 1d75 36cb 223f
00000470: aaa5 38f0 9f64 1c3f 31ad d461 cfb3 133f
00000480: d378 b755 f819 093f 8e55 4cff 3d46 fd3e
00000490: fd4f 136a 64f3 ee3e 3e86 d5e6 00c1 dc3e
000004a0: e264 e22f a7f1 c43e d86f 8483 ab06 933e
000004b0: e439 304d 9a9d a8be 3133 1dcc 6ecf b2be
000004c0: df50 dc4f 54f6 b3be 5fb5 7b09 d083 b2be
000004d0: 23cb c3c0 20dd afbe 0c65 3363 9007 aabe
000004e0: ec9c 685f b768 a4be 97df e401 8fe8 9ebe
000004f0: 44cb 541c 54b1 96be 7ab1 5b81 d732 90be
00000500: 28ae 0b5b 6726 873e b484 0f26 0db4 913e
00000510: 2ca2 b133 c5ca 993e 1478 1167 40c0 a13e
00000520: 548a a421 50f7 a63e 6404 f6f9 0022 ac3e
00000530: 2c1c 52e9 ae0f b13e 4097 4612 3906 b73e
00000540: c256 64a9 d5ad c33e bb63 0dd1 538d d43e
00000550: 9ccc e1e3 eb89 e63e 422c d858 2e7d f73e
00000560: 76c0 8b5e 306f 063f 6fd9 d292 2a77 133f
00000570: e0ca 1261 e4ad 1e3f d0b4 ce4f 5cff 253f
00000580: 26c2 5c7d 4fc2 2c3f 17e9 5cf8 802b 313f
00000590: c729 2f0f 9fc1 323f de3b 7a0a 4ac7 323f
000005a0: 9b88 9de0 e544 313f 3a38 f860 f843 2d3f
000005b0: f014 746a 7af4 263f 3fc1 d89f 99c9 203f
000005c0: 79e0 2f19 fe25 173f b1e5 d8e4 bc96 0e3f
000005d0: 366a d5b2 e3cc 033f 535f f52f 12c1 f93e
000005e0: 4581 84f9 1931 f13e 90c2 ac8d 4aca e73e
000005f0: 763e 7b91 2dff e03e 76dd 9fd1 59c9 d83e
00000600: a460 8573 cc38 d23e aeab 3c7e 01c6 ca3e
00000610: 2289 24a3 218d c33e 6007 eeb0 784c bc3e
00000620: dc0d 2a1f 5642 b43e fea3 e40b 84a7 ac3e
00000630: 224f 93bb 14fe a33e e426 fd9f a07d 9b3e
00000640: bb7e 7f66 5aa9 9d3e b4f0 8bc5 baea a33e
00000650: b82a fae5 44a9 a73e e504 5a5a 1f2a a63e
00000660: 949f 6292 ee39 913e f2cd 76b4 2dd6 aabe
00000670: 7a84 04bc 74d0 c7be 4811 2179 5875 d9be
00000680: dd18 2a13 d590 e5be 8a95 ecd9 3344 eebe
00000690: 18c1 3e4f 7200 f1be 9ce1 07be bb05 e9be
000006a0: a0a6 b105 d24e c93e 8ed6 8282 fa2d 013f
000006b0: e5c8 ba03 e3af 143f dc59 88fb d127 223f
000006c0: 770b d269 2aa8 2a3f f694 8541 5924 313f
000006d0: 1b31 0b28 aeba 333f 8553 fd05 c092 343f
000006e0: 3e2a 5169 089d 333f 84ee c4d5 573d 313f
000006f0: 5435 20ef b137 2c3f 3ad4 7893 98c7 253f
00000700: 8d3f c63b e220 203f 8feb b515 d168 173f
00000710: 4d7c 05f4 f905 113f 648b a52b 113d 093f
00000720: c84f 4fc1 0232 033f d4a3 e29e bbd2 fd3e
00000730: 38cc ab72 ba6b f73e f351 8ec4 b066 f23e
00000740: f56e 7e00 d0b4 ec3e 5dc8 1aac 1520 e63e
00000750: d85a c924 5bce e03e f84d d9f3 e41f d93e
00000760: bf6b 1a93 e176 d23e 82aa 3c48 60aa ca3e
00000770: 1a2c 8347 8ae8 c23e 567c f181 3d52 ba3e
00000780: 56fd 3cfa 51ac a83e 81a8 649f 1416 af3e
00000790: 33a6 4979 dd34 b03e 4f48 e058 d899 a33e
000007a0: f0ae d3d0 7fe0 a6be 8038 7984 5e7a cdbe
000007b0: 4a55 6362 735c e2be 20d1 8c61 6f08 f2be
000007c0: ff38 5ea7 c997 febe 119f b9ec 3d11 07bf
000007d0: 1aeb be67 b021 0fbf e150 1323 10aa 12bf
000007e0: 880a 22be f062 13bf 1562 1a89 294a 10bf
000007f0: 02d0 e01d 1cf9 00bf c0da 4536 2674 ee3e
