src/kernel/kernel3.npy (npy, 141248 bytes, 1 tensors)

array f8 [21, 21, 40]
000000 46 a8 27 cd e5 db 62 3e 96 83 27 83 5a 92 6a 3e
       3.5127578751893584e-08 4.949363620658249e-08
000010 7d 37 ab 14 0d 28 71 3e 25 f7 1b e7 8c 57 73 3e
       6.391275523683136e-08 7.205454169084466e-08
000020 71 60 27 e5 ba c8 70 3e b0 cd a9 9d 0e d1 54 3e
       6.25256515793405e-08 1.9386996767028752e-08
000030 d0 c3 af 6c 66 71 73 be 14 8a ce 08 9b 8b 8c be
       -7.24307042535747e-08 -2.126793145182024e-07
000040 ba e7 45 6f 64 14 98 be fc 1a e8 aa 29 04 9a be
       -3.5881485806849433e-07 -3.8767249579999485e-07
000050 40 37 c7 32 94 e9 6e be 32 1d 0d ca a3 d1 b0 3e
       -5.757886465154036e-08 1.0024848863964548e-06
000060 f2 4f 32 77 cb 2d cb 3e 20 50 23 65 c8 82 dd 3e
       3.239975677591164e-06 7.035939761663334e-06
000070 89 43 ea 9f 26 31 ea 3e 61 21 53 5b 0d 25 f4 3e
       1.2489316757043213e-05 1.921151643527583e-05
000080 98 6f 89 5a 50 89 fb 3e cb 22 fd 56 a8 f1 00 3f
       2.6260740613500902e-05 3.2318067381858344e-05
000090 26 13 45 64 ef eb 02 3f a3 0e 57 fe f2 47 03 3f
       3.6090129045740404e-05 3.6775687287907555e-05
0000a0 37 df f4 a8 29 04 02 3f 04 d8 4d e5 94 0a ff 3e
       3.436329017819514e-05 2.9603323429459885e-05
0000b0 b8 ba 63 7e 67 d4 f8 3e e2 fc 74 84 d1 a0 f2 3e
       2.3679451168707593e-05 1.776523302265694e-05
0000c0 07 d4 8d 5d ae 99 ea 3e 07 47 5b 2f b7 6f e2 3e
       1.2684019496703528e-05 8.791155305418458e-06
0000d0 3a 0f 05 1f 81 67 d9 3e 76 30 cc 67 1a cb d1 3e
       6.056860442807925e-06 4.242270389875308e-06
0000e0 44 49 d4 43 16 af c9 3e 22 ea 35 3f 28 1c c3 3e
       3.061763463771022e-06 2.278088226223956e-06
0000f0 25 99 c4 7e dd 0a bd 3e c4 16 01 59 88 43 b6 3e
       1.7310644536222306e-06 1.3270258456694735e-06
000100 00 4b 6d 29 9f 0b b1 3e 68 35 33 2b 63 e5 a9 3e
       1.0159848550974205e-06 7.717622651171639e-07
000110 32 11 b6 31 99 71 a3 3e df eb fd 9f b5 cc 9c 3e
       5.794687213821701e-07 4.291481729906724e-07
000120 55 76 1b d3 94 02 95 3e ce b8 7f 00 03 2b 8e 3e
       3.1307463919751864e-07 2.2476922389942972e-07
000130 46 da 24 06 43 4c 85 3e b8 20 2a 3e b4 8c 7d 3e
       1.5868170339670388e-07 1.1008093240606737e-07
000140 e8 88 83 a1 e0 f5 66 3e 25 95 25 92 42 b7 71 3e
       4.276718729310322e-08 6.599671967739851e-08
000150 05 af 23 f1 83 1d 7a 3e 5a 27 c2 a5 07 45 82 3e
       9.728705333320361e-08 1.3611948446553022e-07
000160 b3 51 78 ba 53 35 88 3e 28 dd fc 0f 0e b8 8e 3e
       1.8036595615722312e-07 2.2887412142746902e-07
000170 3e df 5b 45 b3 85 93 3e 0c db 1e 74 2c 6a 9b 3e
       2.909044430755571e-07 4.085114718681825e-07
000180 12 71 e2 08 d6 68 a7 3e e4 fe 77 30 46 9b b7 3e
       6.976579401021926e-07 1.4070594164249893e-06
000190 18 31 f7 49 74 f7 c8 3e bc c3 31 93 d3 5d d9 3e
       2.97625281551172e-06 6.047847182264731e-06
0001a0 43 8d 3d 3a a2 d7 e7 3e aa 0c a2 25 4f 7b f4 3e
       1.1368903706182798e-05 1.9532848775327565e-05
0001b0 a2 5c 2a f4 e5 09 00 3f 28 2a d3 6a c4 e7 06 3f
       3.059132588594775e-05 4.3688470535114675e-05
0001c0 17 b2 44 bf dd dc 0d 3f 35 2f 6e 08 41 cb 11 3f
       5.695869177410969e-05 6.787857465278826e-05
0001d0 39 85 46 7a d1 68 13 3f c2 5b 4d a6 b3 68 13 3f
       7.404116201438917e-05 7.403942579507688e-05
0001e0 bc f6 44 c8 47 d4 11 3f f1 99 6f 72 e9 2d 0e 3f
       6.801307796863281e-05 5.756252931359344e-05
0001f0 09 41 b8 e4 6c a3 07 3f 40 5b d1 59 35 41 01 3f
       4.5086632408099644e-05 3.291076721072825e-05
000200 24 98 b9 e5 b4 ba f7 3e c8 9c 26 7b af 3c ef 3e
       2.2630045675951904e-05 1.4894987405990315e-05
000210 98 c9 f8 df 0b 1d e4 3e 9c 8f ca 16 32 fc d9 3e
       9.590846274586115e-06 6.195339989165714e-06
000220 89 b4 64 c2 58 36 d1 3e 56 44 c3 fd 05 a2 c7 3e
       4.1037301683869e-06 2.817261686251708e-06
000230 20 0d 6a c8 98 c3 c0 3e 06 d7 ad f1 de 4b b8 3e
       1.9984304942558337e-06 1.4481765393237191e-06
000240 2e 49 93 3b 7c c4 b1 3e 18 42 02 cf e5 fc a9 3e
       1.0590267563349279e-06 7.744992256576584e-07
000250 be e4 3e 83 59 e7 a2 3e ba b4 00 f4 36 45 9b 3e
       5.633744479739239e-07 4.063601757333736e-07
000260 53 80 e2 2a f2 77 93 3e e8 fc 3c 6e 3b 79 8b 3e
       2.901038368505931e-07 2.0469399608124396e-07
000270 52 d8 a4 88 53 22 83 3e d2 1f 28 50 16 46 7a 3e
       1.425600582667056e-07 9.787745017958106e-08
000280 57 fd fd ad c9 8d 61 3e 55 9e 9e 03 38 78 71 3e
       3.2696609641130404e-08 6.507934893642619e-08
000290 c6 ca 01 3d 92 a4 80 3e 44 b0 38 24 8a 84 8e 3e
       1.239989431165435e-07 2.2737482839715977e-07
0002a0 a4 be 9d 9c 19 14 9b 3e 8d 7e 15 00 d4 6b a7 3e
       4.0350132889716245e-07 6.980062609400091e-07
0002b0 d0 2b 89 87 c2 ef b3 3e ba 76 fb 17 c9 e2 c0 3e
       1.1883116980578193e-06 2.012953871018513e-06
0002c0 75 af d7 d8 29 b9 cc 3e 49 09 c3 c4 e2 97 d8 3e
       3.4240835648981332e-06 5.863500586569052e-06
0002d0 6b 74 0c ec d3 0c e5 3e 28 65 4a 2d ec be f1 3e
       1.003747400001917e-05 1.6923705362080797e-05
0002e0 de f4 5c 8a 2c f3 fc 3e b0 b7 84 7a c4 7a 06 3f
       2.7608774551203588e-05 4.287635903420185e-05
0002f0 52 7f a3 6a 62 68 10 3f 4d f8 3b 4c 6f 50 16 3f
       6.259060561175409e-05 8.512191112328253e-05
000300 fe 75 83 3e e1 1a 1c 3f 5c a4 c1 a9 ab 54 20 3f
       0.00010721206456617419 0.00012459369179687845
000310 58 78 30 14 01 79 21 3f 94 57 c5 98 73 31 21 3f
       0.00013330591363653016 0.0001311734780624045
000320 1f 9f db 8a 77 1d 1f 3f cb 69 25 ff 40 e9 19 3f
       0.00011869470719327563 9.884318550260685e-05
000330 fa 47 b1 44 1c e5 13 3f 50 3d 1b bc 4e 43 0c 3f
       7.589325939363892e-05 5.390724210274178e-05
000340 54 f0 d0 e6 23 ac 02 3f f7 f6 52 46 f9 23 f7 3e
       3.561482012812202e-05 2.2068521862142966e-05
000350 fc 1b bb 5c ec 38 eb 3e a4 04 ac a8 f6 e0 de 3e
       1.298063116140883e-05 7.362070969519803e-06
000360 df 43 11 5d b2 2d d1 3e 08 53 3a 77 ae 00 c3 3e
       4.095674243379817e-06 2.265293852785742e-06
000370 d0 78 28 ba 09 f8 b4 3e eb 8b ad 00 74 d5 a6 3e
       1.2498437419526932e-06 6.80500307975358e-07
000380 c0 3a 9e 01 a1 e9 97 3e 93 fe 09 cb 6f 02 87 3e
       3.563257010502276e-07 1.7143427079659579e-07
000390 84 28 c4 3f 24 6a 72 3e e8 9c 8b 93 2b c9 4f 3e
       6.859978890855061e-08 1.4801426405235489e-08
0003a0 1c 6c 54 32 e9 f4 45 be 20 12 2d 09 ae a0 54 be
       -1.02243774094339e-08 -1.9211001299538223e-08
0003b0 bd 1a 37 ce ad 7e 55 be 7a e0 23 5c a9 89 52 be
       -2.001862932173036e-08 -1.7264616188902515e-08
0003c0 6c 75 1b 13 d9 5e 50 be a8 e9 b9 e3 b6 90 57 3e
       -1.52462160178535e-08 2.1946887181280104e-08
0003d0 36 f0 73 94 46 0e 80 3e 01 bc 83 55 0f 7a 96 3e
       1.1962476718214003e-07 3.3493036745343426e-07
0003e0 c4 13 0f 8f b1 8e a9 3e a0 15 47 2a 3a eb b9 3e
       7.616697797965617e-07 1.5448842215365976e-06
0003f0 ae 6d f9 0b be 53 c8 3e f3 ae 4e fc 27 92 d5 3e
       2.900018529134697e-06 5.142908723703343e-06
000400 f0 24 1d 69 98 54 e2 3e 46 4d 9e f9 05 2c ee 3e
       8.740639973264162e-06 1.4387114607028667e-05
000410 d9 75 a8 09 ad 32 f8 3e 95 21 51 c5 6a ec 02 3f
       2.3076966139004083e-05 3.609371984986395e-05
000420 c4 f4 1c 67 a1 b7 0c 3f 06 af f8 58 28 f4 14 3f
       5.477391540729398e-05 7.993217717999429e-05
000430 82 51 25 b7 68 19 1d 3f 40 04 33 d2 41 0a 23 3f
       0.00011100484497223419 0.00014526418190111308
000440 ac 2e 12 61 e6 49 27 3f 7d 96 86 59 d7 75 2a 3f
       0.00017767846341986326 0.0002018761995376434
000450 33 d2 aa 52 96 cd 2b 3f de 69 72 74 3c ef 2a 3f
       0.00021212062832422356 0.00020549405073640078
000460 49 e0 cf 14 f8 01 28 3f f8 57 e3 f6 3f a9 23 3f
       0.00018316415153640995 0.00015000253501423733
000470 dc 46 f7 aa 0c 8e 1d 3f 78 4e 1a ee b5 5b 14 3f
       0.00011274292295773307 7.766054070606511e-05
000480 a8 0b ba c3 f7 a0 09 3f 86 40 d3 8d ad 42 fd 3e
       4.8883019613497295e-05 2.790494987864368e-05
000490 3a d2 3f 20 36 aa ed 3e 90 74 ec 2d 7d fb d8 3e
       1.4145321081551332e-05 5.956263264631241e-06
0004a0 78 98 46 8b 84 73 b9 3e 48 2d 58 9b ba 12 a6 be
       1.5170121915125065e-06 -6.578314272766067e-07
0004b0 54 1d 71 87 fc 74 ba be ef f0 83 db 04 ec be be
       -1.5769587926749784e-06 -1.843091793018186e-06
0004c0 b4 ac d6 f0 40 fc bd be b3 0c 6f 3c b2 94 ba be
       -1.7872670839785085e-06 -1.5843418041817881e-06
0004d0 ef 90 af af 15 43 b6 be 1e e1 d3 e6 ea dd b1 be
       -1.3269215617335038e-06 -1.0649481752539237e-06
0004e0 0c ac 58 76 19 ae ab be 30 e7 34 07 56 c8 a4 be
       -8.249305493748253e-07 -6.193686331930562e-07
0004f0 c6 b2 01 44 6f 55 9e be c2 22 55 b7 97 8f 95 be
       -4.5200778587307343e-07 -3.212825768384434e-07
000500 4e d8 99 3a 4c 8c 80 be 2e 1b 42 3e e7 e4 78 be
       -1.232924920384434e-07 -9.27379484890139e-08
000510 dc a9 e4 6c 63 16 6b 3e c1 98 3f bc 22 da 9c 3e
       5.045431593555714e-08 4.299296814100236e-07
000520 26 91 58 e0 96 fe b4 3e 52 6c 16 51 a6 b9 c7 3e
       1.2513691002381392e-06 2.828263526222872e-06
000530 34 23 5b 62 35 80 d7 3e e2 9a 9d c4 b5 50 e5 3e
       5.603030819486405e-06 1.0163914470684988e-05
000540 2c ed e8 47 10 1b f2 3e e0 a2 89 0f 36 3a fd 3e
       1.7266957451617427e-05 2.7873408699727038e-05
000550 42 36 f3 16 39 a4 06 3f 30 f2 ab f5 cf ee 10 3f
       4.318522666722477e-05 6.459373745921408e-05
000560 96 67 13 74 ce 7a 18 3f de 3a 87 70 7c 0b 21 3f
       9.338269321137872e-05 0.00013004201924934113
000570 e4 47 5c 56 6c b5 26 3f a5 6a 6e 45 c3 b3 2c 3f
       0.000173253512166626 0.00021898039514386017
000580 92 58 52 ed 83 10 31 3f 4b 49 8b 0f 0d f3 32 3f
       0.0002603838050360209 0.0002891451727410523
000590 f4 2a f0 db 9f 88 33 3f 43 b4 70 6b 43 9a 32 3f
       0.00029806044398188116 0.0002838530157898736
0005a0 22 16 d0 f1 03 4d 30 3f 43 c2 b9 ee 8f 2e 2a 3f
       0.00024873110106713077 0.00019975192059319872
0005b0 34 27 29 71 2a 2c 23 3f b5 33 47 27 3b 62 19 3f
       0.00014627473918187863 9.683118862042937e-05
0005c0 85 cb b5 75 36 d4 0d 3f ea 61 e7 67 51 aa fd 3e
       5.6894218427048226e-05 2.8291039137902646e-05
0005d0 2c 5e 50 21 c1 02 e5 3e 80 d8 bd 6d ea 82 97 be
       1.001871081922266e-05 -3.503470062874079e-07
0005e0 dc 00 5c 05 f8 d0 d6 be 64 64 fc 6a d6 f2 de be
       -5.439826130660039e-06 -7.378717483929717e-06
0005f0 f7 14 3e 27 d5 f0 df be 68 00 af f6 11 72 dd be
       -7.615268817211634e-06 -7.020374918675997e-06
000600 be 88 e0 30 60 7c d9 be be d5 29 0f ec 21 d5 be
       -6.076298417342038e-06 -5.038382584578723e-06
000610 ab 95 22 23 f1 f0 d0 be 05 01 c3 35 1c 61 ca be
       -4.039091935724972e-06 -3.1446619868925602e-06
000620 be 35 ea 6e dd fe c3 be 13 6e 1c 23 41 8f bd be
       -2.383657253196834e-06 -1.7618887224239707e-06
000630 09 e4 87 97 69 54 b5 be 26 67 63 51 95 13 ae be
       -1.271351349639443e-06 -8.963494646755036e-07
000640 94 c3 15 01 f7 80 94 be c6 a7 d3 df 35 2f 94 be
       -3.055299667353988e-07 -3.0077123354279924e-07
000650 c4 01 a6 08 53 12 7f be 9e 3f 89 1d 02 58 9f 3e
       -1.1575065365054026e-07 4.6705875215036394e-07
000660 54 f1 d3 a3 2c 67 be 3e 2c b9 34 3d 6a c0 d2 3e
       1.8121614993585706e-06 4.470734853696719e-06
000670 11 54 33 c4 07 4a e3 3e 96 7c be d4 e9 c1 f1 3e
       9.197798254959409e-06 1.6934847095858943e-05
000680 0e a9 db d5 c2 28 fe 3e fe 76 0b 13 99 08 08 3f
       2.8762076332102897e-05 4.584042688347659e-05
000690 78 72 81 11 21 2e 12 3f b8 c4 f6 41 aa 50 1a 3f
       6.935192902930178e-05 0.0001003841321025764
0006a0 0a 32 f1 70 c6 4c 22 3f 70 ba 8b b4 66 77 28 3f
       0.0001396171796578391 0.00018666390157969252
0006b0 60 7d 11 33 26 57 2f 3f 4a fc 5a 89 93 1d 33 3f
       0.00023910847952189184 0.00029167987791462304
0006c0 be 31 ee b3 83 0a 36 3f 14 51 c3 42 e4 d6 37 3f
       0.00033632007028286035 0.00036376068852674135
0006d0 09 8f 31 e6 d7 03 38 3f 7c a0 07 65 a8 62 36 3f
       0.00036644001938256114 0.0003415738219971832
0006e0 92 54 ff fa 44 2f 33 3f 21 7a 99 ab 3a 01 2e 3f
       0.0002927344712565029 0.0002289184683829807
0006f0 f2 bb 6c 70 46 2a 25 3f 33 17 fd d6 3f 56 1a 3f
       0.00016147718289391506 0.00010046734473431462
000700 ac 9e b2 11 e0 53 0b 3f 88 aa 49 e0 c2 2a f3 3e
       5.212333254550386e-05 1.8279110025091447e-05
000710 50 6a 5a ff 0f a5 c5 be 02 da 21 8a 18 8a ec be
       -2.580258292206741e-06 -1.3608664009218296e-05
000720 1d 78 19 9e d2 02 f3 be df 58 79 32 84 bd f3 be
       -1.8130327481429108e-05 -1.882581560005362e-05
000730 a8 ea 2f dc 9b 5f f2 be 76 ba f3 a0 3d 12 f0 be
       -1.7522308336718556e-05 -1.532674110376683e-05
000740 7a b6 71 1e 04 f7 ea be 3b b1 4a 8f 2e e7 e5 be
       -1.2857869434247693e-05 -1.0444190118385189e-05
000750 fb 68 7d 1b 4f 4e e1 be 76 27 d6 57 d6 a9 da be
       -8.25209359305413e-06 -6.357056347447662e-06
000760 9b 82 6b f3 a2 0d d4 be 13 a9 f3 9e 3a 79 cd be
       -4.78107158727371e-06 -3.513521043542757e-06
000770 ee 0d 40 18 59 2d c5 be 55 8d 50 1f c8 c4 bd be
       -2.5245119008602938e-06 -1.7743515148348499e-06
000780 b3 2c f9 af 7e a2 a2 be dc 1e b7 46 87 24 a4 be
       -5.553586958721338e-07 -6.002989158476784e-07
000790 d6 84 dc 07 b8 52 9a be 10 61 5c e0 b6 a5 9a 3e
       -3.922450629735525e-07 3.9707603637216243e-07
0007a0 3d b1 99 13 61 77 c3 3e 64 a4 92 9a 90 0b da 3e
       2.3205667758955477e-06 6.209653670521517e-06
0007b0 27 51 6e f9 63 a3 eb 3e b6 ce 37 b8 10 be f9 3e
       1.317894183986612e-05 2.4549906369088484e-05
0007c0 e5 90 83 fe 1c db 05 3f 38 45 8d 14 45 3e 11 3f
       4.168684228192543e-05 6.57777465111934e-05
0007d0 89 bd 91 45 ca 96 19 3f ae a4 cb b4 13 02 22 3f
       9.761437958543373e-05 0.0001373910003146564
0007e0 20 8b 56 25 48 2d 28 3f 7a 4a 01 44 d1 0c 2f 3f
       0.00018445497214000187 0.00023689322006477718
0007f0 b7 48 0a 37 73 11 33 3f 5a b4 df 03 fc 52 36 3f
       0.0002909570967314467 0.00034063961709202494
