src/kernel/kernel1.npy (npy, 169408 bytes, 1 tensors)

array f8 [23, 23, 40]
000000 77 06 90 0c 7a 04 d4 3d 20 8c 15 5b d6 bf d8 3d
       7.282319464522463e-11 9.003766375789905e-11
000010 8a b0 69 86 bd b2 d8 3d 8e 7f a1 f4 f1 db c7 3d
       8.985154426323058e-11 4.339956048952287e-11
000020 c0 09 c1 27 24 1e db bd d8 eb 38 d5 e6 20 fc bd
       -9.86537604546632e-11 -4.093238709978574e-10
000030 5c f6 11 2b 6f d7 10 be b4 09 06 7a af 57 20 be
       -9.803066520700142e-10 -1.9025198779136884e-09
000040 d1 bd 05 74 10 bb 2b be 67 56 45 e8 fc 1f 35 be
       -3.228280670719755e-09 -4.918536359738846e-09
000050 62 d9 02 f3 32 2a 3d be 78 05 1a 0d 0e 3d 42 be
       -6.790468451577512e-09 -8.492961364782335e-09
000060 b2 fa 9d 9c 6d 7d 44 be d6 31 a4 fd da 3f 44 be
       -9.54137826017794e-09 -9.429378101704784e-09
000070 91 d4 2c 18 bb c0 40 be be f8 1f e6 40 dc 33 be
       -7.801155948314834e-09 -4.624101631113393e-09
000080 60 2a 36 12 4a fb f2 bd c8 09 6f 7c 54 67 33 3e
       -2.762186193414618e-10 4.517760338520235e-09
000090 04 28 f7 a7 60 1c 43 3e 32 d1 76 fe a1 18 4a 3e
       8.899182945150528e-09 1.2152000252289285e-08
0000a0 54 63 b0 4d 65 e2 4d 3e a1 14 a9 ba 03 96 4e 3e
       1.3915988741592267e-08 1.4242713526914947e-08
0000b0 9e e1 8e d0 78 f7 4c 3e a6 5f 79 80 e0 08 4a 3e
       1.348866486722639e-08 1.2123340566830724e-08
0000c0 cc e3 1c 8f 0f ab 46 3e 59 f6 24 ab b0 6c 43 3e
       1.0555706062366524e-08 9.045270619855827e-09
0000d0 6c 2e 8e 41 51 8a 40 3e 33 36 fd 51 be 14 3c 3e
       7.702178493756868e-09 6.538124069770227e-09
0000e0 e0 8d a0 e4 74 b9 37 3e 48 51 1f c2 63 df 33 3e
       5.523776611493015e-09 4.626953960561647e-09
0000f0 b2 04 e2 87 81 70 30 3e f9 47 7f bc 09 c8 2a 3e
       3.82761389087888e-09 3.117765132851169e-09
000100 03 4a 07 7c 72 70 25 3e a4 28 2d 8c 66 d9 20 3e
       2.4958568269650225e-09 1.9615074854401156e-09
000110 3f fe 66 a1 21 fc 19 3e 05 f0 52 7d 2c a7 13 3e
       1.5125195589130065e-09 1.14395647581025e-09
000120 cd 19 d7 a9 fc 26 0d 3e d9 b3 ed 8a 03 33 05 3e
       8.484433881854281e-10 6.169800415854144e-10
000130 cb 62 65 e1 c4 39 fe 3d 49 06 be ad 22 1f f5 3d
       4.398412479685368e-10 3.073600659943653e-10
000140 da 37 bc c7 75 99 e9 3d d5 97 45 f6 27 21 f1 3d
       1.862605381281725e-10 2.4926726505101334e-10
000150 14 2e c9 a2 c6 37 f4 3d ce 69 fc f6 ee 9f f2 3d
       2.942087986306825e-10 2.7102563855164103e-10
000160 70 1e 35 b6 68 63 d9 3d 70 7a 4b 93 0b 4d f9 bd
       9.236215746377841e-11 -3.681773942100135e-10
000170 79 16 0a 56 70 8a 15 be f3 1d 02 37 6d d7 26 be
       -1.2538382208861408e-09 -2.659101765225196e-09
000180 66 d3 8d 6b f7 59 33 be b7 f2 6e d4 77 58 3b be
       -4.505606270771663e-09 -6.366888633443799e-09
000190 98 3a 20 f1 cf 54 3f be 58 3d 6d 8a 87 bd 38 be
       -7.294886266244389e-09 -5.760311483731202e-09
0001a0 00 af d9 2b 1d f8 e3 3d 40 ee 82 66 eb 14 4a 3e
       1.4529501727204442e-10 1.2145245878765418e-08
0001b0 22 ac 5f c0 e4 99 60 3e bf cd 39 33 79 af 6d 3e
       3.092204541018887e-08 5.5293446624226715e-08
0001c0 b0 3b 7e 95 2c fd 75 3e 84 89 13 f5 5b 6d 7c 3e
       8.191526512504283e-08 1.0589951428581591e-07
0001d0 70 0a 90 98 1f 6a 80 3e c8 11 cf 37 f6 28 81 3e
       1.222978876225952e-07 1.2785201511216874e-07
0001e0 eb 25 81 b1 fe 64 80 3e 52 37 58 b0 93 e1 7c 3e
       1.2214862788106232e-07 1.075907044222544e-07
0001f0 7e e4 94 b4 f9 b0 77 3e 53 ab b6 4f 70 56 72 3e
       8.825700805328552e-08 6.831307424483051e-08
000200 0e 52 79 c5 0d 41 6b 3e 64 a0 2f 93 ba dc 63 3e
       5.0764747680388334e-08 3.699627128939577e-08
000210 ff 3f 36 f2 e6 05 5d 3e 4c 3e b7 c1 46 9d 55 3e
       2.702982649993102e-08 2.0129942252855267e-08
000220 7a 7c 27 2b 5e 81 50 3e 0e b4 58 ca 86 b9 49 3e
       1.5371798675847432e-08 1.1979002965858893e-08
000230 7a d8 70 74 b9 3f 44 3e 8b ec a3 c6 11 df 3f 3e
       9.429139814520847e-09 7.420630424586185e-09
000240 41 16 d4 5d 14 e4 38 3e e5 98 12 73 ef 33 33 3e
       5.795372596102196e-09 4.471017154736932e-09
000250 14 3c 6e 9c b7 31 2d 3e bf d0 8f 6f ca d5 25 3e
       3.3986531119315226e-09 2.5419425423013548e-09
000260 72 2b 58 a6 ea 0d 20 3e 03 15 1f ea 84 31 17 3e
       1.8689736865391335e-09 1.3500355629296966e-09
000270 71 95 31 00 6a 73 10 3e b5 57 5c ae ac e7 06 3e
       9.575646948759236e-10 6.666226153735516e-10
000280 d8 2f 7c 16 9c 19 ee 3d 5f 34 37 8b 93 d8 f8 3d
       2.1900660039180692e-10 3.615569052619849e-10
000290 1f aa eb 8d 6b de 03 3e eb 10 28 38 61 c9 0e 3e
       5.782590203905282e-10 8.960091421534244e-10
0002a0 9a 47 ab 2e fb 3a 17 3e b3 3b 1f 00 15 51 21 3e
       1.352186968884635e-09 2.0159323108199004e-09
0002b0 be 38 e9 fb fa 2e 2a 3e 46 cb 4e 49 1c c5 34 3e
       3.048162582834788e-09 4.835883822659609e-09
0002c0 49 14 5d db 2f b0 41 3e 2b 0d 80 ec 06 08 50 3e
       8.236724062904176e-09 1.49303634178311e-08
0002d0 7d c3 4b 54 fb cf 5d 3e 24 a6 2e 3e 1e 48 6b 3e
       2.7764987880815698e-08 5.0816147532353484e-08
0002e0 f8 8c e0 14 3e d2 77 3e 91 ff d7 65 fb 79 83 3e
       8.874110799020918e-08 1.4511117545079317e-07
0002f0 15 83 93 70 fa 83 8d 3e fc 59 92 a7 39 9d 94 3e
       2.1990791080393764e-07 3.0717493577342263e-07
000300 50 cd 00 aa ca 77 9a 3e a1 c7 5f 11 e0 32 9f 3e
       3.9440298316429507e-07 4.6489732718958607e-07
000310 35 f7 f2 d5 f7 df a0 3e a9 4d a2 f5 5a c2 a0 3e
       5.029104776161201e-07 4.994630942327616e-07
000320 0d 3b e9 99 57 98 9e 3e ff 6a 00 94 23 b8 99 3e
       4.5590231848451994e-07 3.832473289847661e-07
000330 df eb f0 e3 c9 fa 93 3e 1e 1c 73 a1 63 d8 8c 3e
       2.977198824726016e-07 2.1491401078750262e-07
000340 41 87 2f c5 19 85 83 3e cb 22 81 24 e7 19 79 3e
       1.4543477053126422e-07 9.35091942776272e-08
000350 96 fc aa 6a a8 42 6f 3e a2 64 c7 a1 95 4e 63 3e
       5.822699951839779e-08 3.596203532506329e-08
000360 80 8b 0c 50 81 39 58 3e d6 c6 b2 e8 1e 5e 4f 3e
       2.2560944226646318e-08 1.4606704531970507e-08
000370 f5 a9 b8 c9 79 03 45 3e 44 4c 94 c1 05 e5 3c 3e
       9.78520935727543e-09 6.727552759035037e-09
000380 7e 09 e0 63 9f 26 34 3e ee 09 c0 f7 fb 3c 2c 3e
       4.6917399392657605e-09 3.287361436886068e-09
000390 c9 bb bc bc 57 c3 23 3e fe 73 f3 41 7c 8c 1b 3e
       2.3007227008073365e-09 1.6035495221631719e-09
0003a0 da 50 c9 03 4a 17 13 3e 54 73 f0 f9 91 46 0a 3e
       1.111240890230812e-09 7.647224970265192e-10
0003b0 44 d2 8a ec 86 ee 01 3e b0 1e 1d 89 82 3b f8 3d
       5.218825034317679e-10 3.5262871191945244e-10
0003c0 22 5f 73 9e a0 27 fe bd 56 b0 3a 97 15 37 f4 bd
       -4.388100147574139e-10 -2.9416948671185277e-10
0003d0 f8 32 15 b2 c1 b5 f4 3d 73 bc 47 20 e2 7c 1f 3e
       3.013699724521085e-10 1.832832664389811e-09
0003e0 b9 4c 34 47 c7 ed 35 3e 50 93 4f ee a9 5f 48 3e
       5.105701739231634e-09 1.1349882320400616e-08
0003f0 0c 12 ac c1 40 f5 57 3e 3b 85 fb df 7c a9 65 3e
       2.2312644269559277e-08 4.0348734129669515e-08
000400 13 21 64 89 bd 66 72 3e 68 d1 8c 2e da c8 7d 3e
       6.855029463873167e-08 1.109562039025725e-07
000410 84 c2 b4 7e c0 2f 87 3e ee 39 0f 07 42 74 91 3e
       1.7275311790236584e-07 2.6008684189402736e-07
000420 be c8 25 dd 96 6b 99 3e b8 71 a0 f9 de d4 a1 3e
       3.7879155203376976e-07 5.314209261561857e-07
000430 81 b9 ec 42 5c eb a7 3e a6 33 8e 10 49 69 ae 3e
       7.128529711847619e-07 9.063265063877345e-07
000440 66 8a 73 4c 78 2b b2 3e a1 bb e2 47 5a 42 b4 3e
       1.0830047346080482e-06 1.20754182790135e-06
000450 28 4f 89 9e cf f4 b4 3e 48 7d 2b 94 2a 05 b4 3e
       1.249092401196933e-06 1.1932957739087172e-06
000460 7b 1c 9d 1d 4d 99 b1 3e 65 df 61 37 16 5f ac 3e
       1.0489721859617725e-06 8.455345852495011e-07
000470 9f f7 7b 1e 60 e1 a4 3e f2 ef bb 4c f0 dc 9b 3e
       6.222836050615526e-07 4.1519167547055427e-07
000480 40 fc f2 29 10 9b 90 3e 44 b8 bf 98 85 08 81 3e
       2.4744444178029703e-07 1.2690788897491664e-07
000490 08 16 9a 13 31 96 6a 3e f0 7e 0d 53 0a 53 36 3e
       4.952156236214241e-08 5.197798900357072e-09
0004a0 e6 39 a1 f3 51 43 52 be e3 f3 6a 04 8c e7 5b be
       -1.700871552655579e-08 -2.5988072383952505e-08
0004b0 20 8c 0c 84 b9 d5 5d be 3c d2 60 5f 08 f4 5b be
       -2.7785880488074462e-08 -2.6033495324940144e-08
0004c0 b7 c1 07 f8 69 6a 58 be 2a f2 4f 71 fb 5c 54 be
       -2.2738873452515773e-08 -1.8964718757191128e-08
0004d0 d2 1d 09 44 d6 63 50 be 15 b3 3e 10 36 98 49 be
       -1.5264365995393895e-08 -1.191840271599687e-08
0004e0 ab 29 1f ff 08 71 43 be e9 5b 39 4a f2 c8 3c be
       -9.053174185917044e-09 -6.702017749438942e-09
0004f0 c7 89 3f 55 51 cb 34 be f7 eb 24 8e 69 58 2d be
       -4.841529250401656e-09 -3.4162496036509555e-09
000500 2d 55 28 19 b0 91 29 be 08 36 cd 40 0f 0e 2c be
       -2.9766342249212102e-09 -3.266022569070643e-09
000510 37 5d 81 18 2f 79 23 be 03 15 31 25 f2 88 1d 3e
       -2.2669992029803507e-09 1.7191600545631252e-09
000520 c8 7e 0f 4e 56 d1 48 3e 7e 27 1d 96 da ef 60 3e
       1.1556652914094475e-08 3.1547488856129996e-08
000530 a8 75 d1 43 eb 19 72 3e a6 94 45 87 4f e7 80 3e
       6.743239651512168e-08 1.2594131571921327e-07
000540 a1 8e 5d a3 a1 b3 8c 3e a8 aa 53 73 02 98 96 3e
       2.1384421849533268e-07 3.3667366790164156e-07
000550 63 ab 25 36 05 b1 a0 3e 96 9c 61 3b 09 57 a7 3e
       4.974450400879007e-07 6.95585746124464e-07
000560 74 ad 40 8d 50 11 af 3e ca e9 19 ad 2f bf b3 3e
       9.258876851927885e-07 1.1770022649003792e-06
000570 af 32 50 de 4e fb b7 3e 42 29 bd 23 a3 c0 bb 3e
       1.4294190517932512e-06 1.654177267123596e-06
000580 30 0f 63 7a a5 72 be 3e a2 c2 a0 ad 15 74 bf 3e
       1.8148325380698455e-06 1.874772058940159e-06
000590 b9 10 bf 7c ab 59 be 3e ed 49 02 fe 53 1b bb 3e
       1.8090172373289765e-06 1.615688226795486e-06
0005a0 02 e5 d1 ec ee 27 b6 3e 53 e9 0f 8f 5b 4b b0 3e
       1.320599881253417e-06 9.71219886957023e-07
0005b0 bb a3 6c 45 de df a4 3e 89 5a d4 a1 c5 64 95 3e
       6.221081417556699e-07 3.1879008750968514e-07
0005c0 34 e8 b5 88 4a 71 77 3e 48 d9 2e 60 96 06 72 be
       8.733028005427066e-08 -6.715108473343067e-08
0005d0 f1 eb 6d 62 a0 c7 84 be 4a dc 32 29 d7 e2 89 be
       -1.5482150780482825e-07 -1.9286644157231418e-07
0005e0 bb 60 8c 5a 1f a9 8a be c8 bb 3d eb db f5 88 be
       -1.9863720737072254e-07 -1.8596937467358757e-07
0005f0 c5 38 a8 91 48 0e 86 be 94 85 7f 74 09 ba 82 be
       -1.643284768957881e-07 -1.3952483812668425e-07
000600 8d 4b 75 cf 18 d5 7e be 80 dc e0 64 a1 b8 78 be
       -1.1485967720452274e-07 -9.209369375503863e-08
000610 aa ff 1e b6 70 59 73 be 7a 39 5e 59 75 9a 6d be
       -7.20820430280186e-08 -5.514054206213365e-08
000620 ba bf f2 88 b6 25 66 be ad fa ac 1d 28 36 60 be
       -4.125259167023088e-08 -3.0196364261902976e-08
000630 e7 5e df 75 72 3a 57 be d5 1f 35 34 7e 4a 50 be
       -2.1633048567645355e-08 -1.5172165091365928e-08
000640 a3 b0 10 cc 23 72 41 be b3 c6 9e 74 2e 0c 45 be
       -8.123861030140269e-09 -9.801044992824842e-09
000650 47 dc d7 35 cb c0 43 be 43 8d d8 7a 02 f9 27 be
       -9.198254320530589e-09 -2.7907888975186138e-09
000660 67 cf 88 e4 56 8f 50 3e 86 8e a1 aa 49 2f 6d 3e
       1.5422626982975735e-08 5.436077306420828e-08
000670 6a 4c 9a cb 7d d5 80 3e 24 34 e9 88 1a 24 90 3e
       1.2542270671055555e-07 2.405200882113617e-07
000680 38 64 3b bb f6 64 9b 3e 35 11 9a b7 30 15 a5 3e
       4.0820821854481257e-07 6.283156459151674e-07
000690 bd 17 d4 2a e1 bf ad 3e 63 2b cb d8 c9 53 b3 3e
       8.866050699447343e-07 1.151996772796447e-06
0006a0 77 71 9c fe c0 22 b7 3e 2f 3b a4 bc cd 71 b9 3e
       1.3789985992613166e-06 1.5166130987208535e-06
0006b0 dc 92 6a f6 ef 89 b9 3e 1e 55 35 60 de 15 b7 3e
       1.5222321622456412e-06 1.3759985229751594e-06
0006c0 45 1c 96 13 dc 47 b2 3e 70 86 91 25 48 a8 a7 3e
       1.0896147400756066e-06 7.050439975281677e-07
0006d0 20 9f f8 be 8f fa 92 3e b8 e9 81 62 9a 01 7f be
       2.828055007696922e-07 -1.1550732692710508e-07
0006e0 72 39 76 08 17 be 9d be c4 de e0 d4 a9 b6 a6 be
       -4.4319836730527666e-07 -6.769159115520991e-07
0006f0 28 db a9 79 0b 60 ab be a2 4f 09 10 bc 56 ad be
       -8.158437937018098e-07 -8.74364587908565e-07
000700 62 bf 50 79 e3 4a ad be 5e bf 2b 14 df e5 ab be
       -8.72985526206485e-07 -8.314232576560854e-07
000710 d6 cc af ad cc ad a9 be 91 85 83 f7 21 02 a7 be
       -7.652909873576151e-07 -6.857016918959801e-07
000720 10 e2 69 8e 4f 24 a4 be 2c fb 3b 48 e6 41 a1 be
       -6.002735773577784e-07 -5.143111967141702e-07
000730 a4 36 04 bb 1d f7 9c be ea 8f f7 34 27 d1 97 be
       -4.3161656561393147e-07 -3.549010232069347e-07
000740 36 76 3a 5a df 30 93 be 38 07 7e 98 ea 4e 8e be
       -2.859668148754635e-07 -2.258141871235509e-07
000750 82 0b bf 81 75 74 87 be b6 79 c8 38 e4 c9 81 be
       -1.7475275704116082e-07 -1.3253568588527427e-07
000760 bc cd cc 14 62 71 7a be 56 28 4e 3f 9d 42 73 be
       -9.850748945439453e-08 -7.174988054921072e-08
000770 52 2f 95 d4 94 7e 6b be 05 d0 3b 52 fc 3a 63 be
       -5.1212419703045387e-08 -3.5819434777555656e-08
000780 88 c8 87 e7 6d 42 4d be ca ac 2b 2f 7a f9 52 be
       -1.3625011550400068e-08 -1.767139940881431e-08
000790 f0 ff d2 79 0a 0f 55 be ec fb 19 37 a6 31 50 be
       -1.9612492620181154e-08 -1.508178421602559e-08
0007a0 30 71 2c ac da bc 2d 3e 17 ae 73 8b 05 43 69 3e
       3.461925275433112e-09 4.705377548173963e-08
0007b0 08 fc ef f4 39 4c 81 3e 4c 99 f8 12 bb 71 91 3e
       1.2887835018624092e-07 2.599397417056518e-07
0007c0 b7 31 ad 90 cf 94 9d 3e 2d 13 6e 29 de ce a5 3e
       4.407956032861725e-07 6.499313539442754e-07
0007d0 bd 6f 96 73 e1 ec ab 3e dd 2b 7b aa 3f 04 ae 3e
       8.322392438977788e-07 8.945642848366085e-07
0007e0 98 2a b5 d2 1c 10 a8 3e b0 ce 62 fb ab 0a 89 3e
       7.171314896717739e-07 1.8657510531470858e-07
0007f0 b8 2e 4d 32 e2 4a a9 be 1b 4c 6b b6 fd 3c c1 be
       -7.537756557622794e-07 -2.0549591000867198e-06
