src/kernel/kernel6.npy (npy, 169408 bytes, 1 tensors)

array f8 [23, 23, 40]
0	0xbdd391c898b43cb0	-7.119330661110586e-11
1	0xbdd75e4a51b8f917	-8.501345845228293e-11
2	0xbdd556ba9a433861	-7.763004697892702e-11
3	0xbdb2c089412fce08	-1.7054930448952198e-11
4	0x3de4c45cd717af1e	1.5110011466536343e-10
5	0x3e017289a4eb68c4	5.077865435763318e-10
6	0x3e13e113fb550da7	1.1571223817044548e-09
7	0x3e22fb94a639c4fd	2.2098814321917935e-09
8	0x3e301c1b157f0cb4	3.7508523717018014e-09
9	0x3e38e22c6d8f1c87	5.7936390901323776e-09
10	0x3e41af9f74e7ca58	8.235698037579488e-09
11	0x3e4743fa77a2409a	1.0833861575459909e-08
12	0x3e4c63fe0bf322f2	1.3220401105788814e-08
13	0x3e50126e2a52d918	1.4968210355827132e-08
14	0x3e50d9c2a4be07ca	1.569336864583639e-08
15	0x3e50480f3cd02c8c	1.5163312206588605e-08
16	0x3e4cb694820e4cd7	1.3370627329086226e-08
17	0x3e46a3e90c111c02	1.0542699493044472e-08
18	0x3e3e6b62073de59d	7.0825835091462684e-09
19	0x3e2dc1854edda16b	3.4640473744028697e-09
20	0x3de0779198678d03	1.1981366957792397e-10
21	0xbe26ae599325b994	-2.640422236045457e-09
22	0xbe340709eb47a330	-4.663014575576521e-09
23	0xbe397fa7b41c5744	-5.93686772119443e-09
24	0xbe3c22f2295cf8f9	-6.551041172908251e-09
25	0xbe3c8a3f77411bb4	-6.644993767101051e-09
26	0xbe3b5933e664d135	-6.367556792866397e-09
27	0xbe3921d1337038c7	-5.85152264751485e-09
28	0xbe3658b7b092e6bf	-5.2029622911985624e-09
29	0xbe3354511aee794c	-4.500467927930606e-09
30	0xbe30513657db54c6	-3.799152435101681e-09
31	0xbe2aefa7dc25fee2	-3.1357811635408826e-09
32	0xbe25c2bca6e7efd5	-2.533277857666461e-09
33	0xbe213738a928e179	-2.0041722251207986e-09
34	0xbe1aaef547945562	-1.5531800553311292e-09
35	0xbe144254943e2546	-1.179235002156235e-09
36	0xbe0e23e6925dbd21	-8.771963474453594e-10
37	0xbe05f7929de32f93	-6.393261994243419e-10
38	0xbdff5f98e72b4655	-4.5654344815827975e-10
39	0xbdf5f37ecb6cec0e	-3.19431324642576e-10
40	0xbde93943864d8b24	-1.8352647453098394e-10
41	0xbdec072e6eac0240	-2.0393092018535184e-10
42	0xbde467b814bbdbce	-1.4846702545051548e-10
43	0x3dd73293971ecb5e	8.439224820708998e-11
44	0x3e06e22fe46006e2	6.659987637337457e-10
45	0x3e1fd78c6224109d	1.8534475140111143e-09
46	0x3e31214067b29426	3.988363080042649e-09
47	0x3e40090d48c77d0e	7.46704589214142e-09
48	0x3e4b39f24e9f33c8	1.2678258848927256e-08
49	0x3e55634ce016815c	1.991902643316342e-08
50	0x3e5f78c7ef858697	2.931039852613809e-08
51	0x3e65de24a132b04b	4.0731851802311705e-08
52	0x3e6cde5d168f744e	5.377197249249659e-08
53	0x3e722a783dbc3aba	6.767324073015304e-08
54	0x3e75d061aa022bb4	8.126344619629563e-08
55	0x3e78f1f439179c28	9.292786120434526e-08
56	0x3e7b0ad485a26f92	1.0074043768837691e-07
57	0x3e7b9c08cbc3b537	1.0285343682625211e-07
58	0x3e7a55442d914772	9.809833602492022e-08
59	0x3e773bccaadd77c5	8.655187386022085e-08
60	0x3e72b84bddd21a15	6.973709028484054e-08
61	0x3e6afd9c33ad44b2	5.027403068034502e-08
62	0x3e60b23930408910	3.109906823751578e-08
63	0x3e4f64cd4d8fcb2e	1.4618857612272274e-08
64	0x3e22b0b96fdea848	2.1758407289084963e-09
65	0xbe39d1c8a33b4612	-6.01156329204569e-09
66	0xbe469fc9a18b402b	-1.0535200310578193e-08
67	0xbe4a8635ec642a9d	-1.2351321198902233e-08
68	0xbe4aa938dbf57da5	-1.2415006688219722e-08
69	0xbe48aa45b30e3414	-1.1485594338264186e-08
70	0xbe45a73b6591b192	-1.0083080303178054e-08
71	0xbe42502df9f6c98f	-8.527749005949132e-09
72	0xbe3e1324c6d02306	-7.002330365727316e-09
73	0xbe38121929786952	-5.604395745683569e-09
74	0xbe32d0c4e160f4b7	-4.380825943377715e-09
75	0xbe2cc21779a4ee40	-3.347891697510072e-09
76	0xbe257fbb95aaae9b	-2.502807889178718e-09
77	0xbe1f74cc47a9259d	-1.8309942716896253e-09
78	0xbe1686b5db0be4cf	-1.311198132869715e-09
79	0xbe0f96623cc88e3e	-9.193153960019789e-10
80	0xbdf421e44ef17b3e	-2.9296483203205303e-10
81	0xbdf2a050e3288260	-2.710473817250919e-10
82	0xbdcca4b11c9867a8	-5.2101909223126584e-11
83	0x3e046a8c08dbd949	5.941896017900854e-10
84	0x3e21a2446251f126	2.052851016399223e-09
85	0x3e3513f31a6cdc9a	4.907587592212785e-09
86	0x3e4566c87d27853a	9.965848511827486e-09
87	0x3e539a5a8510dccf	1.8256664017550177e-08
88	0x3e60a5f59f59bca5	3.100983640430929e-08
89	0x3e6aa6163b61365e	4.963721471404179e-08
90	0x3e7452dc8bfbc32b	7.571159965268288e-08
91	0x3e7dc1c3e97d3eb2	1.1085307460617375e-07
92	0x3e84fb4dc4b3da50	1.5632551462310126e-07
93	0x3e8c7964ec4eeb0f	2.121492938248589e-07
94	0x3e9282349e732cdb	2.7579986157091624e-07
95	0x3e96e3760d08e682	3.4106552696290684e-07
96	0x3e9ab65ef752ae98	3.980455781187123e-07
97	0x3e9d3295090ea645	4.3507794438932785e-07
98	0x3e9db04a389f8702	4.4239509888579836e-07
99	0x3e9beb35d5e9f35d	4.160223933470328e-07
100	0x3e98262caeb95683	3.598499193948402e-07
101	0x3e931910d7aa480b	2.8458108373389183e-07
102	0x3e8b6144f2769c11	2.039965860515553e-07
103	0x3e818240fdcfa5a6	1.3045075677947497e-07
104	0x3e73402308ef270e	7.171382974884059e-08
105	0x3e603719b951a019	3.020323117373648e-08
106	0x3e3229d18984fdf8	4.228985294167657e-09
107	0xbe4554bd894cbaee	-9.933028879963927e-09
108	0xbe51721116f4b0a8	-1.6247456211305775e-08
109	0xbe533da26fc98904	-1.791935398882932e-08
110	0xbe52651ad960232f	-1.7131623751583772e-08
111	0xbe5052e8556aa2bc	-1.5202777115893886e-08
112	0xbe4ba1c051123822	-1.2867078543509464e-08
113	0xbe4694182bd2b88c	-1.0513930499087789e-08
114	0xbe41ea5226527b94	-8.34246911335929e-09
115	0xbe3bb04710f9abfa	-6.44675092441705e-09
116	0xbe34df677fd2e576	-4.859797894993437e-09
117	0xbe2ebb1c0ffc5b56	-3.5775472583388692e-09
118	0xbe261bd5b59476be	-2.5737948826372097e-09
119	0xbe1f1b6f66b318ef	-1.810675521669855e-09
120	0xbd6ce00824279c00	-8.206803904983527e-13
121	0x3df147c743cae0e1	2.5146268729834925e-10
122	0x3e0d66f0333767fa	8.557138109495903e-10
123	0x3e22489bb7029eef	2.1284942073473814e-09
124	0x3e33b36cae115fb6	4.5869678897951055e-09
125	0x3e436705727e6dd3	9.034959072392137e-09
126	0x3e51eb29961c1414	1.6687999765934234e-08
127	0x3e5f8cfc5c6c8058	2.9383903112014296e-08
128	0x3e6ad08985b64b3c	4.99460816829706e-08
129	0x3e763467bfdf7e34	8.271898363454865e-08
130	0x3e81ff64dd010c3e	1.340928137434774e-07
131	0x3e8c842180c8102b	2.1246177119027396e-07
132	0x3e95ed0022cd2da1	3.2671963161721384e-07
133	0x3ea0312485bcacdb	4.825581174419337e-07
134	0x3ea6b6ebdef2987c	6.769459427638211e-07
135	0x3eadf730bbcee16a	8.930440952215105e-07
136	0x3eb27125a42b31ab	1.0992277032383648e-06
137	0x3eb50ec3d6160350	1.2551352813474212e-06
138	0x3eb6373ae23cb8ce	1.3241614249082364e-06
139	0x3eb5990a431cf68b	1.2873299621430226e-06
140	0x3eb3513eb8121997	1.1514045754903995e-06
141	0x3eafc33b4b96e044	9.46599946142185e-07
142	0x3ea7fe33769dff96	7.150463094823699e-07
143	0x3ea0a62adad20341	4.961815897181803e-07
144	0x3e95362212dfe226	3.160753462290562e-07
145	0x3e88bcdab76d26ce	1.8431031964033434e-07
146	0x3e7a277fae13be9a	9.743233022099831e-08
147	0x3e684c4387dd62d8	4.52583756987745e-08
148	0x3e51b2c109171d3f	1.6482787195697957e-08
149	0x3e2013dbe2ed93a0	1.871675945675179e-09
150	0xbe34cd0a008b5e5c	-4.843094821632817e-09
151	0xbe3fca5d2209072e	-7.401798757734415e-09
152	0xbe40de60ccba5ec9	-7.855084047881067e-09
153	0xbe3f4a8fb1640700	-7.285563061048159e-09
154	0xbe3aed0323f525d0	-6.269158136473888e-09
155	0xbe35fee82e784db4	-5.121280045454974e-09
156	0xbe313f09d8369475	-4.015454083311537e-09
157	0xbe2a1e5811de2457	-3.0405972314111324e-09
158	0xbe232d0d8e58e58c	-2.232378825873048e-09
159	0xbe1b6067e4a12a0f	-1.5935269931014879e-09
160	0x3e1db88a510a3fb8	1.7299817725581297e-09
161	0x3e26ba6b1017836c	2.6459102692988976e-09
162	0x3e308e714e143fed	3.854841086324562e-09
163	0x3e36ca14d05a9d99	5.306066035908986e-09
164	0x3e3d7c155d9e8142	6.864941915196152e-09
165	0x3e420f1a138f640e	8.409373296606195e-09
166	0x3e45e7656fec9238	1.0199794340362726e-08
167	0x3e4d8f39b26d63c0	1.3764702778343388e-08
168	0x3e5943c3058bbee4	2.352958036998984e-08
169	0x3e6a62b0b55b2f66	4.914684008163661e-08
170	0x3e7cefa477557836	1.0779538491464747e-07
171	0x3e8e27f2c2569d10	2.2468006581381332e-07
172	0x3e9ccd527f11a684	4.2918384141627815e-07
173	0x3ea8fd9399b62cfd	7.447759346341768e-07
174	0x3eb3b18faccfa4c1	1.1738299463498965e-06
175	0x3ebc3dc0b7ca1ada	1.683307998907936e-06
176	0x3ec2760178889d68	2.2007179192488865e-06
177	0x3ec60b1d0123cb92	2.627779403069219e-06
178	0x3ec8148095c49055	2.8705700697729763e-06
179	0x3ec81bc768ed459d	2.8739585284174287e-06
180	0x3ec62bb71d2e14db	2.64296088786868e-06
181	0x3ec2c93c9c820b9b	2.2394753820832817e-06
182	0x3ebd7871aa2a0978	1.7565777531707986e-06
183	0x3eb58d6bbcbe5110	1.2846246475228342e-06
184	0x3eadb8032eee964b	8.856892160693178e-07
185	0x3ea3a2b2b5eca7c9	5.851846756933469e-07
186	0x3e996ba194129202	3.787939882405137e-07
187	0x3e9088376942cba1	2.463474200284207e-07
188	0x3e86124cbfe66796	1.6444536750093967e-07
189	0x3e7e8af1fabf4241	1.137806281963593e-07
190	0x3e75d234c85705ef	8.128999880783956e-08
191	0x3e6fd266800fa11a	5.9272863957132934e-08
192	0x3e6764d81b445cdd	4.3574576310217104e-08
193	0x3e612fb724b42872	3.2012142792552617e-08
194	0x3e5919c6b3915a64	2.3376837552812363e-08
195	0x3e522a5cd5b56b97	1.6917920714824727e-08
196	0x3e4a0269fc196216	1.2111584515837962e-08
197	0x3e4264ce43dac7c0	8.565267713273329e-09
198	0x3e39aac8fd69e419	5.976094250204577e-09
199	0x3e31a595e80c9024	4.108720142574274e-09
200	0x3e3b92c72521f0b6	6.419921110453464e-09
201	0x3e4283c6e29e3c3d	8.621603947936614e-09
202	0x3e45fed5ba02771a	1.0242428960794687e-08
203	0x3e449aa971c111cc	9.594554088836965e-09
204	0x3e3003788ba847c8	3.728447046343693e-09
205	0xbe48f283de499888	-1.1617003311744747e-08
206	0xbe66234351384552	-4.123476507131937e-08
207	0xbe77aa85920540e8	-8.816309505122391e-08
208	0xbe840c29d6c659f3	-1.4936561444347963e-07
209	0xbe8c22b9d241a26c	-2.0962691238696634e-07
210	0xbe8f9c10a0e571ee	-2.3551008649758995e-07
211	0xbe8742c45f259850	-1.7330653141327772e-07
212	0x3e6786b570ab8d40	4.3820973590916085e-08
213	0x3e9ff0b7d38a67a8	4.7594763289695067e-07
214	0x3eb33b0ddc7af303	1.1462378654423964e-06
215	0x3ec0e09c9cc8f184	2.011941637540355e-06
216	0x3ec8c7bdd80071d8	2.9540348691749125e-06
217	0x3ecfded06dab4fdf	3.7992439108989195e-06
218	0x3ed2571c3d083e0a	4.37266221854595e-06
219	0x3ed31ff7fc74d355	4.559726171128626e-06
220	0x3ed23b8cd088aa64	4.346994736207676e-06
221	0x3ed006a454a63fe1	3.820883032537555e-06
222	0x3eca3b24d7fd7321	3.1269825625915216e-06
223	0x3ec43f125c883e87	2.413555851406131e-06
224	0x3ebdfc6accde7cce	1.7873051549667162e-06
225	0x3eb5c2eb81bcfbea	1.2970808773297154e-06
226	0x3eafa658978e1b26	9.432372244246454e-07
227	0x3ea776348c3e1745	6.992143188756163e-07
228	0x3ea1d80ff6f65810	5.317924500088389e-07
229	0x3e9bb93e9923cde4	4.1311400268627487e-07
230	0x3e95c5a065630f62	3.244277641085289e-07
231	0x3e911b0e5170270c	2.548946027030892e-07
232	0x3e8aaf73fb415da0	1.9882145141606904e-07
233	0x3e849154ab97d9d1	1.5324129325174568e-07
234	0x3e7f3eefcf280eaa	1.1639984957156319e-07
235	0x3e775b16187362fe	8.700715713477286e-08
236	0x3e712a1b542d85bf	6.394266897698443e-08
237	0x3e68c9cbe00b3cc6	4.6171745542877405e-08
238	0x3e6193c39d0a340c	3.274009297447663e-08
239	0x3e5877dd877fe6fc	2.278780938944726e-08
240	0x3e4fa90185e8b7cc	1.4742919937889413e-08
241	0x3e53f1d80a4495b6	1.857495192480515e-08
242	0x3e54cbc2b4ea2864	1.9367728138746033e-08
243	0x3e4926d28bd4cd8f	1.1712149800870474e-08
244	0xbe4d5af880ba603b	-1.3669652097148845e-08
245	0xbe72e9b16b0c53f5	-7.045590667512782e-08
246	0xbe878f8bfb384cfc	-1.7554111551906212e-07
247	0xbe9723bd3d2d812a	-3.4480700355188544e-07
248	0xbea3a0d0bc924690	-5.849654992775818e-07
249	0xbead998438e95eb8	-8.821390212283147e-07
250	0xbeb3f94ab695a2b3	-1.1905310322806665e-06
251	0xbeb7f3234324eef0	-1.4275167471008064e-06
252	0xbeb8e05e9bca43d1	-1.4827515847674181e-06
253	0xbeb4e716b5991f76	-1.2458974282414783e-06
254	0xbea5c7942b1f992c	-6.490827983956943e-07
255	0x3e9389f334b017e0	2.9115181082760726e-07
