src/kernel/kernel4.npy (npy, 141248 bytes, 1 tensors)

array f8 [21, 21, 40]
00000000: 780f 5ce5 3d49 6cbe 2fcf f62a d6b8 70be
00000010: ce0c 8cc4 a9b6 6dbe ec55 b78f bfbe 3fbe
00000020: a45b b53d 4b85 803e 44d6 f973 29b5 9a3e
00000030: fb58 26fd ca1b ae3e ad3c 8ce7 f4a5 bc3e
00000040: 066a 3a0e 6150 c83e 8694 42c3 d8d5 d23e
00000050: 4284 eebe d6f1 da3e bcad 9ab9 8be8 e13e
00000060: e9d8 a9b8 6f33 e63e 9d77 cb1a 69b7 e93e
00000070: 8c92 fa37 f0d7 eb3e 139f 31da 6822 ec3e
00000080: ee44 3f51 296a ea3e 3345 f3a9 4ad4 e63e
00000090: 0c93 4b6d a5d0 e13e d2d9 8641 d704 d83e
000000a0: 8391 d6a7 d379 c83e 809c d2d5 ebf4 983e
000000b0: c3dc 6611 f56a bcbe f92c c7e5 b9a0 cabe
000000c0: ef02 2241 8d13 d1be f0ba 5457 d6b9 d2be
000000d0: 8b58 56f6 97c2 d2be 8186 d0e7 33b2 d1be
000000e0: ae12 5e37 8df5 cfbe 0e2f e32d 3fe6 cbbe
000000f0: 18a0 2870 26af c7be 2de1 adb7 6c9e c3be
00000100: 2478 2f59 a4c6 bfbe 0a16 e167 ed2e b9be
00000110: 0140 9b98 c58a b3be 936b 7cc0 3ab4 adbe
00000120: 537c 8566 e51c a6be 6315 c16b 3b20 a0be
00000130: 0f05 c60b 870a 97be 46e8 2e66 6020 90be
00000140: 2eab 7e12 adc5 79be 79ee 430a c178 7ebe
00000150: 80b4 54df 9e12 7bbe 7d6c beae 7bec 4cbe
00000160: 6460 0896 d41a 8e3e 0523 5f42 8255 a83e
00000170: 3c01 0d30 c36e bb3e 44a4 78a1 261a ca3e
00000180: 3219 60e7 2f27 d63e 02ad a90b 4e29 e13e
00000190: 7ab9 a707 cb8c e83e 0ab9 df14 1851 f03e
000001a0: 3390 dc1a 523a f43e c59b d943 4f6e f73e
000001b0: 527f a546 715e f93e 14f0 138a 4ba2 f93e
000001c0: 3bad 5e89 2c11 f83e 2e11 5544 e1cc f43e
000001d0: 45d5 288c 513b f03e 1172 88c0 5ce2 e53e
000001e0: b0fa 7a7c f34c d63e d09a f504 1bbd a63e
000001f0: 8aad 0026 65e4 c9be a4ce 96a8 e342 d8be
00000200: b24d b04e 0f1e dfbe 4d75 41e5 c80f e1be
00000210: 86c8 de4a c317 e1be 40bd f9ac 941f e0be
00000220: dbed 8273 6a1e ddbe e581 d4b0 7a6b d9be
00000230: b953 eb91 4994 d5be 73a8 c572 0ee0 d1be
00000240: 7302 3edf acf3 ccbe 28b4 66d5 f4f1 c6be
00000250: a5ff d577 26ce c1be 2472 223a 6710 bbbe
00000260: 77d6 219f c825 b4be 9862 13aa ab62 adbe
00000270: d504 85ac 4bfe a4be 0f69 460c ef62 9dbe
00000280: 6026 c207 580b 86be d5a5 948c 6610 8abe
00000290: 1474 790a 2128 87be e31a 04ee 72bd 58be
000002a0: eb01 e70b 10c0 993e 4f0e c649 6ed0 b43e
000002b0: 7894 4162 f176 c73e f75d d185 9953 d63e
000002c0: 4eec f456 def2 e23e 78e5 6acc a75b ed3e
000002d0: 74e2 2fe8 b7ff f43e 63ce 7840 c8e9 fb3e
000002e0: 705c b42a 4b4d 013f 10c7 9b7f ac0a 043f
000002f0: 204f 94ed 0ab3 053f c98e cca3 14ed 053f
00000300: 6e27 a0f9 fa95 043f 7906 1d4e a7ca 013f
00000310: 7a07 21dc 87c4 fb3e 4e19 8dbd ffb7 f23e
00000320: 12bc bc89 2b13 e33e 8ccf c60a 1a73 b33e
00000330: 46fc fb97 9e25 d6be 1451 1e29 81c0 e4be
00000340: a252 2f9e cb9d eabe d620 f27e ff2f edbe
00000350: 8926 0e70 a53d edbe b551 145a 1495 ebbe
00000360: 4e41 7cb6 28e8 e8be 8711 c398 31be e5be
00000370: 051d 7fa3 3775 e2be 1fe5 ee2e 4a94 debe
00000380: 7149 14cc 99c3 d8be f76f 26d0 4ea0 d3be
00000390: 3c36 9a56 a875 cebe 760a ef80 3b26 c7be
000003a0: 5ff3 4429 ba3b c1be 4d8b a77b 8a22 b9be
000003b0: d6b8 4bdf ebf4 b1be 2c47 ab1e c422 a9be
000003c0: f001 3069 94b3 91be cec5 215b e8ed 94be
000003d0: daf8 6ace 4298 92be e09f d722 bbdd 63be
000003e0: 504f 028c 65ad a43e 93c7 0cba b4b6 c03e
000003f0: 1f5d a151 8cd7 d23e 952c 66d0 99ed e13e
00000400: adaf 2580 736e ee3e 0216 8f9a 0993 f73e
00000410: 2c14 f37b addc 003f 4b49 0dee 076a 063f
00000420: 029c 37db 67c9 0b3f 6cf8 0872 e817 103f
00000430: a66d 919d ac6c 113f beb2 8c4a 479b 113f
00000440: 2513 f240 c587 103f d0e6 a68a bb92 0c3f
00000450: 98d8 0340 1e4c 063f c672 fb40 e80f fe3e
00000460: 9947 3bc2 53a2 ee3e d86f c57e 643c bf3e
00000470: f29b 9ecf adc8 e1be f5f1 c9cf eaa9 f0be
00000480: a28a 7670 725f f5be 2ac0 4115 fb6f f7be
00000490: 48d4 ddb3 f07a f7be 8171 15db 0326 f6be
000004a0: 7eb5 2aea 0600 f4be 889e cfe6 a075 f1be
000004b0: 9e4b 7911 a8a4 edbe 6e5f c6da 148e e8be
000004c0: cd6f 60bf abe2 e3be 1a54 e142 fe84 dfbe
000004d0: 8d52 68e3 7b75 d8be 1954 0dec bc96 d2be
000004e0: 0e91 aeb4 31ad cbbe 8906 094d e82e c4be
000004f0: 7832 6746 9dd6 bcbe 7fdd 3e95 162f b4be
00000500: adbb 9b2e 32b0 9abe f301 8dd7 098e 9fbe
00000510: 493e 84b0 f908 9cbe 93fd 1086 aef3 6dbe
00000520: dee3 22b5 c62c af3e 9238 fa24 f132 c93e
00000530: 7b2d ad78 6468 dc3e 0cc5 7470 ac07 eb3e
00000540: d418 7e35 c6f0 f63e 51a4 a9f5 77c5 013f
00000550: 4879 bcfc 306c 093f f682 d188 92e5 103f
00000560: acd1 ba74 63f2 143f d25a 704c 8643 183f
00000570: 7906 cbfc 4a45 1a3f fac0 08b1 8e8b 1a3f
00000580: 0021 b897 2dec 183f f293 aa44 288a 153f
00000590: 6dfe 50d9 05cf 103f 18be 05c5 80a9 063f
000005a0: de71 0b6f e117 f73e 3c8d e48a 058c c73e
000005b0: d300 22cb 01d0 eabe 401f 631c a91f f9be
000005c0: 4fed 832c 9c1c 00bf 1acd 5095 0aab 01bf
000005d0: a1f0 3394 4db3 01bf 30fd 1292 4cb2 00bf
000005e0: 2516 a7aa 6327 febe 5ce0 9108 cb52 fabe
000005f0: 227f 5420 a758 f6be 0267 7b5a b782 f2be
00000600: 2b09 e728 21fb edbe bf2b 1249 c0c2 e7be
00000610: 5354 896e 2c70 e2be b6df e5dd ad06 dcbe
00000620: 0065 4a17 1fdd d4be 6794 d7fa 116e cebe
00000630: 5963 3758 54bd c5be fadc 36c2 576e bebe
00000640: 90fc fb8c 22e3 a2be 1a3a c6d7 d054 a6be
00000650: 1eff ef80 22d7 a3be f3a0 602e 6832 75be
00000660: a7fa 30c3 fb0f b63e 2f94 0a71 52d5 d13e
00000670: e14f 054d a91a e43e 0313 e9ee 0a21 f33e
00000680: f2cc 9a52 273c 003f 928f 5fe7 4d27 093f
00000690: 58d9 165c d6fd 113f d8d5 9ffd 66ea 173f
000006a0: 16a7 93a2 e8a5 1d3f 7c78 4900 e32b 213f
000006b0: c79e ebd3 7a97 223f a88e 00b3 34c9 223f
000006c0: b1cf ae17 3ea3 213f 8105 3aca b87c 1e3f
000006d0: d43c 4859 7cca 173f b9b8 690d b709 103f
000006e0: 1bd0 6740 d457 003f 3428 e99e 05aa d03e
000006f0: f1c7 bcc5 a5f9 f2be 9a5f cc37 adc7 01bf
00000700: c910 0cf7 f5cd 06bf 4ce2 d135 e601 09bf
00000710: 436a cfc4 970d 09bf b0ee 608a d4a1 07bf
00000720: c053 6716 0057 05bf e324 9baa 08a1 02bf
00000730: cf70 d4b8 fea0 ffbe 3946 6e33 2a33 fabe
00000740: 69a1 3281 ad37 f5be 6d4c ad00 c1d0 f0be
00000750: 6ad7 0e6c eb18 eabe 38b3 9c80 82d5 e3be
00000760: 888b 71b2 ce87 ddbe 56e5 f467 0589 d5be
00000770: 1186 5c99 26c5 cebe f2ab d6c9 3689 c5be
00000780: 770e 2d4e b918 a9be d5ae 72a4 43ac adbe
00000790: 795a f6c6 f05c aabe 279e b295 612a 7cbe
000007a0: da9d 097e cd50 bd3e 12bc 9531 35b2 d73e
000007b0: b2e3 ebbe aab6 ea3e eca5 15f8 fb6a f93e
000007c0: 95e3 66a1 8592 053f 9dea 8266 23b6 103f
000007d0: cb52 47f6 0ae8 173f 145a e7c5 30c7 1f3f
000007e0: 01a6 975d 93b2 233f 3a02 e2bb 11d1 263f
000007f0: 1c14 504a 32b4 283f dfec 2935 45f6 283f
-5.268696827260955e-08 -6.22943712089927e-08 -5.534575870348117e-08 -7.391234509381767e-09 1.2308865291840368e-07 3.9797520299338423e-07 8.973051939694358e-07 1.707569849244098e-06
2.8984523952728146e-06 4.490694710456165e-06 6.424113037890402e-06 8.539381997372103e-06 1.0586225262826077e-05 1.2262557754490726e-05 1.3276819799409584e-05 1.3415533265794964e-05
1.2595507122544675e-05 1.0885841503246486e-05 8.494865519856276e-06 5.72655428537077e-06 2.917752964308973e-06 3.718841606416672e-07 -1.6938329899638165e-06 -3.174285480000307e-06
-4.071324854249628e-06 -4.464608868644539e-06 -4.472763838766817e-06 -4.219080094210204e-06 -3.809831862380069e-06 -3.3258678363341456e-06 -2.8233743034796023e-06 -2.338748740834384e-06
-1.8939939294619526e-06 -1.5010422482903697e-06 -1.164798592179911e-06 -8.852488244422156e-07 -6.590150407984444e-07 -4.805894700052572e-07 -3.433394899707973e-07 -2.4030314288057727e-07
-9.600882277966949e-08 -1.1351591184046884e-07 -1.0085380338217913e-07 -1.3468676361534451e-08 2.2429828573709934e-07 7.252102747152877e-07 1.635114301915053e-06 3.111618990709932e-06
5.281704593690285e-06 8.183167996742104e-06 1.1706339354736141e-05 1.5560888009185716e-05 1.9290747949388293e-05 2.2345444668305453e-05 2.4193683580419588e-05 2.4446454180968092e-05
2.295216162166473e-05 1.9836723614178788e-05 1.5479767862388157e-05 1.0435212986209038e-05 5.316875053727979e-06 6.776658753427141e-07 -3.0865870002305087e-06 -5.784341405346404e-06
-7.418971317302486e-06 -8.135633074053206e-06 -8.150493467560615e-06 -7.688218288863708e-06 -6.942465738453647e-06 -6.060562339344344e-06 -5.14489354826603e-06 -4.26178466415339e-06
-3.4513302526464775e-06 -2.7352740900794463e-06 -2.1225541206315205e-06 -1.6131445837237171e-06 -1.2008900936144284e-06 -8.757541146943793e-07 -6.256503520056444e-07 -4.378923786019589e-07
-1.6424292315448865e-07 -1.9419241529512705e-07 -1.7253126326474242e-07 -2.304095303529348e-08 3.837085492918151e-07 1.2406219759016886e-06 2.797200766168627e-06 5.323067026350828e-06
9.035446707819424e-06 1.3998999191288815e-05 2.0026111553025268e-05 2.662011323035922e-05 3.3000809106003485e-05 3.822649882846533e-05 4.1388293263859436e-05 4.182070958893902e-05
3.92644135019511e-05 3.3934813258540545e-05 2.648134046290922e-05 1.7851587333050666e-05 9.09561304460012e-06 1.1592874599010529e-06 -5.280244635973732e-06 -9.895310799902991e-06
-1.2691682916990164e-05 -1.3917680887113122e-05 -1.3943102659802534e-05 -1.31522854780818e-05 -1.1876521696347353e-05 -1.0367843764299385e-05 -8.801403154636107e-06 -7.290662991482344e-06
-5.904213311385513e-06 -4.6792513352066e-06 -3.63106726270523e-06 -2.7596170250898906e-06 -2.0543705635797845e-06 -1.4981583108467664e-06 -1.0703041627941059e-06 -7.491053655944575e-07
-2.637726563281802e-07 -3.118712711475564e-07 -2.770836559465725e-07 -3.7003563196056716e-08 6.162324766183906e-07 1.99242772715934e-06 4.492279254440165e-06 8.548797734395003e-06
1.4510846089797606e-05 2.248226670411268e-05 3.216175491042197e-05 4.2751662255329803e-05 5.299900240256923e-05 6.139141306335673e-05 6.6469226469071e-05 6.716368319521334e-05
6.305829468729021e-05 5.44990046650991e-05 4.2528794439820525e-05 2.8669488584808963e-05 1.4607472685144138e-05 1.8618052265084296e-06 -8.480025360869577e-06 -1.5891780082532035e-05
-2.0382728534005586e-05 -2.2351670239506714e-05 -2.239249737763887e-05 -2.1122452101494854e-05 -1.9073586950459676e-05 -1.6650663770349908e-05 -1.4134974249879237e-05 -1.1708739145174537e-05
-9.482113437590725e-06 -7.514835529039339e-06 -5.831461342715864e-06 -4.4319201045377735e-06 -3.2993006348782278e-06 -2.406028763141819e-06 -1.7188988522431495e-06 -1.2030564748697517e-06
-3.9768614944109655e-07 -4.702037226696474e-07 -4.1775494753844047e-07 -5.578972728974221e-08 9.29084629917102e-07 3.003953942321585e-06 6.772943275400326e-06 1.288889644843413e-05
2.187778895248393e-05 3.389618241984221e-05 4.848980424142446e-05 6.445605159078799e-05 7.990581542111655e-05 9.255892938174061e-05 0.00010021467387402197 0.00010126169605296004
9.507206225845347e-05 8.216734674222607e-05 6.41200370674556e-05 4.3224565731910826e-05 2.2023471447295505e-05 2.8070163217306292e-06 -1.2785209353661033e-05 -2.3959802796707412e-05
-3.073073964007333e-05 -3.3699284053412794e-05 -3.376083852832499e-05 -3.1846009969078277e-05 -2.8756966153916986e-05 -2.5103960556966155e-05 -2.1311092514796706e-05 -1.765309357790787e-05
-1.4296042789467368e-05 -1.1330006858286766e-05 -8.792008388139804e-06 -6.681940673984525e-06 -4.974306979343675e-06 -3.627534133287527e-06 -2.5915584857924022e-06 -1.813830530090532e-06
-5.628837928816256e-07 -6.655249503039401e-07 -5.912891100079181e-07 -7.896461404254393e-08 1.3150236213424359e-06 4.2517874737956675e-06 9.586403763840681e-06 1.824290569120685e-05
3.09657574012692e-05 4.797655576263474e-05 6.863232467577607e-05 9.12309036776507e-05 0.00011309845344311913 0.0001310076333024857 0.0001418435512825415 0.00014332550335992744
0.00013456471410011391 0.00011629941814741107 9.07553097209025e-05 6.11799217524492e-05 3.117195597104901e-05 3.973042551461528e-06 -1.809614728571352e-05 -3.391263360280547e-05
-4.349619746871339e-05 -4.769786640052408e-05 -4.778499042120247e-05 -4.507474777467929e-05 -4.0702524347991775e-05 -3.553207109303362e-05 -3.0163656949176034e-05 -2.4986136135723826e-05
-2.0234576436324427e-05 -1.603645800269916e-05 -1.2444182518094478e-05 -9.457598952511423e-06 -7.040619300987818e-06 -5.134401021061654e-06 -3.668084171418831e-06 -2.5672903365045924e-06
-7.47936294544619e-07 -8.843215447882006e-07 -7.856800844804432e-07 -1.0492485584772686e-07 1.747348044167882e-06 5.649596255138092e-06 1.2738009869549475e-05 2.424040531449026e-05
4.114599521493689e-05 6.374922816380431e-05 9.119574458022886e-05 0.00012122378527777033 0.00015028046509195372 0.0001740774295662261 0.00018847574133942855 0.00019044489689066296
