src/kernel/kernel2.npy (npy, 92608 bytes, 1 tensors)

array f8 [17, 17, 40]
-1.7448801138090067e-08 -1.5985179960585702e-08 -2.5662327486411492e-09 3.672382701312943e-08 1.2514054512330228e-07 2.979522934677341e-07 6.040113833385438e-07 1.1057573536615724e-06
1.8782055641701142e-06 3.008167867116231e-06 4.593325418560747e-06 6.735432625383999e-06 9.515342385553482e-06 1.2937838838988554e-05 1.6850664094723074e-05 2.087330070034699e-05
2.4396245998220554e-05 2.6699614085167522e-05 2.7178709943165538e-05 2.5584908292557836e-05 2.2154136907984263e-05 1.754282035133548e-05 1.2598134641999134e-05 8.080615627067474e-06
4.469394646675011e-06 1.9144595760904622e-06 3.1299250992983385e-07 -5.631946242699419e-07 -9.573192324970966e-07 -1.0660597648418764e-06 -1.0233569476350977e-06 -9.100846495140365e-07
-7.712603851314606e-07 -6.307552136321166e-07 -5.007905130218912e-07 -3.8716593941773445e-07 -2.9195706332870566e-07 -2.1497769819010095e-07 -1.5468956562466983e-07 -1.0883921341870736e-07
-7.335943216694875e-08 -8.131326731194476e-08 -5.8659116028012114e-08 3.543886820956663e-08 2.69887512679172e-07 7.480964208433015e-07 1.6075931125791711e-06 3.008258712787568e-06
5.107751330549922e-06 8.028278581677875e-06 1.1823347413452165e-05 1.6451509714410398e-05 2.1755443688568203e-05 2.7436916661772468e-05 3.302494615719313e-05 3.786060204412356e-05
4.114866440729919e-05 4.2118213314180676e-05 4.027283371853125e-05 3.562799170010347e-05 2.8797893717015516e-05 2.0854032533318196e-05 1.3003891966020964e-05 6.241060330710586e-06
1.1230277764088722e-06 -2.255220015687897e-06 -4.133022505255434e-06 -4.900770816253122e-06 -4.949288062317199e-06 -4.5894950086847266e-06 -4.034266650124635e-06 -3.414623820315625e-06
-2.8052503054561604e-06 -2.246014719189681e-06 -1.756117694253049e-06 -1.3423157055776673e-06 -1.0036345567550405e-06 -7.343175244897685e-07 -5.258981099733416e-07 -3.687436742110575e-07
-1.8940273080849694e-07 -2.258355712550004e-07 -2.0539265728320959e-07 -4.255398537592204e-08 4.080589540879181e-07 1.3628727244586792e-06 3.1004911107334136e-06 5.918048902195793e-06
1.0044855634838827e-05 1.552285613143574e-05 2.208770738254891e-05 2.9103605919068072e-05 3.560402967075709e-05 4.0460248670436634e-05 4.264687164345301e-05 4.1522889868010645e-05
3.702670009046994e-05 2.9709785773024406e-05 2.0595952599520006e-05 1.0920476490777233e-05 1.8435233015651596e-06 -5.770985429630891e-06 -1.1458500837447242e-05 -1.5137277738419412e-05
-1.7009725553837198e-05 -1.743416840220362e-05 -1.681112916729632e-05 -1.5507371887730086e-05 -1.3820057992748651e-05 -1.1970501225669011e-05 -1.0113623806504825e-05 -8.352188882625299e-06
-6.749898068188228e-06 -5.341518889482174e-06 -4.140359842326882e-06 -3.1440017244867e-06 -2.338998038364123e-06 -1.7048807587746828e-06 -1.2175378679902506e-06 -8.519207426257139e-07
-3.502725900925551e-07 -4.410086391764591e-07 -4.5910673563557456e-07 -2.7566789755572363e-07 3.303682729458691e-07 1.68495842696177e-06 4.190975724729575e-06 8.227990317065116e-06
1.3958912971083227e-05 2.1059331541395455e-05 2.844897900992468e-05 3.417504446803679e-05 3.5626742101884224e-05 3.0189533195400767e-05 1.624718620660296e-05 -5.8278628176485425e-06
-3.322325733195456e-05 -6.118416603414416e-05 -8.442963458349297e-05 -9.891880592976488e-05 -0.00010313151416700941 -9.82655365809107e-05 -8.735995991226419e-05 -7.39128391891099e-05
-6.0710846318590315e-05 -4.9303501489902284e-05 -4.0112052065228544e-05 -3.287266953089675e-05 -2.7088895239990018e-05 -2.2315676574757643e-05 -1.825957938458671e-05 -1.4764595862030796e-05
-1.1758808104551259e-05 -9.206351385588234e-06 -7.078552001958608e-06 -5.341749485962681e-06 -3.955014505713505e-06 -2.8722585906188464e-06 -2.0455798813339043e-06 -1.4283921387240847e-06
-4.648560321730801e-07 -6.236432900568095e-07 -7.394896176548707e-07 -6.893882533936777e-07 -2.5847312946248897e-07 8.638091559204112e-07 3.02755460457535e-06 6.4573636371459035e-06
1.094045438517066e-05 1.5385997222835422e-05 1.73889071774178e-05 1.3081287443770967e-05 -2.3541241308106903e-06 -3.325299067623725e-05 -8.130020002296256e-05 -0.00014344250966997452
-0.00021114088031864796 -0.00027195006391549683 -0.0003132971637054608 -0.0003269344117211198 -0.0003118716169808261 -0.0002742902018548772 -0.0002246265710157837 -0.00017351728049390912
-0.00012862309376957974 -9.345715588307978e-05 -6.805377150913966e-05 -5.051531365418385e-05 -3.846474354826077e-05 -2.9908088744211756e-05 -2.3503320487265898e-05 -1.8474972745008322e-05
-1.4415961228498273e-05 -1.1114163403427749e-05 -8.443998823983468e-06 -6.312854289448416e-06 -4.640028089685261e-06 -3.3508268462735878e-06 -2.37624139998325e-06 -1.6540147690349391e-06
-3.8330584490740874e-07 -5.845616357551928e-07 -8.483917360593566e-07 -1.161452657782284e-06 -1.4904679112367187e-06 -1.8030318691296812e-06 -2.148751274849495e-06 -2.8540445306650984e-06
-4.880630768269014e-06 -1.0338194307586729e-05 -2.2990387540470707e-05 -4.83657705985338e-05 -9.291529135540394e-05 -0.00016180095805938476 -0.00025556886291948827 -0.00036701118056507855
-0.00048027694314134196 -0.0005738596697939738 -0.0006271934185019411 -0.0006281894876275983 -0.0005779142139009628 -0.0004898807300220199 -0.0003844305966143034 -0.000281320854417729
-0.00019413099935616196 -0.00012842784166748443 -8.327789048088088e-05 -5.428009668786792e-05 -3.632526809987295e-05 -2.519713937778056e-05 -1.8043132899679404e-05 -1.3181986930186324e-05
-9.706842394397973e-06 -7.141238859021117e-06 -5.22120295638821e-06 -3.7824990747625753e-06 -2.710226408333284e-06 -1.918000033658226e-06 -1.3389513191407664e-06 -9.20954857834091e-07
-6.071610617374275e-09 -1.7537530353839127e-07 -5.771159679946326e-07 -1.4191477256031657e-06 -3.0408422339104282e-06 -5.9700155076231656e-06 -1.1006524500745901e-05 -1.9364042331997038e-05
-3.2915060057615625e-05 -5.455168520337234e-05 -8.853928207235774e-05 -0.00014049093376564866 -0.00021636401709259817 -0.0003199888835503956 -0.000449382407410609 -0.0005933515432426389
00000000: 90d9 3639 4abc 52be 5c47 0e0a f929 51be
00000010: d082 379b 340b 26be 29cc 4dcb 48b7 633e
00000020: 7970 31e0 cbcb 803e 5f78 750b c8fe 933e
00000030: c8ca 1d14 6b44 a43e 5e99 5e11 318d b23e
00000040: 5cbf 6edb d482 bf3e eb4c 2bc6 fd3b c93e
00000050: baaf 4dad 0b44 d33e 106f 579f 1d40 dc3e
00000060: 40c3 0bb3 82f4 e33e 2c7f bc07 f321 eb3e
00000070: b3f0 b9d1 50ab f13e 3413 484d 22e3 f53e
00000080: 36d3 6242 d194 f93e 81e5 4c82 1fff fb3e
00000090: 7c73 c4b9 ba7f fc3e faab 9c82 e5d3 fa3e
000000a0: 4c83 23b2 f43a f73e 514d 5d6f 1d65 f23e
000000b0: 918a de70 926b ea3e 77f8 ed5a 3ff2 e03e
000000c0: 5d59 85d8 f9be d23e 9ef9 4b48 450f c03e
000000d0: 90be c59d 2b01 953e 42f9 7f13 cee5 a2be
000000e0: fef9 aba0 a70f b0be 1525 7b1b b1e2 b1be
000000f0: 3c95 00dd 482b b1be 2daa 0d4f 9189 aebe
00000100: 6fad e285 13e1 a9be 4c6b 2262 252a a5be
00000110: 13c1 fafb c1cd a0be 2381 1fcf 75fb 99be
00000120: c861 67be c897 93be b91f bbd4 93da 8cbe
00000130: aa7c 0dcf 17c3 84be fceb feb0 5f37 7dbe
00000140: c105 5fc7 38b1 73be 3ec9 5d20 ced3 75be
00000150: c0d8 2b2a 0c7e 6fbe 8279 5353 ae06 633e
00000160: e92a 62d5 a11c 923e ffb4 446d 191a a93e
00000170: 1e66 ec51 8ff8 ba3e 998d 8fb7 2f3c c93e
00000180: f6dc b3fe 676c d53e f5bd d934 26d6 e03e
00000190: 7cfd ba7e 9ccb e83e 3280 9b23 2b40 f13e
000001a0: 961d d9b4 eecf f63e 6227 668e 0ac5 fc3e
000001b0: 9bbb 7382 8850 013f 00f8 7461 90d9 033f
000001c0: ccc0 dd57 e192 053f a9a0 3dca 0215 063f
000001d0: 34f7 a707 541d 053f c645 3079 e8ad 023f
000001e0: 9801 f52f 6032 fe3e 5a39 1a34 f6dd f53e
000001f0: 8f13 894d 6945 eb3e d223 cf99 492d da3e
00000200: 94c9 3519 5ed7 b23e f052 b250 0ceb c2be
00000210: 3854 5a93 cc55 d1be 809f d79f 298e d4be
00000220: cecd 84f1 41c2 d4be a3b9 2bc8 ee3f d3be
00000230: addb d8c5 c2eb d0be 5d45 264c d9a4 ccbe
00000240: abaa 32aa 3a88 c7be 564a 63a6 47d7 c2be
00000250: ea4e 17d3 7776 bdbe 1740 f7b9 3385 b6be
00000260: 2817 7ddd 93d6 b0be 693d 3550 bda3 a8be
00000270: 968b 832c 6ea5 a1be d86a 71d4 f7be 98be
00000280: 5f30 f209 d46b 89be eb87 46b1 a64f 8ebe
00000290: 0714 67eb 3c91 8bbe 6940 5d41 93d8 66be
000002a0: afd5 6442 6662 9b3e 8868 6068 7edd b63e
000002b0: 5fb7 9703 4102 ca3e e4c1 3ae5 74d2 d83e
000002c0: e419 3c72 ca10 e53e 8342 018d e246 f03e
000002d0: 0d84 91b1 1f29 f73e b340 e491 7084 fe3e
000002e0: 0b0e f324 b1aa 023f 7ebf 018f 7b36 053f
000002f0: 76fc 145a f75b 063f 9e75 d4a1 1bc5 053f
00000300: 8a19 4dba a369 033f 65a6 a8ee 2827 ff3e
00000310: e889 e415 af98 f53e 2d25 3ddc e2e6 e63e
00000320: 93a4 5f4e dfed be3e f4c8 5965 8c34 d8be
00000330: fb80 0b5d bc07 e8be 7a4c 5c9c c3be efbe
00000340: 84ef 8170 03d6 f1be bfad 0fee f247 f2be
00000350: 5383 edff b3a0 f1be b113 4f7b ba42 f0be
00000360: 50c3 b44e 96fb ecbe d8b8 3629 9d1a e9be
00000370: 57ae 2cdf b535 e5be e109 6719 0c84 e1be
00000380: b0b9 62da a54f dcbe bb0e 4188 6967 d6be
00000390: 1b55 8c72 ad5d d1be d2cd 163a b15f cabe
000003a0: d4f9 2fc5 f59e c3be 53dc de37 689a bcbe
000003b0: 1e72 090b 496d b4be 423a 6186 f195 acbe
000003c0: f102 8e24 a381 97be 3efc c381 7898 9dbe
000003d0: b106 e2c6 64cf 9ebe 1170 2d3c f07f 92be
000003e0: 7bc7 bb07 af2b 963e 00cc fc61 d744 bc3e
000003f0: f8d7 a0a2 0694 d13e 90e2 db60 5e41 e13e
00000400: 9d22 ee63 2246 ed3e 1480 723e 1215 f63e
00000410: f82a 84f3 b6d4 fd3e 70cf 2d96 e5ea 013f
00000420: 3b3c 9b89 bdad 023f ce4b 91ec f0a7 ff3e
00000430: 4ce0 7122 5209 f13e a0b6 b7bb 9e71 d8be
00000440: c21c fe6d 266b 01bf 2816 f6f7 ff09 10bf
00000450: c04f d013 fa21 16bf 4e4e 4d25 54ee 19bf
00000460: b62c 11ec 0909 1bbf ae49 5210 7dc2 19bf
00000470: 5efe e6ae a0e6 16bf 217e 85e8 3460 13bf
00000480: 1ae0 accb 78d4 0fbf 08fe 6c69 67d9 09bf
00000490: bd03 479d bf07 05bf 9102 1553 183c 01bf
000004a0: 8cb2 ccb4 9e67 fcbe 5a99 029e 5166 f7be
000004b0: e05d a0bd 8425 f3be 2509 8d9a aef6 eebe
000004c0: d9f4 ab47 f6a8 e8be 6f27 bb4c 9f4e e3be
000004d0: b55f f98e 89b0 ddbe c8f3 09eb a867 d6be
000004e0: 7ab4 f81b aa96 d0be c761 f3db 2018 c8be
000004f0: d8a7 ba6e d928 c1be d225 fbc3 e5f6 b7be
00000500: 9ca3 5173 2a32 9fbe 5bc8 1619 0eed a4be
00000510: 7579 d0dd 2ad0 a8be 9b1d 23cd cc21 a7be
00000520: 5215 62d8 8858 91be ca1d 176c 10fc ac3e
00000530: 3413 e8be 9f65 c93e 302f d899 8a15 db3e
00000540: 12a3 e899 9cf1 e63e 2f7c 9fad 2522 f03e
00000550: 5599 2c9a cc3b f23e 2896 d274 f66e eb3e
00000560: 606c 726d 71bf c3be 743a 410f 246f 01bf
00000570: e723 10cd f64f 15bf 2759 99c6 21cd 22bf
00000580: bab7 045a b6ac 2bbf 6d13 73a1 90d2 31bf
00000590: 5882 7112 4188 34bf 3d1d 359b 0c6d 35bf
000005a0: 8564 3e65 5670 34bf 0d10 5372 d3f9 31bf
000005b0: 4386 7a8d 3771 2dbf c0d6 0b17 46be 26bf
000005c0: 6e7d 66f6 dfdb 20bf 3f89 5eb6 cd7f 18bf
000005d0: f86d 5ae4 02d7 11bf 39be f2f5 0c7c 0abf
000005e0: a96c 5386 a62a 04bf b9cb 6b35 645c ffbe
000005f0: 886b ace2 1fa5 f8be 7c19 b275 565f f3be
00000600: 66b4 e19f 823b eebe 8d6c a4fc de4e e7be
00000610: ef6a 8a5c 56b5 e1be 9f6a 862c 607a dabe
00000620: dcc7 9e35 3176 d3be 1616 428a d81b ccbe
00000630: 270e 5c86 f0ee c3be 56db 9778 f0bf bbbe
00000640: e6cf 12ef 24b9 99be 21ca 9ea1 589d a3be
00000650: 3032 4c28 a177 acbe 8ebf ccb3 667c b3be
00000660: 3274 9acc 8201 b9be 6731 5f81 f63f bebe
00000670: e2ca 8581 6806 c2be c86a e692 03f1 c7be
00000680: bc3c f591 8978 d4be aaa9 3e9b 46ae e5be
00000690: ff5d d866 6f1b f8be 9885 4639 8b5b 09bf
000006a0: f84d f98c 705b 18bf e70d 8ba5 2335 25bf
000006b0: 573b 7ae8 bbbf 30bf 191b 8e04 6d0d 38bf
000006c0: d15f 89c3 b579 3fbf c538 d341 e2cd 42bf
000006d0: 8ef4 409c 478d 44bf b7ed 0ba7 a295 44bf
000006e0: ea43 0553 e5ef 42bf 3ef9 70db 6a0d 40bf
000006f0: e8df 0cd7 ac31 39bf be73 91de c76f 32bf
00000700: 232f 3596 f471 29bf c2b5 7cc2 52d5 20bf
00000710: 5a79 ae43 afd4 15bf e88e b8eb 5975 0cbf
00000720: 505c 43b5 7e0b 03bf 3293 b83b ce6b fabe
00000730: ae97 cba6 6aeb f2be 6b94 057d 06a5 ebbe
00000740: aeb5 9c42 525b e4be 0ace 61ca d8f3 ddbe
00000750: 4043 2357 39e6 d5be 330a 7ddb daba cfbe
00000760: 9146 95b9 2abc c6be cd09 67ab df16 c0be
00000770: 8531 5f8b c076 b6be 1522 5226 f1e6 aebe
00000780: c0eb 0575 ce13 3abe aa2e d57b d989 87be
00000790: 4820 4d6f 635d a3be 965c 036d 31cf b7be
000007a0: 7440 7cb2 2882 c9be 701c fe5d 410a d9be
000007b0: 2e68 7035 1515 e7be b4c4 46db fe4d f4be
000007c0: 782d 19da c841 01bf 8e2b 91a1 cd99 0cbf
000007d0: 2e2e 9d48 c535 17bf 117d 8bee 176a 22bf
000007e0: 7b53 40c1 f85b 2cbf 3404 39ca 85f8 34bf
000007f0: 6714 44be 6273 3dbf 0fba 93bc 6471 43bf
