src/kernel/kernel0.npy (npy, 101696 bytes, 1 tensors)

array f8 [23, 23, 24]
00000000: e5aa c0c0 1a75 f60f 98d8 5986 037a 1010
00000010: 128c 13dd 49d5 2410 f0f6 b9a7 f906 3710
00000020: f421 411d f57a 4610 3f3c c84d f571 5310
00000030: b2e7 e9e3 e6bf 5d10 2eda 10aa fb20 6410
00000040: e0aa 1dbc 895a 6810 4115 58c3 3d11 6b10
00000050: 16ef 20bd 44c0 6c10 c4e3 ef69 502c 6e10
00000060: 83d3 08b2 7874 6f10 7482 032a a4e5 6f10
00000070: ae8b c253 01a0 6e10 db34 c0d6 3250 6b10
00000080: 177b 894a b567 6610 f5f1 3ba7 70d5 6010
00000090: dc24 9130 4022 5710 7de8 d7e0 850f 4d10
000000a0: 764c 645f c5ae 4010 be45 4e8d 6a81 3110
000000b0: dd67 2fa7 b9c9 2010 064f bf5c a76d 0d10
000000c0: 6e29 50f9 9b0a 1b94 3255 f24d cafc 3794
000000d0: 5b50 e340 b530 5194 cb8e bc45 fbe9 6394
000000e0: 1daa 37e2 0299 7294 92f6 e9af d0c8 7b94
000000f0: 546c 3cd5 1342 8094 68f8 9dc5 87fa 7b94
00000100: 24aa 4fe7 bd47 6a94 f323 9d10 6ad0 6014
00000110: 09a3 6a0a 9012 7f14 3496 6a7e 532b 8914
00000120: 1666 1e1f ebdb 8f14 7063 a940 3889 9114
00000130: b803 5153 0c5f 9114 1ab6 f86d 7951 8f14
00000140: b618 cf46 78c6 8914 61c7 dfb4 4062 8314
00000150: 0def 71ef fda4 7a14 1775 7115 7fbc 7014
00000160: dd01 ccd0 3737 6314 73c8 6bab db29 5414
00000170: 87d0 f031 4756 4314 efef bd28 c5f2 3014
00000180: 5ce9 35da a702 e697 b2e1 decf 6979 0298
00000190: 8cec d43f 58a1 1998 9aff abf6 8f5a 2d98
000001a0: ca2a 5d3e fab5 3b98 2230 9a1b 2b82 4598
000001b0: 0d12 a802 c14d 4b98 896a 5840 abf6 4b98
000001c0: 132d 55a1 4538 4698 7147 002d f095 3798
000001d0: 0034 4329 2958 cc97 c41a 2d6b 4fa6 3318
000001e0: fe74 39a8 978b 4018 d890 281a fbe0 4318
000001f0: 00c3 d27a fb48 4418 786a b2b4 ef76 4218
00000200: 56a5 b4ad c07b 3e18 981f 6c41 87f1 3618
00000210: 6c42 1150 518b 2f18 3560 3590 a1d0 2318
00000220: 21a5 5fce 2bc0 1618 96d9 98db 75df 0718
00000230: b2fd 418c f5e4 f617 2de4 7b7f f410 e417
00000240: 2694 81f2 55db 3c9b e0cd 9f81 bab8 579b
00000250: 8d2c bfdb f33d 709b 1f52 6732 9883 829b
00000260: 3885 a66c 4c8e 919b 6e76 bcab 3dac 9b9b
00000270: b0a4 c192 e518 a29b 34c1 397c 7090 a39b
00000280: af47 658e de4d a19b a6e8 c14e 5651 989b
00000290: d2bd 0d3e 656f 889b b035 edb6 d6c1 5e9b
000002a0: 832b 9236 94a0 731b 797c 4293 68c0 801b
000002b0: 1824 789a 78b6 821b 102e 9005 e381 811b
000002c0: 1b80 8bff d923 7d1b 1d6d 82f8 6bfb 751b
000002d0: 4a8c fbb0 6b3d 6e1b 73c2 58ed 8aff 621b
000002e0: ab24 2cca 43d0 551b 4505 43b6 c0e3 461b
000002f0: 1dd9 8105 93f3 351b 6e4b 44a6 633d 231b
00000300: 2c37 bc51 7b73 239e 7f34 c8cf 653b 3f9e
00000310: b0ea 0de7 010f 559e 1bcd 8f42 6bde 679e
00000320: 4301 7eed 42c1 769e 061c d926 6242 829e
00000330: fc31 eda1 eab1 889e 6df1 9694 ae38 8c9e
00000340: bf5c 252c 9d6d 8b9e f904 7f90 9505 879e
00000350: e32f 355c e345 819e 6ba8 546b 68c1 789e
00000360: 8a2e c98e 2584 729e a148 6593 f260 6e9e
00000370: ad1e 9a08 b464 6a9e f56b 14f9 11ad 669e
00000380: 8f3f 9873 8961 629e 673d 01ef 0e87 5b9e
00000390: 717a 0913 07e6 529e 3811 ee32 4cbc 479e
000003a0: 8fd8 9504 1540 3b9e 9e7a 095a 1998 2c9e
000003b0: 7f20 ec9a 0a6c 1b9e 0d3c 2b8b da08 089e
000003c0: 1f61 0d94 0d4c 90a0 ced6 4bd9 1668 a7a0
000003d0: ee7f 6187 a619 bda0 9423 1adb 0cf1 cfa0
000003e0: 1477 2848 9f63 dfa0 4233 d7b6 16b0 eba0
000003f0: 74f7 5c3c 81ca f5a0 9ff1 9885 b377 fea0
00000400: 1bd7 def3 7510 03a1 f9ac 8995 5be4 05a1
00000410: 68e7 32a6 3fee 07a1 b80d 3985 ffa7 09a1
00000420: 6bbe 658a ff16 0ba1 f4c8 12df bda3 0ba1
00000430: 8e6f aa96 4d9a 0aa1 46eb 1bdc 0dbf 07a1
00000440: 3ee8 b7ab fb7b 03a1 f58e 0355 db47 fda0
00000450: 7ec6 6b0b b11e f4a0 37bc ef00 5246 e9a0
00000460: 3ca9 c930 c704 dda0 5db1 7987 2f73 cea0
00000470: d2e3 b146 aa33 bda0 9583 3718 3298 a9a0
00000480: 1a79 2210 a704 c022 1ac4 6255 2936 dc22
00000490: 56b9 c684 4922 f422 997d 38fe 754a 0723
000004a0: 4952 54d7 d6c7 1523 1fcc 045e 7259 2023
000004b0: e2cc ca43 f457 2323 7b39 feac 8215 2123
000004c0: e6a9 73aa cbd5 1123 4691 c5d7 ad2b f9a2
000004d0: 5046 655a 2bd0 1fa3 20b4 a0b0 e7c0 2aa3
000004e0: edb4 1c7d 6622 31a3 a728 137e bcf1 32a3
000004f0: 9d11 3780 a5cb 32a3 4728 9704 a7f3 30a3
00000500: 9916 d3f5 4ce8 2ba3 1ec1 3146 f9fc 24a3
00000510: 5ff9 039e a4d9 1ca3 1483 dd6b 2f1f 12a3
00000520: d0db 446e 74ce 04a3 6bf4 adb1 2ed5 f5a2
00000530: e323 ca3d 16f0 e4a2 e67a ac8b f459 d2a2
00000540: 10df 9e60 9030 8f24 22fe 672e ad23 aa24
00000550: f6bc 4a76 861d c224 be30 9ad2 7abd d424
00000560: 5d5f 99bd e495 e324 9877 76bf d46f ee24
00000570: a2b2 b8a3 6e5c f324 b2ec 8d69 14e9 f324
00000580: 41d8 d982 8eeb ef24 8bee cb88 8969 e124
00000590: f81e dc2d e0cd a124 a01e 3950 1280 d9a4
000005a0: 7669 9a0d ce1d e6a4 bb1c d59c d2c4 eaa4
000005b0: db4c f412 4761 eba4 f0ef 53ff 07f1 e8a4
000005c0: bf03 7bbf c297 e4a4 5907 ab9c 2100 dfa4
000005d0: e73c 7c2d a64f d5a4 981a 9ed8 1ec6 caa4
000005e0: c1bc d7db 9abd bea4 e234 3136 e520 b0a4
000005f0: 28df be75 50ef 9ea4 00a5 bfab 0a1d 8ba4
00000600: dba6 cee6 ca86 e925 5492 a3c9 cdf5 0426
00000610: 03d3 a24a 8aae 1c26 3260 47c4 b957 3026
00000620: 1cd1 23a2 6000 3f26 8a0c e92d 4174 4826
00000630: d872 605c a904 5026 a687 e1d4 7e5d 5126
00000640: 8c6b fc36 26e0 4e26 900e 86b3 0aef 4526
00000650: bd32 ad72 4fc4 3626 12e6 1c86 a240 1326
00000660: a6a9 03e5 c651 1ca6 ea09 ed61 2543 2aa6
00000670: 4f79 1ee7 44d1 2da6 1a59 88c9 7606 2ca6
00000680: e782 c7c3 bf5a 27a6 7db3 1a2e cd9f 21a6
00000690: 53eb 8d0b 4a3f 18a6 9800 bf2c 9f77 0ea6
000006a0: f49e 945b bd7d 01a6 b4cf f5d0 a45a f2a5
000006b0: b0d3 8eb0 0e9a e1a5 d3ca 7298 d9da cea5
000006c0: 366a 560a e166 d526 f27e b66d 9225 f126
000006d0: ec0b b584 5f17 0727 0d37 588a ce28 1a27
000006e0: e87c 39cf 5cf3 2827 8426 b4c9 a20d 3427
000006f0: da39 ff60 2b33 3b27 ebe3 bd89 063a 3f27
00000700: e396 5bf5 3a91 3e27 34dd 09bc 69f5 3927
00000710: 219f 8fb4 7cdc 3327 007c 0b0d 5f56 2d27
00000720: 0846 4dfe dbc0 2627 8e28 f90c 7f38 2327
00000730: 24a6 0899 f3f6 2027 9cea 6e3f 4d55 1d27
00000740: fab1 e48c 59d3 1727 5e65 a47f ded9 1127
00000750: ab79 22c4 a683 0827 27cd 45df 25ca fe26
00000760: 2c9a c3a9 b4ac f126 ebf4 a7c4 d78b e226
00000770: d658 d5bd 39c9 d126 79b2 6c66 872d bf26
00000780: 5275 3ff3 68e4 4327 00a7 f8a6 05b6 5b27
00000790: 484a 60af 18cc 7027 046b 4828 a63d 8227
000007a0: da7d a089 ab1b 9227 585b dd31 0072 a027
000007b0: 0663 cd58 c5f0 aa27 7963 ef45 dca7 b327
000007c0: aa14 ab6c 5da0 b927 0bbf 81df 3688 be27
000007d0: a612 c70e b833 c127 8135 415d b6d7 c227
000007e0: b00d 4d70 d524 c427 1ce2 d580 60ac c427
000007f0: a0f1 a068 b5f1 c327 a168 8851 2cd1 c127
9.040731787135805e-232 2.6532084176699455e-231 6.709473603591357e-231 1.4832192326741867e-230 2.895979474700466e-230 5.009963976827532e-230 7.664868320371694e-230 1.0372228287756016e-229
1.2549245918592588e-229 1.3947585571481645e-229 1.4815182644600482e-229 1.5547955114778587e-229 1.6208489587264268e-229 1.643628443561625e-229 1.5780824920828797e-229 1.4074309793902652e-229
1.1545171754035368e-229 8.674295152264002e-230 5.9603278240795165e-230 3.7436776698157783e-230 2.149114944292434e-230 1.127557365735941e-230 5.406696763871934e-231 2.369403546880154e-231
-8.032540347652142e-212 -2.8501475972215167e-211 -8.170067290173573e-211 -1.8929159564884365e-210 -3.535593110001935e-210 -5.28207537475087e-210 -6.181633110302017e-210 -5.3189945543389864e-210
-2.4980572688833255e-210 1.5982589363283033e-210 5.907168743939348e-210 9.569807029923036e-210 1.2113396694132336e-209 1.3335027782199834e-209 1.3209758946648903e-209 1.1907775656165697e-209
9.800230738389798e-210 7.370075681022923e-210 5.065363375464713e-210 3.1817265670642335e-210 1.8265398259964505e-210 9.58316881905979e-211 4.595181619981528e-211 2.0137693715367466e-211
-1.5075794657417232e-193 -5.061509935480248e-193 -1.4044156941522595e-192 -3.216892193209886e-192 -6.07368993634986e-192 -9.428493245513999e-192 -1.196891253736917e-191 -1.2258154322142911e-191
-9.740318542142477e-192 -5.169534908695674e-192 -4.853552566030638e-194 4.306828511178617e-192 7.252821128323817e-192 8.714121752484595e-192 8.892208787789157e-192 8.094174442356191e-192
6.681382037811696e-192 5.028771223318897e-192 3.4569446627388714e-192 2.1715313054159146e-192 1.2466281939584213e-192 6.5406035163279265e-193 3.1362561294095203e-193 1.374417254444778e-193
-1.7802887129768262e-177 -5.853915657963423e-177 -1.6032532001574138e-176 -3.6550537549141325e-176 -6.931775561009449e-176 -1.0926369842091764e-175 -1.4291084749286757e-175 -1.5449520118345154e-175
-1.3664806619086028e-175 -9.601640728848292e-176 -4.8240005845701215e-176 -7.590128146801254e-177 1.9374132230252623e-176 3.30711066451458e-176 3.694288474878589e-176 3.456316173193298e-176
2.876423112712521e-176 2.1698616784691338e-176 1.4924962764032615e-176 9.376598503396e-177 5.383052272930694e-177 2.824306926350228e-177 1.3542723745699635e-177 5.93489670543386e-178
-1.6888712390114345e-163 -5.423535216425544e-163 -1.4627574386847406e-162 -3.3159148585443614e-162 -6.322339270346921e-162 -1.0146510363791238e-161 -1.3722749304603089e-161 -1.5682348659446794e-161
-1.5241556497734153e-161 -1.2792984303309332e-161 -9.598428242878747e-162 -6.878187906016552e-162 -5.144630162828066e-162 -4.2202827726529046e-162 -3.6666311720016125e-162 -3.150212547308302e-162
-2.553533535191648e-162 -1.912098458370821e-162 -1.3127158513476122e-162 -8.243495953824576e-163 -4.732100685914794e-163 -2.4827292123817986e-163 -1.1904799272415197e-163 -5.2170979938378034e-164
-7.779148280889261e-152 -2.2345521670980716e-151 -5.556203178158038e-151 -1.219744534074306e-150 -2.3972963326389555e-150 -4.2292304689701137e-150 -6.657022363645949e-150 -9.307652732544478e-150
-1.1648044549370752e-149 -1.3375747098524372e-149 -1.4621327899095162e-149 -1.5675637743949034e-149 -1.6551545467867061e-149 -1.6887453572249795e-149 -1.6253939473624376e-149 -1.4508690271487144e-149
-1.1904664780468126e-149 -8.945064613247348e-150 -6.146498049415472e-150 -3.860628290976441e-150 -2.2162543279283436e-150 -1.1627830144451293e-150 -5.575605781556199e-151 -2.4434253967001305e-151
2.627151113455502e-141 9.253995115529643e-141 2.641743676239803e-140 6.111919203482023e-140 1.1431212492962525e-139 1.7161445740917283e-139 2.0304330159533783e-139 1.7932556990229523e-139
9.360488577059432e-140 -3.30259992170777e-140 -1.6696631066720512e-139 -2.8082333693638883e-139 -3.597081797653482e-139 -3.977041944503085e-139 -3.9458062716665595e-139 -3.558746004123312e-139
-2.929353422887104e-139 -2.203062245448086e-139 -1.514155117535616e-139 -9.510947167962486e-140 -5.459970625277358e-140 -2.8646419446478085e-140 -1.3736114344743271e-140 -6.019645952300358e-141
1.3731663757409202e-132 4.603274609396861e-132 1.2760809482147947e-131 2.9219575669591265e-131 5.518576102737955e-131 8.576131993012469e-131 1.0910661790608e-130 1.122027116113692e-130
8.994079606362576e-131 4.906218774097903e-131 3.1354106127070097e-132 -3.5925832338854523e-131 -6.231704179553603e-131 -7.54260605717151e-131 -7.714809240261604e-131 -7.027728189283933e-131
-5.802399413289287e-131 -4.3674785239359684e-131 -3.002398716077125e-131 -1.8860086188898701e-131 -1.0827167917697744e-131 -5.680621051332866e-132 -2.7238897818528853e-132 -1.1937038869768751e-132
4.713718765848888e-126 1.5481985090092514e-125 4.2370947924592034e-125 9.65706237011511e-125 1.8319100880165035e-124 2.8900398463176322e-124 3.78613205558753e-124 4.104516430426004e-124
3.648942063094797e-124 2.5921780447059285e-124 1.3453166195012707e-124 2.8441237666937036e-125 -4.183564712293558e-125 -7.759332937189824e-125 -8.809726357561925e-125 -8.280209102851427e-125
-6.900207803369345e-125 -5.207170829543998e-125 -3.5819855510190473e-125 -2.250429409044924e-125 -1.2919648346582146e-125 -6.778512166007591e-126 -3.25033839487963e-126 -1.4244123631417148e-126
1.2950111551293657e-121 4.150151607641722e-121 1.1177898313056902e-120 2.53261717412758e-120 4.831181351168298e-120 7.765811266554489e-120 1.0533403792645884e-119 1.2092811980658373e-119
1.1837470162598895e-119 1.0052723731776577e-119 7.69146240286931e-120 5.680586551954878e-120 4.4057232852370615e-120 3.721694171154008e-120 3.2848591941526316e-120 2.8398887929667604e-120
2.306669213377557e-120 1.728245924292903e-120 1.1866717279934263e-120 7.452232025588737e-121 4.27791473889353e-121 2.2444406509427e-121 1.076219754794869e-121 4.7163702868550737e-122
1.54068950348861e-119 4.292539460470848e-119 1.0407824157816414e-118 2.260455645576204e-118 4.4880146070570635e-118 8.151807454036146e-118 1.3354189586359865e-117 1.948634206482384e-117
2.540561622276753e-117 3.0269008488575005e-117 3.410761299949223e-117 3.736053897330686e-117 3.994062533287927e-117 4.099043249675246e-117 3.954465190285682e-117 3.5327124286451375e-117
