src/kernel/kernel7.npy (npy, 141248 bytes, 1 tensors)

array f8 [21, 21, 40]
4.9775164826054965e-08 6.16402078855904e-08 6.174952789069978e-08 3.0497297296182464e-08 -6.563539918454034e-08 -2.7624080010001626e-07 -6.635182669437761e-07 -1.288891723718058e-06
-2.187015293403165e-06 -3.3294953897765197e-06 -4.588872029436334e-06 -5.721867779307795e-06 -6.393746340408596e-06 -6.256189794527031e-06 -5.06718799716319e-06 -2.81104317610543e-06
2.4149538305683593e-07 3.5792650107305842e-06 6.601037816894169e-06 8.809957914681717e-06 9.962456062477e-06 1.0105605177324676e-05 9.49956235656808e-06 8.480672738380092e-06
7.338673833592744e-06 6.2546943673409824e-06 5.30266705407118e-06 4.486598991981454e-06 3.7820166701445357e-06 3.16330859886702e-06 2.614322018027562e-06 2.128130669014037e-06
1.7028717929937712e-06 1.3378608488323746e-06 1.0313703409449317e-06 7.799025983097331e-07 5.783489013639946e-07 4.205226666385667e-07 2.997626541216815e-07 2.0946033096275756e-07
7.990576770086274e-08 9.153471102145705e-08 7.395586324873563e-08 -1.3596487030721135e-08 -2.4011062821453995e-07 -7.087928524236457e-07 -1.555178911672263e-06 -2.931844150497715e-06
-4.97736159017485e-06 -7.77381368923064e-06 -1.130440527864086e-05 -1.5425353571503603e-05 -1.986077676222006e-05 -2.4218912888910323e-05 -2.8022305901292527e-05 -3.075099426280293e-05
-3.191027828411101e-05 -3.1134583761785686e-05 -2.8313239933967386e-05 -2.3686062140964103e-05 -1.7842674957550936e-05 -1.15953103655462e-05 -5.764338711920165e-06 -9.687536912059923e-07
2.490446122622914e-06 4.622382100793188e-06 5.647196889192184e-06 5.870521341737015e-06 5.585265748694534e-06 5.021640443389455e-06 4.337894972259624e-06 3.632811587645204e-06
2.9636536092186063e-06 2.3611320966644314e-06 1.8393966043523906e-06 1.4021013913100354e-06 1.0461463038045938e-06 7.64215391461515e-07 5.466664130589987e-07 3.829738258192482e-07
7.189595311146104e-08 6.778251611951015e-08 1.70796939517409e-08 -1.3514961886212152e-07 -4.808044436499634e-07 -1.1591065791631486e-06 -2.3621241958669916e-06 -4.33318466957803e-06
-7.359944985729993e-06 -1.1767110092748741e-05 -1.7908623412362205e-05 -2.6139979451003824e-05 -3.6726745136268064e-05 -4.964536793101147e-05 -6.429147368439551e-05 -7.922504933820002e-05
-9.217488820484705e-05 -0.00010048133471703919 -0.00010193085382271284 -9.564317352516359e-05 -8.253907828439179e-05 -6.509384819537502e-05 -4.6478224380813095e-05 -2.9526391407917547e-05
-1.6014557869630577e-05 -6.4879415186971405e-06 -5.491128647277695e-07 2.6648264946908393e-06 4.07017294615457e-06 4.407196416259607e-06 4.180184968128298e-06 3.6939673453560047e-06
3.118461163729445e-06 2.543803451257872e-06 2.0159774908142063e-06 1.5564845705085378e-06 1.1725585147181275e-06 8.627561740345875e-07 6.204675361560461e-07 4.363859437281286e-07
-2.8787245144298763e-08 -7.217839480274073e-08 -1.5966587515822246e-07 -3.2566458778793147e-07 -6.255331545865837e-07 -1.1467703648322817e-06 -2.029120186421284e-06 -3.502809512245301e-06
-5.956209351749073e-06 -1.00343702752385e-05 -1.6735857041414154e-05 -2.741643423053937e-05 -4.355725892529852e-05 -6.618409742221393e-05 -9.499892134935769e-05 -0.00012757455232293002
-0.0001591782220975137 -0.00018367351999540394 -0.00019541516730236697 -0.00019136912226602027 -0.00017237251679363068 -0.0001428241947800376 -0.00010897070567600166 -7.671331591185213e-05
-4.9992069552879825e-05 -3.0298599526160037e-05 -1.7176084742776692e-05 -9.153559600881355e-06 -4.581089770116732e-06 -2.1078284378630487e-06 -8.175113927440372e-07 -1.6496771703039133e-07
1.4757532833881778e-07 2.771493234031068e-07 3.0808282057551686e-07 2.8804114817341635e-07 2.45097008463913e-07 1.957077899241443e-07 1.4890257646280582e-07 1.0891385771489982e-07
-2.488318554173983e-07 -3.48304009045757e-07 -4.449584602137561e-07 -4.910818807197148e-07 -4.0127763942769056e-07 -5.534856217791091e-08 6.644769040110807e-07 1.7731163971103647e-06
2.9948299269485355e-06 3.496604777624998e-06 1.6245412277537526e-06 -5.173289457597508e-06 -1.9985728289175677e-05 -4.546025337410826e-05 -8.232520266105163e-05 -0.00012798080504110822
-0.00017604282786694547 -0.00021753497306160508 -0.00024362787391887355 -0.00024881817908647887 -0.00023296339947588313 -0.00020110470257489972 -0.00016124424620567472 -0.00012133704202659043
-8.697871045540564e-05 -6.0599369112524596e-05 -4.201941417029167e-05 -2.96392559646687e-05 -2.1538289308814243e-05 -1.6119738980757543e-05 -1.2305850170168882e-05 -9.467079606932807e-06
-7.267949505767516e-06 -5.532843750266542e-06 -4.161519961653285e-06 -3.08631682562456e-06 -2.2540822252672634e-06 -1.6197300147948366e-06 -1.144269112151038e-06 -7.942114450058767e-07
-5.27614330475409e-07 -6.696851696987787e-07 -7.098591082732257e-07 -4.607340667298191e-07 3.9963248183151534e-07 2.3450676650198575e-06 5.956463944849774e-06 1.1766314168608894e-05
1.9959686319574004e-05 2.9955069012136284e-05 3.9988656833567046e-05 4.693946865362813e-05 4.668470999385065e-05 3.5164356254668375e-05 1.0008576825063371e-05 -2.7861786277179335e-05
-7.353457397164397e-05 -0.00011898489898707993 -0.00015547561227336108 -0.0001765142910395341 -0.00017995556848969844 -0.00016824935435080527 -0.00014687382571065843 -0.0001219409942693493
-9.820562049794487e-05 -7.8206587328155e-05 -6.250462860893626e-05 -5.048473179343108e-05 -4.115747307026343e-05 -3.365513473423708e-05 -2.7401762666309444e-05 -2.2082431053140952e-05
-1.7544987358645046e-05 -1.3712273085739664e-05 -1.0528789111781833e-05 -7.937091258621547e-06 -5.871817799163197e-06 -4.26164350822549e-06 -3.0336493908445684e-06 -2.1176021358565948e-06
-7.004478775800939e-07 -8.272667375608876e-07 -7.327177262557334e-07 -9.061527615387307e-08 1.652877465654409e-06 5.323327084434941e-06 1.1989146675978138e-05 2.28067934357466e-05
3.871281231590976e-05 5.999856409595096e-05 8.588689668016279e-05 0.00011428982328405308 0.00014191200804412836 0.00016475784128127172 0.0001789403030806837 0.00018156081751218917
00000000: 429e 86eb 0bb9 6a3e d5bb 4301 e28b 703e
00000010: 1082 cc2e 6593 703e 6450 7a41 845f 603e
00000020: af4f 4f27 6e9e 71be 0a47 19e3 c789 92be
00000030: 455e 7819 9443 a6be 6085 ea6f bf9f b5be
00000040: 7f64 635f 9458 c2be a5d5 a572 09ee cbbe
00000050: 0e48 e789 433f d3be ed03 fb09 cfff d7be
00000060: 9aa9 909c 3bd1 dabe 6c90 2d5b 883d dabe
00000070: 905c df07 da40 d5be 4272 4354 ab94 c7be
00000080: a05f 49ed db34 903e 2eb1 c4bf 6906 ce3e
00000090: 49b1 7175 cfaf db3e b16b 5b65 cf79 e23e
000000a0: 2d55 0589 8de4 e43e d1e7 bdcc 6731 e53e
000000b0: 1272 a2e8 09ec e33e e4d6 30c9 06c9 e13e
000000c0: 9472 994d d7c7 de3e f24a d84b ed3b da3e
000000d0: 9b23 6305 b23d d63e 49cb b1f0 72d1 d23e
000000e0: b9f9 12a7 d1b9 cf3e 55ec 184b 2789 ca3e
000000f0: 2ab9 91ba 36ee c53e 1dbd 3f35 20da c13e
00000100: 022f 4656 c791 bc3e a366 448f 1172 b63e
00000110: b891 b2ae b34d b13e 8041 64f3 4f2b aa3e
00000120: 6589 15af fa67 a33e 128e 313f 8638 9c3e
00000130: 4cba 5918 e21d 943e ea83 3c8e 001d 8c3e
00000140: a171 a421 1573 753e 789c 72aa 3792 783e
00000150: 023b 2b4e 35da 733e a89c 666f bf32 4dbe
00000160: f84c f0b5 111d 90be 26db 41f7 7bc8 a7be
00000170: 63a0 f14b 7117 babe df84 fd5d 1698 c8be
00000180: de32 6bbc 66e0 d4be 3022 64d1 884d e0be
00000190: 6810 91a1 01b5 e7be 89ae d439 b62c f0be
000001a0: 749f c92f 56d3 f4be a6d0 5505 3765 f9be
000001b0: 821f cf32 2e62 fdbe a39d 0f1e 541f 00bf
000001c0: 3bce 26d0 ecba 00bf eef4 f926 d052 00bf
000001d0: 5844 7008 47b0 fdbe 9ceb d7cb 2dd6 f8be
000001e0: 891e 6249 9bb5 f2be ca09 6352 2f51 e8be
000001f0: f729 2c5c 692d d8be 64aa abf2 c340 b0be
00000200: 96a5 2e3c 31e4 c43e f6c8 8ab7 3e63 d33e
00000210: 3c6a 37a9 a1af d73e 2f78 7c9e 6c9f d83e
00000220: f657 a228 226d d73e a98c b603 f20f d53e
00000230: 2b90 927d c731 d23e c768 834a 6779 ce3e
00000240: a00e 51cd 65dc c83e 01af f518 7ece c33e
00000250: ef2a 5ff4 25dc be3e 5008 77c8 fa85 b73e
00000260: 8bd4 7f06 2a8d b13e a7f0 066b 8fa4 a93e
00000270: 49c0 c427 d457 a23e 5d24 d0b2 70b3 993e
00000280: b368 a4fb a64c 733e 238b 56a2 fa31 723e
00000290: 2843 449d d456 523e 8fc7 929e b423 82be
000002a0: 5c52 2827 1422 a0be 9007 6029 5372 b3be
000002b0: af79 8282 9fd0 c3be e7f4 7cbb b82c d2be
000002c0: c5cd dc45 aede debe 96dc e94b 6bad e8be
000002d0: 0aa2 de3a 4fc7 f2be 6403 b3b5 e568 fbbe
000002e0: 301d 9f5a 6141 03bf 2063 71da 4907 0abf
000002f0: 3209 881b 87da 10bf 507b d5fb b3c4 14bf
00000300: 0b11 7b85 c029 18bf 4256 952f 3057 1abf
00000310: ab61 07bc 76b8 1abf 571d a235 8112 19bf
00000320: d445 4791 1aa3 15bf 5d33 f3cb 5f10 11bf
00000330: d622 29a1 335e 08bf fa4a de2a eef5 febe
00000340: e82b 7609 e0ca f0be 2806 f8c8 5f36 dbbe
00000350: 501d 9ff5 d76c a2be 38f9 c3db ab5a c63e
00000360: 718a ce9e 5012 d13e b80f 28ed 307c d23e
00000370: 9c35 a37e 7088 d13e 3e83 4006 bcfc ce3e
00000380: c487 b727 d828 ca3e 8782 99bc c656 c53e
00000390: 6858 a358 47e9 c03e ba00 3ce2 0c1d ba3e
000003a0: 4b46 9fb8 19ac b33e b599 fce3 04f3 ac3e
000003b0: 6c17 948a c6d1 a43e 0614 64ad 0d49 9d3e
000003c0: 1b01 054a fae8 5ebe 3715 f0bf 0f60 73be
000003d0: b7e4 eee3 136e 85be 5b68 0d01 e0da 95be
000003e0: cfed 3cf4 49fd a4be a2cf bb59 573d b3be
000003f0: 9fa7 9b9e 8005 c1be 3ac8 f0e4 3962 cdbe
00000400: a84f 245c 6efb d8be 63ec 7059 290b e5be
00000410: 4d70 af56 7f8c f1be 1d7c a803 8bbf fcbe
00000420: 98a0 4c05 28d6 06bf 4222 c222 8a59 11bf
00000430: 3f64 990a 45e7 18bf 2df0 5f0f b1b8 20bf
00000440: 8b7b 2b84 22dd 24bf 1d24 e685 0f13 28bf
00000450: 75af 6281 0b9d 29bf f8ee 413e 4815 29bf
00000460: b616 0ca5 dc97 26bf cbdb c67d 62b8 22bf
00000470: 6e2f e977 e690 1cbf 3cbe 66bb 241c 14bf
00000480: 2dea 286e d235 0abf bbdc bfe7 37c5 ffbe
00000490: d040 4f8e ab02 f2be 2a49 efa6 4732 e3be
000004a0: 1298 165e e836 d3be 5491 3af0 86ae c1be
000004b0: 3876 7790 5e6e abbe 201e 7962 3f24 86be
000004c0: a09e db50 a6ce 833e 7dab 669d 6399 923e
000004d0: 8e5c fc92 d2ac 943e da31 e55d 8254 933e
000004e0: 8236 ff0a bc72 903e 0650 e3ec 7744 8a3e
000004f0: c6aa efe9 40fc 833e c732 05d9 803c 7d3e
00000500: 2d7c d512 e6b2 90be 6268 563b d15f 97be
00000510: 214c e700 54dc 9dbe 1491 e079 5c7a a0be
00000520: a383 d9b8 e5ed 9abe 20f7 ff67 0cb7 6dbe
00000530: 8c9e 292a d04b a63e daf8 9418 7abf bd3e
00000540: f458 f829 591f c93e 3897 2cce e654 cd3e
00000550: 605b 3ff8 5941 bb3e 3c10 66fa c6b2 d5be
00000560: 0cdc 4bca e0f4 f4be b2e6 7d69 92d5 07bf
00000570: d0e0 5636 c094 15bf c1b6 8cbe 52c6 20bf
00000580: 5eda 7360 0413 27bf 7589 a830 4383 2cbf
00000590: 5dc3 7280 cbee 2fbf f28d 1bf1 794e 30bf
000005a0: a4d1 235d f488 2ebf bb58 c33d f45b 2abf
000005b0: 6cf0 3a87 7522 25bf 374c 5a82 cace 1fbf
000005c0: 6408 0fde 0acd 16bf c606 cd77 82c5 0fbf
000005d0: 78d3 c713 c007 06bf 4d05 2629 3a14 ffbe
000005e0: af5f 99f8 a395 f6be a10c 2307 1ce7 f0be
000005f0: 10b3 412b a7ce e9be 8a23 7c83 99da e3be
00000600: 4cb0 77bf e67b debe 91ff 6f82 d834 d7be
00000610: ef62 92e5 6574 d1be f7a3 4e9e d0e3 c9be
00000620: 7735 eece 9ae8 c2be 2322 31fc af2c bbbe
00000630: 0d85 b131 9932 b3be e904 f96f 39a6 aabe
00000640: f8fa c32e 2cb4 a1be 3ec0 1643 8d78 a6be
00000650: bf27 f0af a4d1 a7be 9171 cfda 59eb 9ebe
00000660: 62bd 103e a2d1 9a3e 7abc 3295 feab c33e
00000670: 8ce2 8957 b4fb d83e db8a d2e7 fdac e83e
00000680: f643 1f33 e3ed f43e 1aea 08ab 0069 ff3e
00000690: 7f59 57c9 2ff7 043f 70b9 b0dc 1b9c 083f
000006a0: 4c1a d26b ea79 083f ba9f ae14 ae6f 023f
000006b0: 90ba 1753 50fd e43e 00c8 b75f 1737 fdbe
000006c0: d062 805c d246 13bf 793b ddff f030 1fbf
000006d0: 4770 0f57 e560 24bf d1e6 ee36 d622 27bf
000006e0: 742e 1390 4e96 27bf 9ff3 f2f2 820d 26bf
000006f0: 04a0 5e8e 4440 23bf 4628 6854 52f7 1fbf
00000700: e70e 9ab6 77be 19bf cf3f 8bf0 5a80 14bf
00000710: be08 c857 9d62 10bf d865 0e2d f277 0abf
00000720: f35f af01 1094 05bf 631b cc9f 1da5 01bf
00000730: 3649 c5ca 9abb fcbe 3a5c 661b b527 f7be
00000740: 289d c259 b265 f2be e4ad 6e76 b8c1 ecbe
00000750: 66f7 c0c1 9914 e6be 9d77 2584 31a5 e0be
00000760: fe31 91fc d0a0 d8be 5685 cea5 e7df d1be
00000770: 5171 d163 b672 c9be aab3 ef15 84c3 c1be
00000780: 10ca 0e2c cd80 a7be ad7c 60cb 2ac2 abbe
00000790: c6db dd51 ff95 a8be 33b0 ebcb 0853 78be
000007a0: 8890 26fe 0dbb bb3e 7354 c701 e153 d63e
000007b0: c9d9 acc5 9f24 e93e 88be 32e9 26ea f73e
000007c0: 9432 481a f24b 043f 10a5 fcf6 de74 0f3f
000007d0: 8632 4ba6 c583 163f 4893 8c36 dcf5 1d3f
000007e0: ee5d eedd c699 223f 7c16 8314 5b98 253f
000007f0: 6277 d47f 3d74 273f 4a9f 018c 2bcc 273f
