src/kernel/kernel4.npy (npy, 169408 bytes, 1 tensors)

array f8 [23, 23, 40]
00000000: 36a0 d70c 038d e78f c618 da2f e443 e88f
00000010: 88f9 cc24 9d2e d98f b474 b262 83e2 ea0f
00000020: 8345 c8d5 fe02 0e10 8ef1 fe75 121f 2310
00000030: 4424 580f 8bec 3310 1768 cd2f 866e 4210
00000040: b0f0 3c13 3a4d 4f10 c05e 35de f3d6 5810
00000050: 99ca fc1a e1a3 6210 76fe 7bf5 61ac 6a10
00000060: e7ae 63e3 a649 7210 ec02 e54f 3311 7810
00000070: 19da 79fa 3556 7e10 c0a5 6214 cb38 8210
00000080: d1f9 c241 3eb8 8410 c4ad b06f 1122 8610
00000090: afe7 ebdd bf0b 8610 120e 432e f553 8410
000000a0: 2cb1 df2b 4c38 8110 62c4 4074 938b 7a10
000000b0: 049d a785 2254 7210 42df 20c6 d3f2 6510
000000c0: 6024 0315 73cf 5410 e08d 3745 3b5a 3310
000000d0: ca17 ef7f fb43 3390 1229 e0cf 6d6c 4390
000000e0: 410b 17ba 7bf1 4690 a15b f4af 78cd 4690
000000f0: 6ba4 8121 64c8 4490 987c 57bb 78f7 4190
00000100: 9a66 835c bbec 3d90 0490 17f5 a02f 3890
00000110: 8464 ac1d 820a 3390 ed2b 4c4a 3642 2d90
00000120: 0980 26cd 12f6 2590 4058 0ae0 671d 2090
00000130: e158 70e9 c721 1790 d319 bc72 c23e 1090
00000140: 8ce3 969c dc0f 1094 c246 7e7c 968c 1094
00000150: 7704 a2e8 ab2c 0194 92b0 85da f555 1214
00000160: 9cfa 9437 e677 3414 cfc0 c84d 0015 4a14
00000170: de47 3ad7 442d 5b14 4e44 a973 2f24 6914
00000180: da41 190a 1f59 7514 108f 57ad e2f0 8014
00000190: 7e44 438f f66c 8914 cf64 30ea 0a31 9214
000001a0: 5c75 0603 e4f1 9814 bac9 4818 046a a014
000001b0: ed13 673a a7b0 a414 9e4a fd23 e5da a814
000001c0: 013a 02ed 1e43 ac14 1edf 01b9 a830 ae14
000001d0: 5942 4945 3712 ae14 2781 ab34 54ba ab14
000001e0: bd30 4149 077d a714 16b2 7607 ab1a a214
000001f0: b0ea 438e 3000 9914 d628 eea9 38f0 8d14
00000200: cc69 465c c662 7c14 2820 3634 b265 5a14
00000210: c4a5 a607 5947 5a94 896c 5692 847e 6a94
00000220: 9e04 981f 944b 6f94 6452 411f 751a 6f94
00000230: 94e4 38a2 2559 6c94 8669 4570 cb81 6894
00000240: 986d c31a b768 6494 121c 0ebb c47e 6094
00000250: 0cd4 eb9a f3f8 5994 8524 9029 6bf4 5394
00000260: 7916 c034 a6f4 4d94 beed 592f 28fb 4594
00000270: 5df8 922e 758d 3f94 c803 4803 a728 3694
00000280: 2635 13c7 f572 d197 bc46 a019 75fa d197
00000290: 2820 4fa8 5da8 c297 2ce5 c212 54eb d317
000002a0: b407 3912 6a3c f617 fe3e 9ba6 9f55 0c18
000002b0: 543e e75a 1886 1d18 70b3 c5d5 0250 2b18
000002c0: b20e 891b 1631 3718 7517 7dac 6a67 4218
000002d0: 2a0b 7aea 129f 4b18 ff87 c8f4 38c3 5318
000002e0: d6ac 837a 5f19 5b18 bc19 b164 e6d4 6118
000002f0: 4e52 ddcc 117a 6618 2c4c 5938 6400 6b18
00000300: 9f46 c932 f1b3 6e18 5f98 c413 0d66 7018
00000310: e916 f8d4 8355 7018 38a9 8247 561f 6e18
00000320: 8445 f580 4f84 6918 4e55 c969 eaaa 6318
00000330: 7cdd 2b25 e828 5b18 4aa2 8ac0 0c43 5018
00000340: 32b0 0871 54d6 3e18 74c9 858e 49ad 1c18
00000350: 68df d270 518c 1c98 884b 34af 40c8 2c98
00000360: 3cc1 a82c baff 3098 f982 3bb0 0be5 3098
00000370: ebe4 b9dc decb 2e98 06f0 09af 989f 2a98
00000380: 6f12 0045 eb2b 2698 a2d5 60d3 71eb 2198
00000390: 0e04 a3d4 2637 1c98 7009 ca3c 94ad 1598
000003a0: c727 2578 7445 1098 0797 398b 1de1 0798
000003b0: 6dc5 c3ee 8223 0198 020d 952f 8a12 f897
000003c0: 8956 7252 c631 2e9b 10b6 0268 3e1c 2f9b
000003d0: 7b76 331f 9724 209b 2d60 fbd8 053c 311b
000003e0: a515 eda8 2b3d 531b 5c1b 255b f483 681b
000003f0: 5e6f 8965 638b 791b 6817 b95f 9aa1 871b
00000400: 11b3 9c63 dd10 941b a6d6 335d cad8 9f1b
00000410: 7ecc c66c 02e6 a71b 7629 a691 5219 b11b
00000420: 2fdc 6f48 5472 b71b 181c 22cd 40db be1b
00000430: abf7 7f00 8472 c31b 8689 0700 b75c c71b
00000440: f030 cd21 8d90 ca1b ea87 d61b 7260 cc1b
00000450: b5ae 02c3 d443 cc1b c3ab c5c5 f90f ca1b
00000460: 48e5 c3d1 dc13 c61b 96d7 eeb8 4a04 c11b
00000470: 0ab8 d9f5 c47f b71b 9359 09de e023 ac1b
00000480: 617e c5d7 4dae 9a1b 4420 5876 cdcf 781b
00000490: 5ce3 5eef 46b3 789b 8445 7329 22e7 889b
000004a0: 3bbb eb3c 5f6a 8d9b dcbd 478a 333c 8d9b
000004b0: b42e 3c28 41a5 8a9b bb5f 6956 f708 879b
000004c0: ac0e bc05 e62e 839b fee9 b6e0 4302 7f9b
000004d0: ba07 43f5 9669 789b cdc3 844c 96c1 729b
000004e0: 2f67 1b53 0a28 6c9b 6a24 0004 2ba9 649b
000004f0: eb89 c150 4ba8 5d9b ca86 284a eed3 549b
00000500: 59c9 55c2 82ce 249e dc79 06c2 1470 259e
00000510: 7e6f 9024 743f 169e a862 94e0 8fc0 271e
00000520: ac05 ae9f c583 4a1e 8095 e4a0 b2e4 601e
00000530: fcfa 2a33 3a9a 711e fea6 11a1 b848 801e
00000540: 4459 9957 86a7 8b1e 73ca 1dba 01f2 951e
00000550: 5570 5702 dc77 a01e aa03 9a1e bd90 a71e
00000560: dc29 e432 2528 b01e 0465 31f3 4b43 b51e
00000570: 47f0 bf85 4acd ba1e 985b c844 4019 c01e
00000580: ca09 1c33 314e c21e c19a 2873 db8d c31e
00000590: 69b8 4ca0 237a c31e afc8 9b8d 97f5 c11e
000005a0: bb4e cfd1 486d be1e 0ad1 9d35 c173 b71e
000005b0: c5f0 a422 6831 b01e c6e4 3ef1 1e64 a31e
000005c0: bc90 9acc b162 921e 2867 58c3 f618 711e
000005d0: 52c8 0caa 4e05 719e f4a0 ac7d 0a29 819e
000005e0: 2eac c4b8 1a45 849e 2395 bbe2 4925 849e
000005f0: 1ecc e964 755c 829e e580 44d2 14bf 7f9e
00000600: 0893 db40 1a70 7a9e 9ca0 e7f1 2d5e 759e
00000610: a6b8 7faf 87d2 709e 1640 94a4 73d9 699e
00000620: 675b 6d23 fd66 639e 7bff aa11 6d79 5c9e
00000630: 1362 023b c66f 549e 2146 5562 5cb4 4c9e
00000640: 4825 d9e4 8dd6 b6a0 e602 db30 e687 b7a0
00000650: b4ff b9a8 846b a8a0 b2db 94d0 3912 ba20
00000660: 84c0 189c 7b1a dd20 fac7 4d63 ee8a f220
00000670: 1058 dd1e 2f52 0321 021b a5e6 b9df 1121
00000680: 74cc 646a b85a 1e21 8964 a287 8216 2821
00000690: 7e60 bf74 7713 3221 cd01 5fc2 bbdd 3921
000006a0: 2c81 3c44 f8bb 4121 5c4d ea09 be56 4721
000006b0: 8efd da0c 2e6b 4d21 ca30 8511 9fab 5121
000006c0: dc44 2e2c b817 5421 b7af 7626 9876 5521
000006d0: 9713 fe7d f360 5521 d6d3 390c 78b6 5321
000006e0: f42f b555 e3b2 5021 2578 b36b ebbd 4921
000006f0: 7352 52af 22c6 4121 e7f4 517b c848 3521
00000700: 7e26 7e35 392e 2421 98ae a7dd 4cc4 0221
00000710: e079 c677 b9ae 02a1 a185 bc6c f2d5 12a1
00000720: c8c1 4283 bb3f 16a1 3f3f b278 cf1c 16a1
00000730: 6f4b 28f1 6027 14a1 8623 2acb 466c 11a1
00000740: c68f eb9e e404 0da1 cee4 a0f1 3f74 07a1
00000750: c964 f55b fd76 02a1 cc38 6ea2 885f fca0
00000760: 4dac 0a5c ee4b f5a0 2582 7f6d 1d41 efa0
00000770: d850 5884 916e e6a0 388d 6fc3 cd81 dfa0
00000780: 3558 b77c 07f7 e3a2 6e9d 9634 1092 e4a2
00000790: 2850 f8f6 0b59 d5a2 39d9 c060 93ca e622
000007a0: 1cac a000 2d71 0923 12a7 8f7e be35 2023
000007b0: 91b7 6f14 eee3 3023 f263 80b0 2740 3f23
000007c0: ece5 2a39 2089 4a23 d6f4 0d9e bb0e 5523
000007d0: e892 be16 9e9a 5f23 bab0 33e5 af9c 6623
000007e0: 80ca 7590 a301 6f23 9008 7433 1767 7423
000007f0: 9afa a982 b8b7 7923 24c5 6834 0ee5 7e23
-4.740449545447559e-232 -4.884242719626108e-232 -2.5343993421334874e-232 5.4115346178372066e-232 2.416372885095142e-231 6.158181194838404e-231 1.283334280294644e-230 2.374430947811147e-230
4.0323739300269312e-230 6.399837464976429e-230 9.60512018690574e-230 1.3744571411734757e-229 1.8847010263536052e-229 2.4803255387164557e-229 3.126457467599177e-229 3.755828436830625e-229
4.2706774378731124e-229 4.561998454805281e-229 4.544028752379809e-229 4.1899332469607734e-229 3.5493125380653926e-229 2.7357072464770148e-229 1.8889211642600355e-229 1.1309906930019466e-229
5.361702350877473e-230 1.2465211832430933e-230 -1.240923144603275e-230 -2.5021995807567735e-230 -2.9556234206435314e-230 -2.937501714856368e-230 -2.6772992829018548e-230 -2.314521944733082e-230
-1.9274966299059388e-230 -1.5578594468443356e-230 -1.2264622232539517e-230 -9.422962942650535e-231 -7.07277567167495e-231 -5.189912548858442e-231 -3.724909354966648e-231 -2.615936430043344e-231
-4.771133863528687e-212 -4.915857792365013e-212 -2.5508041819726344e-212 5.446562782978257e-212 2.4320137549109753e-211 6.198042306906374e-211 1.2916411374573348e-210 2.389800332880181e-210
4.058474966037286e-210 6.441262786891613e-210 9.667292890189865e-210 1.383353824853855e-209 1.8969004528480817e-209 2.496380365805125e-209 3.1466946232704277e-209 3.7801394295558884e-209
4.298320981733091e-209 4.591527682008488e-209 4.573441664018477e-209 4.2170541440942335e-209 3.572286780031943e-209 2.753415126399155e-209 1.9011479071625082e-209 1.1383114497863313e-209
5.3964079581861005e-210 1.2545897539798572e-210 -1.2489554799584326e-210 -2.5183959956963944e-210 -2.97475478957755e-210 -2.9565157843277058e-210 -2.6946290956142015e-210 -2.329503546557353e-210
-1.9399730668187913e-210 -1.5679432699784865e-210 -1.2344009549316152e-210 -9.483956565602738e-211 -7.118556835749262e-211 -5.223506182950664e-211 -3.7490202124655797e-211 -2.6328690489289395e-211
-5.975784204497583e-194 -6.157049076264003e-194 -3.194849646940072e-194 6.821750296323493e-194 3.046066154800622e-193 7.762968798579419e-193 1.617764021692791e-192 2.9931943830572813e-192
5.083188040852305e-192 8.067599342194301e-192 1.2108160828403687e-191 1.7326329908670942e-191 2.3758435809743285e-191 3.1266845125496167e-191 3.9411948111239224e-191 4.734576337632192e-191
5.3835921110593486e-191 5.750829756926342e-191 5.728177250474338e-191 5.281806435242534e-191 4.4742435497842464e-191 3.448617266125435e-191 2.3811634632344973e-191 1.4257205469395448e-191
6.758932019086842e-192 1.5713576372834165e-192 -1.564300781059278e-192 -3.1542588077002904e-192 -3.725842366255413e-192 -3.702998245215146e-192 -3.3749885136615457e-192 -2.917673428584746e-192
-2.4297914796447347e-192 -1.9638289124329856e-192 -1.5460714244226796e-192 -1.1878534424300214e-192 -8.91590148477354e-193 -6.542374754726762e-193 -4.695599915828957e-193 -3.29763484428077e-193
-9.314068795770638e-178 -9.596594641435931e-178 -4.979605753057009e-178 1.063262149254062e-177 4.747706535475014e-177 1.2099637968012722e-176 2.52150427085847e-176 4.665298720446967e-176
7.922836818421811e-176 1.2574445916798175e-175 1.887220807959026e-175 2.7005431124189586e-175 3.703073906940964e-175 4.873361161642914e-175 6.142885745558607e-175 7.379478277402357e-175
8.391057236142393e-175 8.963446830704337e-175 8.928139832280294e-175 8.232410478739693e-175 6.973714378835609e-175 5.375136947348206e-175 3.7113656637482655e-175 2.22217851303001e-175
1.053471070195792e-175 2.4491736373950686e-176 -2.438174571481005e-176 -4.916339434157334e-176 -5.8072298018026286e-176 -5.771624146098425e-176 -5.2603765674002006e-176 -4.547589087466906e-176
-3.787159011490965e-176 -3.0608932597930227e-176 -2.4097616509327495e-176 -1.851430423769191e-176 -1.3896639664965319e-176 -1.019717688389341e-176 -7.3187282466674635e-177 -5.139810400088539e-177
-1.8065717217441268e-163 -1.8613708878907978e-163 -9.658523182685483e-164 2.0623203175344134e-163 9.208727741009696e-163 2.3468651859516425e-162 4.89075012421886e-162 9.048888221306058e-162
1.536726136127858e-161 2.4389596972059182e-161 3.6604837467959515e-161 5.238016732775417e-161 7.182541540648264e-161 9.452449469202554e-161 1.1914839713090762e-160 1.431335442060843e-160
1.627542919291502e-160 1.7385645230642404e-160 1.731716321023736e-160 1.5967715397843624e-160 1.3526328255213987e-160 1.0425701830750912e-160 7.198624365136476e-161 4.310173083679577e-161
2.0433293835613438e-161 4.750456467496629e-162 -4.729122502846509e-162 -9.535810815867653e-162 -1.1263796061255606e-161 -1.1194734760399965e-161 -1.0203110757251296e-161 -8.820576729324112e-162
-7.34563435800978e-162 -5.936957658000306e-162 -4.674012346457337e-162 -3.591064143607053e-162 -2.695414517165011e-162 -1.977860782865334e-162 -1.4195522686672707e-162 -9.969258685465752e-163
-4.360559387295627e-151 -4.49282926370333e-151 -2.3312976409819893e-151 4.9778650423875356e-151 2.2227295884684788e-150 5.664676854035523e-150 1.1804904343621165e-149 2.184148794264957e-149
3.70922753740753e-149 5.886967273361085e-149 8.835385040082774e-149 1.264310891175967e-148 1.7336648505423548e-148 2.2815572041655373e-148 2.8759094108305642e-148 3.454843847672973e-148
3.9284338781146195e-148 4.1964090106249984e-148 4.1798793642598026e-148 3.854160365386166e-148 3.264877720546626e-148 2.5164731319573088e-148 1.7375467950261308e-148 1.0403553578689139e-148
4.932026233768602e-149 1.146627465378992e-149 -1.141478042374426e-149 -2.301678304167246e-149 -2.718765663179557e-149 -2.7020961946984695e-149 -2.462745865920889e-149 -2.129040779033268e-149
-1.7730308999045558e-149 -1.4330157023921833e-149 -1.1281759903782622e-149 -8.667825513547207e-150 -6.505977556279744e-150 -4.774003323355993e-150 -3.4264025592728034e-150 -2.4063005095262861e-150
-1.3097862725044086e-140 -1.3495163284439002e-140 -7.002545719653861e-141 1.4952070869379472e-140 6.676438603146338e-140 1.701505546101611e-139 3.5458527872708415e-139 6.560553024848122e-139
1.1141449705388943e-138 1.7682751767572918e-138 2.6538948354899035e-138 3.797625264007838e-138 5.207429186675935e-138 6.853139793614364e-138 8.638402399119907e-138 1.0377354470878018e-137
