src/kernel/kernel1.npy (npy, 169408 bytes, 1 tensors)

array f8 [23, 23, 40]
0	0x10160946a1b0fe3d	3.5484665383408915e-231
1	0x101b3ecd1959cb22	4.387278511905327e-231
2	0x101b3062235c9267	4.378209439857851e-231
3	0x100a43ed1e66ac9e	2.1147367803078003e-231
4	0x901dda40143c23a2	-4.807116325510262e-231
5	0x903ef71b4653c565	-1.9945184589279878e-230
6	0x90528a3d1eda74d2	-4.776754671544131e-230
7	0x9061fd9b4a0d9eac	-9.27043664891984e-230
8	0x906e86ffb821d695	-1.573049080341733e-229
9	0x9077416101a14289	-2.3966624610708207e-229
10	0x90800d9456467218	-3.3088015703609914e-229
11	0x908413ecd527f192	-4.138377801354584e-229
12	0x90868e6cd7ecb3ec	-4.649241447156821e-229
13	0x90864aa493509230	-4.594666964868995e-229
14	0x9082713ee76b3595	-3.8012807564724846e-229
15	0x9075dcff05c70918	-2.2531928169082886e-229
16	0x9034e558355ddba0	-1.3459345374436593e-230
17	0x10755c47f37fc490	2.201375738537988e-229
18	0x108509c50b767cee	4.3363179895200374e-229
19	0x108cba5e7436832c	5.921323072852351e-229
20	0x109072f740a43f8b	6.780864343845002e-229
21	0x1090d5d51c1724aa	6.940068011524276e-229
22	0x108fe350e6140b9a	6.572641609782217e-229
23	0x108ca90630023035	5.907358025679607e-229
24	0x1088f44b67d9421a	5.143494450270725e-229
25	0x1085622e845ef1a4	4.4075023460813186e-229
26	0x1082355840d149e9	3.753051866314594e-229
27	0x107ee9b8de294504	3.1858413515263457e-229
28	0x107a1df5a71a57cd	2.691578770561167e-229
29	0x1075e072d980d187	2.2545826756823748e-229
30	0x107218ee24f75374	1.8650870618408334e-229
31	0x106d7b76b363e1d8	1.5191980113239658e-229
32	0x106799f3d4f0c36b	1.2161598345309377e-229
33	0x10628c6743e58b28	9.557866433487847e-230
34	0x105c9afe42227380	7.370076346603785e-230
35	0x1055a2903bcc4a43	5.574173579594852e-230
36	0x10500bcfbb0e3077	4.134222602180207e-230
37	0x10475652d7599ae6	3.006367741838122e-230
38	0x1040a30eeaa7512c	2.1432209314656884e-230
39	0x10374070c502580e	1.497677923519626e-230
40	0x142fc5bd041dd05a	1.8875709678159436e-211
41	0x14354293c296fafa	2.5260833962231873e-211
42	0x143917d823083834	2.98152250794597e-211
43	0x14371da7f7cadb58	2.746583532963901e-211
44	0x141f82a7536086b0	9.360014134258692e-212
45	0x943f66e5a66d7232	-3.7311229061241163e-211
46	0x945abc2bd09dbd31	-1.2706441460263676e-210
47	0x946c597457e2fbe2	-2.6947432574545478e-210
48	0x9478048c6aa57818	-4.565997540104906e-210
49	0x9480f844a5003406	-6.452227756121177e-210
50	0x948371761a31ac03	-7.392663882570784e-210
51	0x947eb4c640c51528	-5.837520299005936e-210
52	0x1428c8d4c2521600	1.4724249114931906e-211
53	0x14902f7bf3bb9164	1.2308035694583915e-209
54	0x14a49ab2aa83d7ac	3.133651162415728e-209
55	0x14b26bfde9259682	5.603457694648235e-209
56	0x14bb4a92c879149e	8.301322321133147e-209
57	0x14c1a4191526e586	1.0731894725556493e-208
58	0x14c45f689d7787da	1.2393711755667896e-208
59	0x14c54c43de57fa3b	1.2956569025716875e-208
60	0x14c4590b1fb3b16e	1.2378585719975575e-208
61	0x14c1ec380fedb00b	1.0903280540001202e-208
62	0x14bd6776531f6be1	8.943996821969669e-209
63	0x14b6c2706a529424	6.922871423149261e-209
64	0x14b0e9bcec18db4e	5.144517720874485e-209
65	0x14a8a6d7a6f982ea	3.7492153896414553e-209
66	0x14a202c2e2cc697c	2.739212303320084e-209
67	0x149ad38d18d6bd2e	2.039975561229929e-209
68	0x14947c42167c85e8	1.5577835861117596e-209
69	0x148fed89849fffb0	1.2139564530935028e-209
70	0x148921b59ff844ba	9.55552407623749e-210
71	0x1483c742643bba85	7.520093463222991e-210
72	0x147ee49ed00a9ab6	5.873051355919022e-210
73	0x1477d558bf918bd2	4.530944805969113e-210
74	0x14721df397878914	3.4442072423009904e-210
75	0x146b19b17614c676	2.5760136811172498e-210
76	0x1463ecf7a7c99b8c	1.8940246311838852e-210
77	0x145cc9458ace841c	1.368130877164982e-210
78	0x14546af08a41cd67	9.703994931065669e-211
79	0x144c6d9ecefd3cbe	6.755577471824913e-211
80	0x17d2be60ad932a42	6.419146112150766e-194
81	0x17def19e24d20612	1.0597336329506169e-193
82	0x17e8bec09ad5b10a	1.694893731931028e-193
83	0x17f32bd4f18b487d	2.6262284291961757e-193
84	0x17fcee84252eca2b	3.9632986899428003e-193
85	0x18059111ae9a28f5	5.908755275963273e-193
86	0x18104e073073ac2d	8.934251733875753e-193
87	0x1819de0f4e9795f0	1.4174113831958943e-192
88	0x18260783daa2684c	2.4142073869307912e-192
89	0x1833f7418406b2af	4.3761322314080346e-192
90	0x1842908753319abf	8.137997379540111e-192
91	0x1850fd1893186704	1.489435821948813e-191
92	0x185daae697f0f563	2.601027262759212e-191
93	0x186841aa0df716a0	4.2532500667018e-191
94	0x187261334803c9b0	6.445563778182378e-191
95	0x1879ac62bc5d45e4	9.003385245890026e-191
96	0x18807b5e58b8b1e9	1.156006426961761e-190
97	0x18836d867070e35d	1.3626273660425968e-190
98	0x18850431b810413d	1.4740449974448227e-190
99	0x1884df504f51fb21	1.4639406181234734e-190
100	0x18830d4ba6cee0cb	1.3362627381936692e-190
101	0x1880040629515bd8	1.123308885414195e-190
102	0x1878e2154bd2b70f	8.726254928686981e-191
103	0x1871f65984ca2ce8	6.299191140017058e-191
104	0x18684f82ff1f6442	4.2627347310863483e-191
105	0x185f42fa1fb45b20	2.740781235924961e-191
106	0x1853775a69f95354	1.706650013798899e-191
107	0x18480b9dae009e5d	1.054057543603351e-191
108	0x183e2b81adb9dfba	6.612677296475896e-192
109	0x1833887463419485	4.281266886020353e-192
110	0x182a2bbb225bc26c	2.868072856706731e-192
111	0x1821fe3772c4d356	1.9718649602427458e-192
112	0x181918acd3bef7ee	1.3751623985980546e-192
113	0x18119593be79fd2d	9.635350418238352e-193
114	0x18089d078cbfa8a4	6.743484056463591e-193
115	0x180127ab4b3306ec	4.700049524726566e-193
116	0x17f7c6bfed4ddb4e	3.2570788402845396e-193
117	0x17f05cb7be6a7432	2.241423516405423e-193
118	0x17e65527aae4dd4f	1.5296525478731055e-193
119	0x17de2e00dbe850b9	1.033564842840768e-193
120	0x9b20c5440beb9daa	-5.173213277096166e-178
121	0x9b167c3d58765fd2	-3.4680190588075023e-178
122	0x1b17092315b434c8	3.552906930962538e-178
123	0x1b41830e17a6cd44	2.1607606834950446e-177
124	0x1b586432d11403ce	6.01920720539798e-177
125	0x1b6b1c5eb73dd16f	1.3380588395603328e-176
126	0x1b7aa602648787ac	2.63047933503113e-176
127	0x1b88183d2984e2a2	4.7567876778979915e-176
128	0x1b9477c01cfdcd56	8.081522354725396e-176
129	0x1ba0908e82008d1f	1.3080834254029108e-175
130	0x1ba9ca54476b80ed	2.0366187943234096e-175
131	0x1bb36a099ac5e13a	3.066212389040433e-175
132	0x1bbc466218eebb14	4.465644402660842e-175
133	0x1bc3d58007bb00d8	6.2650206204563e-175
134	0x1bca9b01806c60fb	8.403956908752768e-175
135	0x1bd0e9c80d84abe8	1.06848525752568e-174
136	0x1bd435d2f0adc882	1.27677452287174e-174
137	0x1bd688c5fb8b1fc8	1.4235936297401278e-174
138	0x1bd74f45b9c24097	1.4725783771740481e-174
139	0x1bd644b7445dcb87	1.4067986904309921e-174
140	0x1bd3933da198e75d	1.236652915207962e-174
141	0x1bcf8eb8d88fb558	9.968165255013313e-175
142	0x1bc739a77bb0b829	7.33621772420889e-175
143	0x1bbefdf55eccf866	4.894772261001125e-175
144	0x1bb27873b92c7b0f	2.9171687712486516e-175
145	0x1ba2f233ed48700e	1.4961408220735996e-175
146	0x1b8d9284ac03f950	5.838189542141767e-176
147	0x1b58d4d4fcd5b130	6.127782269934845e-177
148	0x9b74505a4009c4fc	-2.0051892625325202e-176
149	0x9b7f09c20f34ec71	-3.063782424772663e-176
150	0x9b8097b734a7f034	-3.275729382251662e-176
151	0x9b7f17a55c7da1f0	-3.0691374201806867e-176
152	0x9b7b2853cdd73cad	-2.68072829002764e-176
153	0x9b76a664b3f08444	-2.235786139141178e-176
154	0x9b723b0628538f37	-1.7995446361332852e-176
155	0x9b6c78041b894cba	-1.4050827715556931e-176
156	0x9b659ff323dd4bbd	-1.0672956250631959e-176
157	0x9b60023c1c85cc59	-7.901133984806362e-177
158	0x9b57211e91ff0eed	-5.707769320960839e-177
159	0x9b505205f4d1680f	-4.027480507082734e-177
160	0x9e269b71fb43f982	-1.9629050514142575e-163
161	0x9e28ce19c0cbbe24	-2.1537386573022625e-163
162	0x9e2137b52f35feec	-1.4949449112109503e-163
163	0x1e1a1d18e71c35ee	1.133679081910266e-163
164	0x1e45f16048916c68	7.620893488556589e-163
165	0x1e5df330abdf5fc3	2.080360587024109e-162
166	0x1e700121feb6d168	4.446746954675061e-162
167	0x1e7de4153f16a6d5	8.305046106682502e-162
168	0x1e89607e29bae1e2	1.4101695572331439e-161
169	0x1e93f9ffa431650d	2.2201533459146482e-161
170	0x1e9d8414886d848c	3.2803405061142067e-161
171	0x1ea4a2e59920dde2	4.586955170132057e-161
172	0x1eab7803bfa0c34f	6.105653153790638e-161
173	0x1eb17599df2c7e27	7.761597551879473e-161
174	0x1eb53423cdf97926	9.426129196061791e-161
175	0x1eb889a5925d465c	1.090826977122915e-160
176	0x1ebaebb9ed625e9e	1.196769131599432e-160
177	0x1ebbcf57e24c5000	1.2362955158997336e-160
178	0x1ebad5a49b55d13a	1.1929343026156725e-160
179	0x1eb7f77c9c5af3d2	1.0654458499922577e-160
180	0x1eb396e7b2fa3304	8.708534478662226e-161
181	0x1eacd04ec5c453f2	6.404590816637039e-161
182	0x1ea274d7b3876286	4.1024160904767e-161
183	0x1e92ea59d8e604c6	2.1022222612187026e-161
184	0x1e74ba1c50901150	5.758888560264477e-162
185	0x9e6fe014c15ceb40	-4.428196193125292e-162
186	0x9e825f68b1f6b63a	-1.020951506884352e-161
187	0x9e86e3327dfcfb8a	-1.2718341717669949e-161
188	0x9e879282b353b91c	-1.3098887813706312e-161
189	0x9e8611aada2b9b67	-1.226352307243256e-161
190	0x9e838039fad71e00	-1.0836440523641818e-161
191	0x9e808eb3f170ff79	-9.200794886508902e-162
192	0x9e7b42c5be53ebc6	-7.574281001708759e-162
193	0x9e75db880a6fb7e9	-6.073006053672826e-162
194	0x9e711ba425f36f6e	-4.753362209953831e-162
195	0x9e6a2c94c76c70e8	-3.636175639092734e-162
196	0x9e6394f12684cf92	-2.7203517279846073e-162
197	0x9e5caad14ce3cab8	-1.9912623273557554e-162
198	0x9e54899e9f43d55d	-1.4265649422224462e-162
199	0x9e4ccec75876d320	-1.0005098795610801e-162
200	0xa0b5d367ef962292	-4.1672777748191184e-151
201	0xa0ba54ef4f967de9	-5.027618864609741e-151
202	0xa0b8b6596252c3f2	-4.718406759405015e-151
203	0xa09dfdc36b3ace90	-1.4315843788676767e-151
204	0x20c4b7aa4c6a48b0	7.911308479678813e-151
205	0x20e241832004c0ae	2.7885317162860277e-150
206	0x20f50f6df3980119	6.433778916126208e-150
207	0x21043181c4f9f133	1.2337902067527612e-149
208	0x211122d124aeba5f	2.0939760420925606e-149
209	0x211a603494c23d5e	3.223055905411272e-149
210	0x21229bf56b544acd	4.547997053759138e-149
211	0x21282dfa1e3fe115	5.909370593769402e-149
212	0x212cf1b775186cad	7.073816493029296e-149
213	0x212fd527aca0a9e0	7.779734335497239e-149
214	0x212ff3590057b5d6	7.808558312735755e-149
215	0x212ce198b086e698	7.058427072674085e-149
216	0x2126dec83e9e8fe4	5.589370956231255e-149
217	0x211d98c49c0d25a0	3.6166475155941302e-149
218	0x2107be594b55cd1a	1.4507006872493232e-149
219	0xa0f36534ce0e0034	-5.925152024956034e-150
220	0xa1129ad6d7ba7e68	-2.2734641804617485e-149
221	0xa11c6a7d30ae70df	-3.4723595383606638e-149
222	0xa1211fbd70f3737c	-4.185014608945005e-149
223	0xa1225a2ff8b54756	-4.485207342619063e-149
224	0xa12252c6ff4c41d0	-4.478133202429019e-149
225	0xa1217373d703a8a8	-4.264932216643394e-149
226	0xa120101b4f978b84	-3.925695074118838e-149
227	0xa11cc8e7d37a0913	-3.517427747954284e-149
228	0xa11932d9ce1048c7	-3.0792091696958116e-149
229	0xa115970df5af939d	-2.6382499792350364e-149
230	0xa1121e600c62764c	-2.214053286304975e-149
231	0xa10dcbe684d1133b	-1.8205273832032674e-149
232	0xa108024b87fa85d4	-1.466917205433484e-149
233	0xa102f56eb5143ee1	-1.1583536938255248e-149
234	0xa0fd57ef4171678b	-8.964250838414727e-150
235	0xa0f6413043b25e39	-6.79865172620482e-150
236	0xa0f08a73354b371c	-5.053115383602759e-150
237	0xa0e8187db60efc2b	-3.680536649375583e-150
238	0xa0e132d76dc8e0cd	-2.6270313786931625e-150
239	0xa0d80ef27c18f5f6	-1.8374210723360178e-150
240	0xa2d70cbf8dcc18a2	-7.560824534451438e-141
241	0xa2dde52a92cb7084	-9.806255922354115e-141
242	0xa2e096e8d432b4a7	-1.088341208635959e-140
243	0xa2d983a67f98582b	-8.369220363741971e-141
244	0x22b76d30ec977858	1.9210999904189872e-141
245	0x22f3e68962f31252	2.611119548669012e-140
246	0x230b40dce6b5d37c	7.15174874122691e-140
247	0x231b7bf3e0d7f2b2	1.442463934285148e-139
248	0x23274da5644fd8b4	2.446073678305661e-139
249	0x23312e06796bc2b2	3.606614870331497e-139
250	0x2335ffaf9729f98a	4.6182822455008425e-139
251	0x2337a56f05bbac09	4.964137877914718e-139
252	0x2332f4c32bbd2492	3.979523497269154e-139
253	0x2313ba25561d0850	1.0353471103955792e-139
254	0xa333ecbae5891944	-4.1828701946254915e-139
255	0xa34b28dbe5ac5c72	-1.1403428998028058e-138
