src/kernel/kernel7.npy (npy, 169408 bytes, 1 tensors)

array f8 [23, 23, 40]
000000 e8 9c 2c 13 0c 4c d2 3d 04 b6 47 4a f8 a5 d7 3d
       6.656431377757782e-11 8.603208646355681e-11
000010 6e 13 45 ac a6 0e da 3d db fa cf e8 75 8e d3 3d
       9.479565315656605e-11 7.114608399214192e-11
000020 cc 29 2e 93 b5 99 b8 bd 85 66 d5 a0 3f 89 f0 bd
       -2.237395789366139e-11 -2.406323203488176e-10
000030 9b 63 d5 a9 f4 50 06 be da 5e 17 13 f5 6a 16 be
       -6.494878694473223e-10 -1.3048878196423137e-09
000040 b0 3a 57 17 42 02 23 be 9a 32 bf b9 d1 1e 2c be
       -2.212918010923848e-09 -3.2736439791379986e-09
000050 12 16 9e e0 ee 25 32 be 05 21 a7 9d 4d db 33 be
       -4.225451552785146e-09 -4.623237315937828e-09
000060 3f a3 49 8c c9 b7 30 be a0 67 54 f7 8d 87 19 be
       -3.8924438712179986e-09 -1.4860130602759945e-09
000070 68 ad d7 1d 8a b5 28 3e 24 bf 82 ad 9d 46 43 3e
       2.8765223386745928e-09 8.97601408508056e-09
000080 5c f9 53 d6 db 2d 51 3e 81 d8 0d d1 30 5c 58 3e
       1.5999316889560226e-08 2.268712956688317e-08
000090 0e 44 b5 b9 c2 c1 5d 3e 7b e7 be e1 c0 2e 60 3e
       2.7713251788301068e-08 3.014249846896795e-08
0000a0 35 42 8c ae 64 f0 5f 3e 40 f5 da bd 2b 02 5d 3e
       2.974554550160742e-08 2.7016252227302346e-08
0000b0 12 dc 65 98 a4 97 58 3e ae 44 c7 e9 11 c7 53 3e
       2.2903415630597904e-08 1.841934126214316e-08
0000c0 4c 73 e1 cb 57 c2 4e 3e 40 44 87 63 36 9c 47 3e
       1.4323346394525414e-08 1.0994358410576087e-08
0000d0 d0 fc 60 f5 07 37 42 3e 24 8c d2 4b d1 8b 3c 3e
       8.482004137357269e-09 6.64642135526154e-09
0000e0 da 68 92 2b 6c bc 36 3e 84 ad 84 d8 6b 49 32 3e
       5.2936434620775076e-09 4.257727844157353e-09
0000f0 e6 5c 77 6d 8b 71 2d 3e ed a7 f6 1d 48 8b 27 3e
       3.4276784568067297e-09 2.7408903893987025e-09
000100 69 e5 38 dc 43 9a 22 3e 29 28 b2 46 0f f5 1c 3e
       2.1656274289284136e-09 1.6855346240127373e-09
000110 a3 ef 42 02 de 29 16 3e ad 9c c0 37 98 aa 10 3e
       1.2900880442446759e-09 9.701112959905843e-10
000120 69 17 61 92 9c 9c 08 3e c2 b4 db df 0f d6 01 3e
       7.162966094904623e-10 5.19101150707168e-10
000130 21 10 ad 4e 64 5d f9 3d 82 81 9b a3 d7 b0 f1 3d
       3.6910659136429477e-10 2.574348820986353e-10
000140 e1 60 2c f7 12 c5 ef 3d 96 e6 8a 80 9e 1a f3 3d
       2.3115586839327475e-10 2.779995127698458e-10
000150 c1 7e 24 37 e1 c7 f1 3d f8 bb 8f 60 6b ca d3 3d
       2.587444071001913e-10 7.199815061882446e-11
000160 3c b4 42 b8 e1 40 ff bd 65 bb 7b d2 0c 1d 1b be
       -4.547974707431341e-10 -1.5782120696532515e-09
000170 da 78 50 e4 76 27 2f be e0 03 35 d8 27 d5 3d be
       -3.6268213176756107e-09 -6.945952593749449e-09
000180 30 5f 3b 19 ff 50 49 be f6 6d e7 99 60 81 53 be
       -1.1788863919279835e-08 -1.8165800969251e-08
000190 b1 9f 95 fd af 96 5b be 29 f9 36 72 b0 fe 61 be
       -2.5693907312022587e-08 -3.351807567217195e-08
0001a0 c3 63 e4 d3 13 ad 65 be 3f 14 86 a3 cc 11 68 be
       -4.037485233833707e-08 -4.4832991044490725e-08
0001b0 99 6e 3d b0 c7 84 68 be f1 2e d6 e6 4e b0 66 be
       -4.566958547335896e-08 -4.2261004344529703e-08
0001c0 01 05 9c 60 04 b3 62 be fc 4c 31 59 65 3b 5a be
       -3.483013351173751e-08 -2.4430467937129937e-08
0001d0 e1 50 03 02 05 2e 4b be f8 4f 50 2d 4a 87 14 be
       -1.2656563852879523e-08 -1.1949145468707908e-09
0001e0 ed 12 ca b5 24 79 42 3e e5 69 2e f2 84 24 51 3e
       8.602261730421315e-09 1.5965340282103797e-08
0001f0 95 bf 7a 4a b0 40 56 3e c3 32 b2 a8 d4 db 58 3e
       2.0724432530066273e-08 2.3151481215238193e-08
000200 b6 6e 62 3c 64 7d 59 3e cb 51 28 0f 69 b6 58 3e
       2.373923615375816e-08 2.301534691481744e-08
000210 fc 38 4c bd 4e 04 57 3e 09 84 3c b3 be c7 54 3e
       2.1436090086187882e-08 1.9353119286935044e-08
000220 4d 32 1f 01 20 47 52 3e 94 c3 a4 62 8b 69 4f 3e
       1.7022557648008822e-08 1.4627484186225095e-08
000230 00 05 8e ac d7 68 4a 3e 65 32 d3 e9 b6 bd 45 3e
       1.2297900824208668e-08 1.0123975708458902e-08
000240 2f fd 9b de 46 88 41 3e 80 38 07 de 7e b4 3b 3e
       8.164128001678984e-09 6.450587148157464e-09
000250 45 9e 65 43 25 73 35 3e 4c 87 65 11 fd 45 30 3e
       4.9941677931617835e-09 3.7889445108712466e-09
000260 de 4c e0 1e 5d 32 28 3e 31 bc 4f a9 ac a0 21 3e
       2.816870506823311e-09 2.0521267554103975e-09
000270 77 25 48 8e e9 2a 19 3e d7 ec a9 83 d9 9a 11 3e
       1.4649486564163236e-09 1.0247389730647446e-09
000280 33 d2 38 2d 82 e3 00 3e 7e b9 5c 31 65 6a 02 3e
       4.915260095154177e-10 5.359646916596693e-10
000290 99 d8 cd 73 b9 f1 f8 3d 4e 94 da 03 ad 72 f5 bd
       3.6298640812220384e-10 -3.1210878660514877e-10
0002a0 bd c4 8d 98 29 ea 20 be f7 b6 32 13 6a e3 36 be
       -1.9691299185233216e-09 -5.3291063117647575e-09
0002b0 03 64 cd 71 14 63 48 be f4 82 99 f3 7e bf 56 be
       -1.135609611353248e-08 -2.1185754683886417e-08
0002c0 25 1c 44 3c 26 50 63 be d2 2d 7b 0b 74 6f 6e be
       -3.597342116035734e-08 -5.6690283965062695e-08
0002d0 fe 09 a6 fb de 86 76 be 5f ca 22 7c a9 96 7f be
       -8.39190183229621e-08 -1.1767642063806881e-07
0002e0 fa ca 08 f2 0d 1a 85 be dc 71 0f ec cf f1 8a be
       -1.5722047754100784e-07 -2.0075275666734665e-07
0002f0 09 33 1c 88 43 71 90 be 94 94 f8 49 1b 20 93 be
       -2.4501139971114026e-07 -2.849909126210345e-07
000300 1c ae e9 7c d7 16 95 be 18 fa 54 63 68 e4 95 be
       -3.1425394989598216e-07 -3.2621946684580394e-07
000310 02 08 77 6d 9a 39 95 be 54 75 ab 62 c5 0c 93 be
       -3.1627733451330714e-07 -2.8386543486448005e-07
000320 ce d1 f5 77 5e 51 8f be 00 18 57 b7 c5 35 87 be
       -2.3333614860742485e-07 -1.7292833446989507e-07
000330 13 f0 20 3e 03 1f 7e be 91 b6 4e 45 5c cb 6f be
       -1.1221000265152786e-07 -5.922164151378176e-08
000340 5c 9c 8a aa 49 fc 53 be 88 e2 e8 dd d0 8f 42 3e
       -1.8612946436427544e-08 8.643502744368386e-09
000350 fd 6b c2 36 f4 0f 5a 3e a8 6d 69 53 81 c6 60 3e
       2.4272427110420007e-08 3.1246637656393513e-08
000360 db a2 92 fa ed 7d 61 3e f6 84 c5 72 13 79 60 3e
       3.2581226003003114e-08 3.068326601369354e-08
000370 a7 b8 4a e8 5f 34 5d 3e 1f 0a e5 d4 e3 d7 58 3e
       2.7198892487805275e-08 2.3137144916345647e-08
000380 82 80 41 9a 03 7a 54 3e 72 8d 44 5d 9c 6e 50 3e
       1.9070336102259673e-08 1.530356093336534e-08
000390 36 1d 8e 7f 30 bd 49 3e e6 a2 9e a9 e6 b2 43 3e
       1.1985665780842959e-08 9.17298352886212e-09
0003a0 fa 10 58 d1 3a 7c 3d 3e 07 bb ba 43 af 96 35 3e
       6.865074971607169e-09 5.0264903868254594e-09
0003b0 cc 6f 71 de 58 f0 2e 3e 7f 5c 86 4c af b3 25 3e
       3.601756881931818e-09 2.5264329276190106e-09
0003c0 cf 73 25 ed 8b 36 fb 3d 10 3d 3f 35 d1 7f f0 3d
       3.960023256760987e-10 2.4009621135605415e-10
0003d0 d2 4d 7f a8 5d 9b f8 bd 30 fc d7 c2 cc 0b 20 be
       -3.580774917005824e-10 -1.8680110988856512e-09
0003e0 9c 0c ca 16 e9 c4 35 be e4 69 ca 56 ed f1 47 be
       -5.0685325768303605e-09 -1.1150272449541539e-08
0003f0 0a d9 e2 08 ab 6b 57 be be b1 9a 00 1b 22 65 be
       -2.1812113497950106e-08 -3.9363698145974916e-08
000400 26 d5 11 e8 e7 f3 71 be 96 20 63 96 f5 1b 7d be
       -6.68792328339182e-08 -1.0844028039685227e-07
000410 4c 03 ed 2a 82 bb 86 be 41 e8 6a 06 0e 2f 91 be
       -1.6936998777953585e-07 -2.5605868928977885e-07
000420 8c f8 36 d9 b5 24 99 be 31 e0 06 49 13 b8 a1 be
       -3.746658531997671e-07 -5.280686697284025e-07
000430 ec 41 40 6b 5e de a7 be 06 ec f5 1e c4 74 ae be
       -7.113405531296129e-07 -9.076630344406892e-07
000440 96 4b ed 94 35 40 b2 be 98 24 e8 aa 3c 66 b4 be
       -1.0878334994648306e-06 -1.2158967980255695e-06
000450 6f 95 ba b0 1a 25 b5 be f9 5f f1 55 f4 3c b4 be
       -1.2603365488276192e-06 -1.2062849561646895e-06
000460 be 65 2f 7c e4 d2 b1 be 20 f8 85 62 ee cb ac be
       -1.0623812023352251e-06 -8.582057420684161e-07
000470 2b c5 03 72 61 41 a5 be 1d 4a c6 30 16 7e 9c be
       -6.334600790842289e-07 -4.245717242442101e-07
000480 b6 11 f5 35 54 1e 91 be 1e 59 bb 81 fc db 81 be
       -2.550851174352622e-07 -1.3306231571334085e-07
000490 26 40 7c 6a 50 41 6d be a8 ce 4c 58 8f db 43 be
       -5.449193213162327e-08 -9.246941665153838e-09
0004a0 54 a0 a7 49 42 64 4d 3e 7a b6 4b e4 83 f9 58 3e
       1.3686547274815724e-08 2.325947280866509e-08
0004b0 70 86 b6 5b 3e 71 5b 3e 05 b4 f2 21 74 05 5a 3e
       2.555768728390522e-08 2.4234227177680722e-08
0004c0 ab 10 c6 f7 e5 e0 56 3e 97 3b 0d b2 1a 29 53 3e
       2.130727193426173e-08 1.7844665414861767e-08
0004d0 59 fb 26 6d 7d ee 4e 3e 6f 6d 28 39 47 33 48 3e
       1.4403649305279952e-08 1.1269145426759936e-08
0004e0 d7 3a ad 5b d9 68 42 3e 17 72 43 3d 52 49 3b 3e
       8.572622491783673e-09 6.353112664606858e-09
0004f0 27 f8 3d 2f 28 ba 33 3e ba 52 55 a4 fa da 2b 3e
       4.5930910081158315e-09 3.242793841321628e-09
000500 4a 01 0a 06 30 e7 17 be 28 31 1f c7 04 57 23 be
       -1.3913421735535578e-09 -2.2514626213515896e-09
000510 b3 b8 5f bb f8 3a 2e be bc 37 b3 68 f1 cc 36 be
       -3.5192768378233266e-09 -5.308668736548744e-09
000520 0e e5 93 1a 50 ac 40 be e6 87 1d 26 31 02 48 be
       -7.76401594620207e-09 -1.1179858098046971e-08
000530 0d f4 ea 75 e7 90 51 be 5c c5 b3 37 6c 4e 5b be
       -1.6359641969875628e-08 -2.543100972597524e-08
000540 1e 9b 3e 46 bf 43 67 be ef 24 92 06 87 76 75 be
       -4.3333763937675673e-08 -7.995589758522127e-08
000550 16 ad e9 af ec 6e 84 be 1c 83 a0 4f c7 18 93 be
       -1.5223994150339474e-07 -2.845643646294254e-07
000560 f1 1f 7c 57 2b f1 a0 be 74 f1 a7 d1 24 04 ac be
       -5.049129603038381e-07 -8.349474314713277e-07
000570 08 70 f1 0d 7f 64 b5 be 82 0c 14 aa 5d 0a be be
       -1.2750961600116132e-06 -1.7905528369450815e-06
000580 26 e9 d4 e8 6a 5b c3 be b2 e9 9e 65 cf e0 c6 be
       -2.307546145855231e-06 -2.7272897513395364e-06
000590 5b e2 d8 45 b0 cc c8 be 5a 10 2f 2f e5 ab c8 be
       -2.9563384902587864e-06 -2.941067913183156e-06
0005a0 fb ed dc 78 31 8e c6 be 21 30 bb 28 39 fe c2 be
       -2.6888182621789717e-06 -2.2641491506988355e-06
0005b0 de 04 a1 d1 fb 91 bd be de 21 29 34 f7 67 b5 be
       -1.7625241697380308e-06 -1.2759039270828262e-06
0005c0 37 f6 fc 9c 28 17 ad be 7b 4d 6a c2 7c d1 a2 be
       -8.669633704061609e-07 -5.608293392627046e-07
0005d0 6c 6d 45 67 2c a5 97 be 00 e0 39 6a 56 91 8d be
       -3.5234106767418973e-07 -2.2029671696891483e-07
0005e0 e4 6e c0 c7 4d d6 82 be 02 d3 bc a9 10 d1 78 be
       -1.4034751305644557e-07 -9.244926462983354e-08
0005f0 39 82 e7 44 65 eb 70 be be 17 65 e9 94 a8 67 be
       -6.303010133919668e-08 -4.406743163652899e-08
000600 02 d6 31 cd 6b c2 60 be d6 bb 5a ff 79 d4 57 be
       -3.121692206894086e-08 -2.2193404411698295e-08
000610 9b da 5f 28 6c e7 50 be b0 1b d9 bb 9a da 47 be
       -1.574307131182614e-08 -1.1107848747695624e-08
000620 dd 90 31 5a f4 b5 40 be 2b ac 68 cf c8 36 37 be
       -7.781553906616631e-09 -5.404930939046885e-09
000630 fd ba 92 3d 88 ed 2f be 7c 93 2f 3b 6f b4 25 be
       -3.716892110574894e-09 -2.5267738678186615e-09
000640 22 1d 45 d3 6e 8a 3c be d6 64 1a a1 ec 03 43 be
       -6.645162021617576e-09 -8.854702779423383e-09
000650 fa 43 32 4d f3 42 46 be fd be c0 2a 0f 12 44 be
       -1.036633038288131e-08 -9.346075323460719e-09
000660 d0 ee ec a2 23 53 26 be da 74 93 8d f4 26 4f 3e
       -2.598944413328412e-09 1.4506359157673336e-08
000670 95 3c 0f 2e 04 60 69 3e 4a 14 a2 c9 9e a9 7a 3e
       4.726473946220701e-08 9.93258474653307e-08
000680 d6 31 60 e5 84 97 86 3e 3a 4d a3 8d 02 16 90 3e
       1.6832256005717047e-07 2.396997281887333e-07
000690 d4 01 b9 d5 bd d4 92 3e 38 df fe 77 0d e9 8f 3e
       2.8060408905144753e-07 2.3775072221869633e-07
0006a0 20 52 ac 51 ba d6 67 3e 8c 9b 12 6a b5 29 98 be
       4.4403188867240054e-08 -3.600556315965217e-07
0006b0 7e 9a 02 c0 d5 c8 b0 be 21 03 81 4b 56 d2 be be
       -1.0004348496656585e-06 -1.837112263217314e-06
0006c0 18 c3 c8 56 90 1d c7 be 6f dd 96 7e 45 18 ce be
       -2.7555803881130238e-06 -3.587580967158859e-06
0006d0 26 03 d4 99 0e 75 d1 be 13 03 73 02 d2 4f d2 be
       -4.162133703689691e-06 -4.3658729175783955e-06
0006e0 91 5b e5 0e 7e 8b d1 be 8f fd a2 56 66 fe ce be
       -4.1830282796116825e-06 -3.694742806009412e-06
0006f0 a8 60 47 ad a4 80 c9 be 03 f9 4d a2 ff cf c3 be
       -3.0401364290271616e-06 -2.361833383478859e-06
000700 08 b5 dc fb 83 94 bd be 39 26 26 ff b2 ac b5 be
       -1.7631136723470935e-06 -1.2919072075200004e-06
000710 47 84 24 a1 65 dc af be e2 b1 b5 f3 e9 dd a7 be
       -9.495295805497566e-07 -7.112875900889746e-07
000720 da b1 ef d9 45 51 a2 be 47 cc 65 74 2a a9 9c be
       -5.45903208746359e-07 -4.270792611983583e-07
000730 51 c8 10 a1 d6 9f 96 be 46 2e 47 ac 79 d7 91 be
       -3.371293653713861e-07 -2.658620526201803e-07
000740 66 ba dd c5 0a e9 8b be 21 4e fe d9 a6 8e 85 be
       -2.0794809335195084e-07 -1.606139052838261e-07
000750 9d ee 3f b1 d3 66 80 be c9 bf d0 58 56 8d 78 be
       -1.2220194689482198e-07 -9.146369546529396e-08
000760 b0 39 d5 75 ed 0f 72 be ef c5 aa e2 05 1b 6a be
       -6.728700215517225e-08 -4.8625392009236404e-08
000770 c3 b1 80 50 c5 85 62 be d0 0a a5 15 c0 cb 59 be
       -3.45009230631979e-08 -2.4024303748853905e-08
000780 1e 4a e1 4d a8 37 50 be d6 12 ed ff 97 fd 53 be
       -1.5103641775040377e-08 -1.8617697601700992e-08
000790 d3 ce f4 40 fa cd 53 be 68 f9 61 cc a8 4f 42 be
       -1.8444470892624625e-08 -8.52680271897532e-09
0007a0 44 c2 f2 b0 1b 11 57 3e d9 a5 2d 6c 28 54 77 3e
       2.1482658371556427e-08 8.69063355009718e-08
0007b0 9b 26 4e ba 96 c9 8b 3e a4 87 b8 06 51 eb 9a 3e
       2.0703268180056814e-07 4.0112741459170184e-07
0007c0 b4 08 db 62 e9 d6 a6 3e 3e ba de ec 72 6c b1 3e
       6.806701031358414e-07 1.038529194623654e-06
0007d0 49 df 44 db 12 21 b8 3e d9 8e 9a 3c 99 58 be 3e
       1.4382120357546742e-06 1.8087678079003744e-06
0007e0 b6 44 a0 a9 ea 35 c1 3e 68 79 77 4d 98 4e c1 3e
       2.0516648193765863e-06 2.063156539596607e-06
0007f0 74 90 6c 97 d3 ac bd 3e 09 a7 e2 e8 94 6d b3 3e
       1.7687740105432652e-06 1.1580022234815646e-06
