src/kernel/kernel5.npy (npy, 169408 bytes, 1 tensors)

array f8 [23, 23, 40]
00000000: 7c94 30e0 f2d3 b50f d6e8 0e08 b00b b70f
00000010: ef2e 6a24 4f1c ab0f aac1 d5a2 9a3b b48f
00000020: 9013 094b 0c4b d98f 761f 2af7 ff7a f08f
00000030: 26fc 09f1 cc51 0190 1b32 b337 dd12 1090
00000040: 64eb ff9d aa4b 1b90 f831 7216 ec99 2590
00000050: 3ea5 84d9 db1f 3090 ce08 0044 7ee5 3690
00000060: 0f2c 65dd 8c17 3f90 e2dc 67e6 9b3b 4490
00000070: c06f e458 4a35 4990 6607 2aa7 79f0 4d90
00000080: a7d2 53f3 71d7 5090 9a15 fac6 fed0 5190
00000090: 2c87 476a 4e96 5190 bb8e dc7c ee12 5090
000000a0: 1e9c 6c02 80f8 4a90 a929 8b76 ae88 4490
000000b0: 7069 736f d5d3 3b90 0a53 a582 8a13 3090
000000c0: 3ae1 fe71 11b4 1b90 d0c5 48d1 a004 e58f
000000d0: a640 98ec 0790 0810 046c 1476 b48f 1310
000000e0: cebe 8143 70d5 1510 8521 af00 5b33 1510
000000f0: 9f06 197b ea18 1310 92ca b48a 2466 1010
00000100: 5ac3 074a 8032 0b10 c9fb c21f cbea 0510
00000110: 44a0 3d98 d537 0110 d3b2 9ce7 616a fa0f
00000120: 1b5b 93fe bacd f30f ce92 594b 9309 ed0f
00000130: 6980 1453 b4d3 e40f 8770 cb5e 163d dd0f
00000140: c887 73d2 3d44 d813 a0c2 181b 24ac d613
00000150: d835 4eac 3044 b413 9495 f2a6 f4ac e793
00000160: 68be cf93 a4c0 0494 d7c7 d970 5ce9 1894
00000170: 5951 6151 e856 2994 b056 cc58 ec39 3794
00000180: 212b a146 a8b9 4394 e9ae c542 168e 4f94
00000190: 30c7 5387 cc09 5894 da5c 0ea8 f691 6194
000001a0: 1c6d 905c 28bb 6894 a278 0616 6abf 7094
000001b0: a5c4 78c2 dfba 7594 56d1 bb7d 04d3 7a94
000001c0: a1b5 8519 c141 7f94 b21c 1fb8 370f 8194
000001d0: 04c3 1b08 6953 8194 5a69 cdcc 6146 8094
000001e0: c5ad 03f1 561f 7c94 cdd9 c3d0 9135 7694
000001f0: 82da 033e 2dc7 6f94 50e0 588b 2a41 6494
00000200: 24f6 290d fa1e 5694 7a2d cea9 3e48 4294
00000210: c831 7beb 038d 1094 4054 9e36 faf3 2a14
00000220: 7556 ac1c 2e41 3514 983b 2551 db37 3714
00000230: eb31 dfe4 491b 3614 bec4 d167 3793 3314
00000240: 4409 daca ba8b 3014 eebe 1318 1a04 2b14
00000250: a92c 3e7a 476c 2514 e359 e2fc 1a8c 2014
00000260: 1486 c481 7df0 1814 df47 c78d c35a 1214
00000270: e87a 6d78 9a67 0a14 92ee fa35 c392 0214
00000280: 170a 099a 906d 8e17 6e2c c56f 0e64 8117
00000290: 40c2 0264 511a 8f97 b02d f4df 7a0e b397
000002a0: d20a 6152 a78a c997 2b3f bae3 bcf4 db97
000002b0: 18f9 596e 6e47 eb97 dcf0 6218 4097 f897
000002c0: 4ab0 3650 efe3 0498 b6cf f3a0 4df3 1098
000002d0: 02b6 3af6 b783 1a98 b0a4 7e25 2815 2498
000002e0: 32ca 1728 2f73 2d98 a7fe edb7 96cc 3498
000002f0: 369d 8a22 aa12 3c98 96fe ce91 bbf0 4198
00000300: d94a 7a0a f987 4598 6580 5436 d017 4898
00000310: 0d62 ed83 50ff 4898 e86b b4f7 1af2 4798
00000320: 299b f5b2 711b 4598 9d6d 104a 4c11 4198
00000330: 8b32 6d24 b83a 3998 6ab1 a2e2 c9f1 3098
00000340: acd1 22d8 306f 2498 44e8 4a34 5f7a 1598
00000350: 04fd 0a3f 8ff3 0198 68c9 08d3 5023 dc97
00000360: f0c5 38e8 b2b2 de17 901e 50ae 99cc eb17
00000370: 8382 d725 a0ff ee17 90ad 96c7 dd93 ed17
00000380: eecb 1f88 f917 ea17 6019 1b80 4be6 e517
00000390: 0cc0 632a bfb3 e117 0ad2 ccf2 5fba db17
000003a0: f5e2 3cb8 dd1b d517 9b25 6d38 e34d cf17
000003b0: f80f 6f8f 11a4 c617 954a 9d39 92fa bf17
000003c0: 704a 3c38 0716 bc9a d8b8 11a2 3a40 e99a
000003d0: 409e d58c 4dd2 029b 379f 0a6c 494d 169b
000003e0: d604 c673 bb70 279b c44c a296 4cc1 369b
000003f0: 5cfa d0ea b7d7 449b ca31 ffdb 2c48 529b
00000400: e642 1d68 cd13 5f9b e611 c908 19d1 699b
00000410: e2bd 6a34 f309 759b 0584 8a6f b1c6 809b
00000420: 3e8f 9c6e 87f7 899b c0a7 1087 c649 939b
00000430: ca15 bf04 2f30 9b9b 0a4f 0474 6e00 a29b
00000440: f704 2fff 0b39 a69b 170c ee50 ca6e a99b
00000450: 7053 df8f 8be1 aa9b 4fd7 20ef e22c aa9b
00000460: 930c fae9 b772 a79b 842b 1340 994f a39b
00000470: 0c06 4d13 663d 9d9b 7a6a 0229 355b 949b
00000480: 58b7 ed5e 0b12 8a9b 3075 ae8d 91ae 7e9b
00000490: 00c3 172d f07f 709b 9694 aded 38cb 5f9b
000004a0: 37b1 443b 3f92 499b 5417 6bae 4be6 279b
000004b0: 3857 2095 3ba0 1a1b daf0 7ebe dbbc 2c1b
000004c0: 7c6f d5b1 417f 301b f948 8a0a faaf 2f1b
000004d0: eeec 0534 25ce 2b1b 13d7 7fe8 dbfe 261b
000004e0: e9c2 18ec db2d 221b d08d 0eb7 18b0 1b1b
000004f0: 961d 05e8 ad68 141b e03c ff12 cc37 0d1b
00000500: 43e5 1fe5 0e0c ef9d f845 eb33 de4b fb9d
00000510: 8a59 5167 3353 079e 9a50 a3d7 2d65 139e
00000520: 9c8c 6faa c889 1f9e c34b f6c8 5a52 299e
00000530: d794 0035 6964 349e 5085 30e4 a3c6 409e
00000540: 0eb9 b3db 758d 4c9e 5a1a 6568 6d12 599e
00000550: c862 9e5a 774b 669e 1a81 7f2a 728d 739e
00000560: 689e 2558 5680 809e b4b0 3b42 1b51 8a9e
00000570: afd5 2dd0 2f97 939e f9ce 59c8 b206 9b9e
00000580: ba8d 9578 9432 a19e 0187 dd56 0424 a49e
00000590: d671 b8c2 e2ad a59e 674d 80c7 f170 a59e
000005a0: 8073 5b90 b67e a39e b0fa 770f c951 a09e
000005b0: 1f5f fbef 6439 999e 3f46 de1d 6614 929e
000005c0: 3f9c aeb3 2e37 889e 7b9c 40e8 daa6 7e9e
000005d0: 1d65 3147 b9a3 729e 3b5f c65f 4a41 669e
000005e0: ae07 f840 02b2 5a9e c583 7353 3f60 509e
000005f0: 3c68 183e f4ae 449e f8a5 e3fd c9c2 3a9e
00000600: bbfa 119e 498d 319e 465a b74a 5120 279e
00000610: bacc 8878 9770 1e9e f511 3f21 aef9 139e
00000620: fbe5 75aa 5d25 0a9e 9f2e 853e ec13 019e
00000630: 089e 602a 6145 f69d 5eb4 6688 faf8 ec9d
00000640: ecd3 3dc2 b1aa 92a0 1c0d db79 9fc1 9ba0
00000650: 18d7 3321 7373 a3a0 199a fb99 0448 a9a0
00000660: 2e2d e8b1 bed4 ada0 f4f0 3232 fc2d afa0
00000670: 7c31 144e e4d2 aca0 50ca 3279 ab1f aca0
00000680: 98a8 2c07 8342 b8a0 7c74 4091 50e8 d0a0
00000690: 1251 9172 b42f e7a0 5c4d 7202 c473 fba0
000006a0: a6f6 ce7c 1129 0ca1 36a5 92aa 1278 19a1
000006b0: 0b3f c368 5795 24a1 9f9b 7a28 66fe 2da1
000006c0: c8ad c26a e7d0 33a1 3465 a3cf 62d6 37a1
000006d0: adc1 7da6 0d2f 3aa1 4d47 5523 1a55 3aa1
000006e0: 8157 72b0 c050 38a1 7c8d ce30 3db1 34a1
000006f0: 6335 9985 8850 30a1 20ab b82a c606 28a1
00000700: a23b a3e6 84b9 20a1 f6ed 0514 b166 16a1
00000710: e78c 3c7d 8e89 0da1 99a5 174b 54a7 03a1
00000720: 72c4 729b 95e9 faa0 f2b0 0ee9 a816 f3a0
00000730: ce3c dd3f bbe1 eba0 b74b 48f5 b6b5 e4a0
00000740: 6a65 2dd9 61ec dea0 ae29 2c6e e103 d7a0
00000750: 93d3 96fc 34fe d0a0 5082 3675 3ad3 c8a0
00000760: 33dd dcdd cce8 c1a0 4381 7a93 127d b9a0
00000770: ebd0 df71 e9de b1a0 0693 09d3 55aa a8a0
00000780: e461 0aca 4414 cba2 aaa8 eb04 74b6 d2a2
00000790: 1d85 6989 2066 d7a2 fc33 1126 c2b3 d8a2
000007a0: 085d 2faf 647c d1a2 8025 deb1 d134 b622
000007b0: a830 247a 30fc e922 be01 9389 b414 ff22
000007c0: e46f 9bdf 1a49 0a23 20d7 d833 5aca 1023
000007d0: 3818 9027 59ef 0a23 5016 7cde 1907 f4a2
000007e0: ae4e 52bd 0f4e 28a3 4820 97bb 7480 3fa3
000007f0: b5d0 c9d7 5cfb 4da3 562c 4190 f7e4 57a3
5.492066819531495e-233 5.798456676274067e-233 3.410611247120062e-233 -5.090728795684096e-233 -2.5455778556386982e-232 -6.634571726207289e-232 -1.3944711414237665e-231 -2.5883253940926056e-231
-4.3953710261124683e-231 -6.956846032659664e-231 -1.0385997090701455e-230 -1.4747949169864416e-230 -2.0026815359410941e-230 -2.606455627911164e-230 -3.247390909490772e-230 -3.8568769569532165e-230
-4.339165535044138e-230 -4.5903201207700895e-230 -4.53125386622204e-230 -4.141388525863826e-230 -3.474446243589798e-230 -2.6452396525204644e-230 -1.792409096748057e-230 -1.0355004769163864e-230
-4.461041602585854e-231 -4.230642903776355e-232 1.9776436934519713e-231 3.1499387136200483e-231 3.515859874093159e-231 3.413906647162307e-231 3.075218251649807e-231 2.640709175188897e-231
2.1897707804846736e-231 1.7646462572653758e-231 1.3863045325939554e-231 1.0634158040853513e-231 7.972384773189238e-232 5.844819926575875e-232 4.192175438098729e-232 2.9426612178631707e-232
4.5051726948341766e-213 4.2092146216620975e-213 9.406303881556873e-214 -8.790917749422398e-213 -3.0822206343728686e-212 -7.399870237218764e-212 -1.5053961332918197e-211 -2.7597032486089025e-211
-4.687432108599674e-211 -7.498624504170156e-211 -1.1424741470094903e-210 -1.6701250935229468e-210 -2.3508028197082156e-210 -3.1838934977934035e-210 -4.1310675632894034e-210 -5.099542631887243e-210
-5.942213909023925e-210 -6.486313006808553e-210 -6.587594590874538e-210 -6.188026360658099e-210 -5.3463296191942845e-210 -4.2221829689310354e-210 -3.0206476302768937e-210 -1.925288224864801e-210
-1.0513513051718107e-210 -4.344518494457949e-211 -4.916353805989074e-212 1.601255961303111e-211 2.5254349722570767e-211 2.75874410566742e-211 2.6266664846197115e-211 2.3258743378848912e-211
1.965944807005717e-211 1.60499793097504e-211 1.2727193544300915e-211 9.830596057364178e-212 7.408142450525723e-212 5.452136467471639e-212 3.921699528623222e-212 2.7585568143114014e-212
3.256462300071163e-195 1.8612020157703226e-195 -3.3286824958377467e-195 -1.6315762372737654e-194 -4.373621243915402e-194 -9.574099687314082e-194 -1.8684509482225104e-193 -3.36864956541395e-193
-5.723463638354742e-193 -9.288013089308858e-193 -1.452869637491815e-192 -2.2008663256736546e-192 -3.227432504991061e-192 -4.558782573758019e-192 -6.153046342026234e-192 -7.864370668246771e-192
-9.438432460833999e-192 -1.0561461654269996e-191 -1.095787295074159e-191 -1.0496892343269695e-191 -9.252593262671718e-192 -7.481772043942807e-192 -5.52979740512831e-192 -3.713908452788182e-192
-2.2394087690323696e-192 -1.176892862938612e-192 -4.918257030335527e-193 -9.636410363303367e-194 1.0513165053377497e-193 1.9040809455426065e-193 2.1232151282740035e-193 2.0258895757286397e-193
1.7872596523041631e-193 1.4999914094975883e-193 1.2124908292612427e-193 9.496023099551203e-194 7.22915296772639e-194 5.3603862668437685e-194 3.8769156902297004e-194 2.737946056233112e-194
-6.768512419630491e-180 -4.8682106141182676e-179 -1.4514654934504992e-178 -3.4397309216338044e-178 -7.230641909522725e-178 -1.403850419836623e-177 -2.571730766250187e-177 -4.511538905393424e-177
-7.669138469629724e-177 -1.2741916844210902e-176 -2.0767532707522377e-176 -3.311957195535418e-176 -5.126403925432576e-176 -7.615771688373092e-176 -1.0735030324402605e-175 -1.4215616661837152e-175
-1.7548988220858246e-175 -2.0083818080260765e-175 -2.1227484663667708e-175 -2.0670207228038751e-175 -1.8516570048514123e-175 -1.5249505987921824e-175 -1.1545095105588427e-175 -8.037499426426268e-176
-5.146851910943397e-176 -3.028620931866861e-176 -1.6286964077402966e-176 -7.845949476819652e-177 -3.1551861365244952e-177 -7.372301089850299e-178 4.1066436738755094e-178 8.864719571916345e-178
1.017771002342884e-177 9.774606925402973e-178 8.577079910775924e-178 7.093429243351951e-178 5.607713712657699e-178 4.270436166321784e-178 3.1477646214753946e-178 2.253213971820526e-178
-1.6848197812228418e-164 -2.9625596412988382e-164 -5.063071751626319e-164 -8.420101336831953e-164 -1.3691767650961331e-163 -2.1985947370510048e-163 -3.5411725306282477e-163 -5.826384937668564e-163
-9.9164837779199e-163 -1.741530225087396e-162 -3.0972462139410257e-162 -5.432567775790314e-162 -9.169611968249774e-162 -1.4623986692648485e-161 -2.1772559128922952e-161 -3.0036322922071446e-161
-3.8226066943133035e-161 -4.4767897613781844e-161 -4.818772337640405e-161 -4.7658591025610336e-161 -4.333262226010336e-161 -3.627425403972005e-161 -2.803365166002756e-161 -2.0093386984543356e-161
-1.3456334945534163e-161 -8.516438400229717e-162 -5.178901708456607e-162 -3.091724209076373e-162 -1.854291120948154e-162 -1.1374944476635734e-162 -7.18347503220847e-163 -4.647110369250217e-163
-3.047941362363292e-163 -2.0079708291371066e-163 -1.3214913440293e-163 -8.67193404774378e-164 -5.675406485871783e-164 -3.707019699171428e-164 -2.41714311319253e-164 -1.572242181328598e-164
-8.910282715693635e-152 -1.3249039272951398e-151 -1.8569216352882506e-151 -2.4135257636477344e-151 -2.8478722778724785e-151 -2.9766182446387267e-151 -2.751714469264758e-151 -2.6848795327729748e-151
-4.632011333003911e-151 -1.2912818378611017e-150 -3.5416407539119125e-150 -8.386475342190386e-150 -1.7205660100965822e-149 -3.1122512252218634e-149 -5.030469619932111e-149 -7.330318902208736e-149
-9.685874259377336e-149 -1.1651500523051221e-148 -1.2798375836845235e-148 -1.2871023712728448e-148 -1.1885139596055804e-148 -1.0114205079141147e-148 -7.97440213535043e-149 -5.8719448216583244e-149
-4.087427663997457e-149 -2.737362225589703e-149 -1.8046932982256923e-149 -1.2008117770440486e-149 -8.221578876072064e-150 -5.831419819504453e-150 -4.2588506521191214e-150 -3.1633595635704675e-150
-2.3617230382407306e-150 -1.7577461187197453e-150 -1.2978130360861833e-150 -9.479891693309065e-151 -6.839000505247446e-151 -4.8666214469495244e-151 -3.412125171943173e-151 -2.3547231898078805e-151
-4.441272957229387e-141 -6.138166636895357e-141 -7.675348606968674e-141 -8.102841457514902e-141 -5.735751263705146e-141 1.8210368415871268e-141 1.704734191498161e-140 4.078076165826227e-140
6.897780385335487e-140 8.812194390352864e-140 7.068190815543823e-140 -2.6278098794745596e-140 -2.551210826022371e-139 -6.613283227330326e-139 -1.258841198292101e-138 -2.0064954473491527e-138
