src/kernel/kernel0.npy (npy, 169408 bytes, 1 tensors)

array f8 [23, 23, 40]
0	0x8fe78d030cd7a036	-4.740449545447559e-232
1	0x8fe843e42fda18c6	-4.884242719626108e-232
2	0x8fd92e9d24ccf988	-2.5343993421334874e-232
3	0x0feae28362b274b4	5.4115346178372066e-232
4	0x100e02fed5c84583	2.416372885095142e-231
5	0x10231f1275fef18e	6.158181194838404e-231
6	0x1033ec8b0f582444	1.283334280294644e-230
7	0x10426e862fcd6817	2.374430947811147e-230
8	0x104f4d3a133cf0b0	4.0323739300269312e-230
9	0x1058d6f3de355ec0	6.399837464976429e-230
10	0x1062a3e11afcca99	9.60512018690574e-230
11	0x106aac61f57bfe76	1.3744571411734757e-229
12	0x107249a6e363aee7	1.8847010263536052e-229
13	0x107811334fe502ec	2.4803255387164557e-229
14	0x107e5635fa79da19	3.126457467599177e-229
15	0x108238cb1462a5c0	3.755828436830625e-229
16	0x1084b83e41c2f9d1	4.2706774378731124e-229
17	0x108622116fb0adc4	4.561998454805281e-229
18	0x10860bbfddebe7af	4.544028752379809e-229
19	0x108453f52e430e12	4.1899332469607734e-229
20	0x1081384c2bdfb12c	3.5493125380653926e-229
21	0x107a8b937440c462	2.7357072464770148e-229
22	0x1072542285a79d04	1.8889211642600355e-229
23	0x1065f2d3c620df42	1.1309906930019466e-229
24	0x1054cf7315032460	5.361702350877473e-230
25	0x10335a3b45378de0	1.2465211832430933e-230
26	0x903343fb7fef17ca	-1.240923144603275e-230
27	0x90436c6dcfe02912	-2.5021995807567735e-230
28	0x9046f17bba170b41	-2.9556234206435314e-230
29	0x9046cd78aff45ba1	-2.937501714856368e-230
30	0x9044c8642181a46b	-2.6772992829018548e-230
31	0x9041f778bb577c98	-2.314521944733082e-230
32	0x903decbb5c83669a	-1.9274966299059388e-230
33	0x90382fa0f5179004	-1.5578594468443356e-230
34	0x90330a821dac6484	-1.2264622232539517e-230
35	0x902d42364a4c2bed	-9.422962942650535e-231
36	0x9025f612cd268009	-7.07277567167495e-231
37	0x90201d67e00a5840	-5.189912548858442e-231
38	0x901721c7e97058e1	-3.724909354966648e-231
39	0x90103ec272bc19d3	-2.615936430043344e-231
40	0x94108accec2c7179	-4.913783859279457e-212
41	0x94138f02d50691dc	-5.809806215967914e-212
42	0x941160814c3aab01	-5.161752606253566e-212
43	0x93e290a8ddf9d130	-6.893341944526085e-213
44	0x142352b999a12dfd	1.1479708470630253e-211
45	0x143f3cf9bb1b4750	3.7116656983260106e-211
46	0x14519ba5c0607338	8.36860408471602e-211
47	0x1460c1058e6e6eca	1.5925435527801952e-210
48	0x146c703e79fce3c9	2.7032051878729257e-210
49	0x147607cb776ae791	4.1881899658786744e-210
50	0x147f83f1fea94ad9	5.9913682625354626e-210
51	0x1484f23d571631cb	7.964147264993184e-210
52	0x1489f78a07e4abdc	9.873109904145708e-210
53	0x148e142de9d6464e	1.1436520328087243e-209
54	0x14904889e9a3f5f8	1.2382459073246172e-209
55	0x149074173b7c83f4	1.251182844380142e-209
56	0x148ee5409a8eb560	1.1747041370451209e-209
57	0x148ab3ae5014bbe2	1.0152543224077531e-209
58	0x1484d6492c0ee57e	7.922629531887451e-210
59	0x147c17e4553cbd68	5.3407988615224955e-210
60	0x146ca0b8fe20ecee	2.7212056209428405e-210
61	0x143d30b2b3c99340	3.468330871929681e-211
62	0x94609e8493e56bc4	-1.5797320436686086e-210
63	0x946f2512ba17b7d8	-2.960457446643306e-210
64	0x9473f91d56ac4c96	-3.7970699416947585e-210
65	0x9475e708b2fe78ec	-4.163861333457377e-210
66	0x9475f1469330f02c	-4.171466963819789e-210
67	0x9474b2ad9b327c48	-3.9348720087041223e-210
68	0x9472b0b5a56d086d	-3.553191790248468e-210
69	0x947050e812e8b388	-3.101828825624697e-210
70	0x946bb3aa4a36d914	-2.633184549423934e-210
71	0x9466f265c4c48ad2	-2.1812046110074943e-210
72	0x94629546a84ea82d	-1.7664096275210607e-210
73	0x945d748b42f396e9	-1.3999281821611726e-210
74	0x9456db6932fa9256	-1.086334763456223e-210
75	0x94515f14f29416d7	-8.256161870015347e-211
76	0x9449dd2cde603d7f	-6.146220928375692e-211
77	0x9442dc850ba44d87	-4.482157273564714e-211
78	0x943af31df4808b16	-3.2021125894784453e-211
79	0x9432dcb04be59a9f	-2.2411570517990283e-211
80	0x97c6bd5c23e722f2	-3.893832734012247e-194
81	0x97cd11cd063474a0	-4.9777248331667565e-194
82	0x97cf4bb6269c6dd8	-5.358930732936748e-194
83	0x97c599b4102773b4	-3.69874742031243e-194
84	0x17baf0174a636d5e	2.3063532530219882e-194
85	0x17e76b47e9c7ae62	1.6040664978700363e-193
86	0x17fe6204fe690ede	4.1620937187988263e-193
87	0x180e3135190e102c	8.271947787822943e-193
88	0x18199b06b773533b	1.4030632606118407e-192
89	0x18231d67d55b3c9b	2.0948070588004242e-192
90	0x182936f8565b7a7e	2.763293699604039e-192
91	0x182ce4a7d6b8ad22	3.166417761643544e-192
92	0x182b428fb37cbfa6	2.9874367131291824e-192
93	0x1821821812719100	1.9187296096127136e-192
94	0x97eeb61a5b7799c0	-2.103543794751267e-193
95	0x982e2ff749011e54	-3.308247663071027e-192
96	0x983fca9d8e122ed7	-6.9680833708132e-192
97	0x98480bdfe24a53c8	-1.0541018267739587e-191
98	0x984e692619b5ae46	-1.3330907803573996e-191
99	0x9850eae2702a64f3	-1.483198935813081e-191
100	0x9850fd673efbc8d4	-1.48954106657407e-191
101	0x984f5a9721487744	-1.3744340447904688e-191
102	0x984b03b94a46c871	-1.184214691972468e-191
103	0x98461decba9f16bb	-9.695202765948578e-192
104	0x98418b77dd31a900	-7.690970338253368e-192
105	0x983b8340bc2b4c46	-6.030260738515231e-192
106	0x9835ab7a7e146617	-4.7496153163071715e-192
107	0x983149eccfcd4ed0	-3.78936870836306e-192
108	0x982bed9544c32793	-3.0606490307241935e-192
109	0x9826b05227d891fa	-2.4864711124210906e-192
110	0x9822643dc7d72056	-2.0155405011200172e-192
111	0x981d8d9a9a1516d6	-1.6193712293697385e-192
112	0x98176e1cab7cd8b0	-1.2838591738081157e-192
113	0x9812484fccd5cbcf	-1.0017920881450302e-192
114	0x980c0a96eb9412e1	-7.682665844356048e-193
115	0x98051e6075810a62	-5.786009374557196e-193
116	0x97ff3946d7290218	-4.2772799427214547e-193
117	0x97f6a60be3601361	-3.1025909153513524e-193
118	0x97f01d8ebd2f7032	-2.2076258938204965e-193
119	0x97e67dbe83e5de62	-1.540512398313453e-193
120	0x9b0e0c3fcbf1d372	-2.3172130210167256e-178
121	0x9b15a9de234e2e24	-3.3412742006611426e-178
122	0x9b1d041704c90d06	-4.475275362547843e-178
123	0x9b217f3fb50f45ca	-5.397315400010736e-178
124	0x9b21de8b160ffd7e	-5.512141392724157e-178
125	0x9b1a01f8ed202bc8	-4.011294967888274e-178
126	0x9adbd2bd40b65900	-2.6820673214911524e-179
127	0x1b20add4d9a72078	5.14497581132129e-178
128	0x1b2bc65787d89fd8	8.567677116242031e-178
129	0x1aed1371f51cdb00	5.6056582259526615e-179
130	0x9b4dc94a64cddbb0	-3.6752678591372697e-177
131	0x9b6a6b1244b595e8	-1.3038768017433532e-176
132	0x9b7fa9ec150e73e6	-3.1255396681331486e-176
133	0x9b8ee77584ef6096	-6.101114351957302e-176
134	0x9b9a0d82092072f8	-1.028670701018613e-175
135	0x9ba3784a9ae76f79	-1.5375030939310585e-175
136	0x9baa260ccff0cb60	-2.0649118961253972e-175
137	0x9bafce61c660bef6	-2.5116784601869118e-175
138	0x9bb19c64b5d4e85e	-2.781405904186557e-175
139	0x9bb1d3a657df9c87	-2.8154957460994553e-175
140	0x9bb08f0d08e893d1	-2.6152378917124935e-175
141	0x9bac5b4cf71b66dc	-2.2392746025568245e-175
142	0x9ba68559a77c62f6	-1.7784360966257983e-175
143	0x9ba0bde77d3c4dd9	-1.3220717828241562e-175
144	0x9b979d38e35a331a	-9.323840713486133e-176
145	0x9b9019b9f96896c5	-6.35713950662859e-176
146	0x9b85bb9eeaea3176	-4.290521670521454e-176
147	0x9b7dbd57a298e85e	-2.935607185333565e-176
148	0x9b74f7d9803b0848	-2.069773986399539e-176
149	0x9b6e90d3b6569247	-1.5085764824581297e-176
150	0x9b66d79ef9ea904c	-1.1273838410967087e-176
151	0x9b6148e4605f6f64	-8.53090828956768e-177
152	0x9b5a32d71932dcf9	-6.465178999253692e-177
153	0x9b53bd479a6b57ba	-4.871199653182036e-177
154	0x9b4d7244b7353680	-3.6333245630226623e-177
155	0x9b45b0bde80af69a	-2.6763325644973747e-177
156	0x9b3f82ae870ce2bc	-1.9440056590461054e-177
157	0x9b368b9c44ba1921	-1.3909118613685335e-177
158	0x9b2fbfb510fa9dc2	-9.793561628352114e-178
159	0x9b25fb1a7b6c047f	-6.780434188474287e-178
160	0x1dbe38a04936a298	2.0500008336765434e-165
161	0x9dd24fdbd503abdc	-4.968633167366601e-165
162	0x9df520d7a70be27e	-2.2931197648824183e-164
163	0x9e0c95bfa9a3fadf	-6.2048301353549186e-164
164	0x9e200419fa77de87	-1.3906153006295406e-163
165	0x9e301e27332d19c8	-2.79890227035549e-163
166	0x9e3e2129c41c4ade	-5.2320864486351626e-163
167	0x9e4aaac36eb4f65a	-9.261626035036142e-163
168	0x9e56a96a6abb728a	-1.574114683447543e-162
169	0x9e62ae1cecea27b8	-2.595088742582409e-162
170	0x9e6e0b7cba5f65aa	-4.1739063750455932e-162
171	0x9e77934402755dd0	-6.550263455477533e-162
172	0x9e81f35d7f04598f	-9.974988523873305e-162
173	0x9e8a47816feff5ec	-1.460314645151093e-161
174	0x9e924bff2a33e971	-2.0334755334593483e-161
175	0x9e97feef3b2f28c4	-2.6668479297541805e-161
176	0x9e9d6680391759bf	-3.2674991531913418e-161
177	0x9ea0b985e1d77f38	-3.717497132407901e-161
178	0x9ea197beb9197ead	-3.9104447775940194e-161
179	0x9ea10f4291c750bb	-3.7919396321508115e-161
180	0x9e9e70bea47276bb	-3.383084268991323e-161
181	0x9e98f4aacf390c9a	-2.7735285099098923e-161
182	0x9e92c867a580e427	-2.087485155064723e-161
183	0x9e89edd75f846078	-1.440851545897637e-161
184	0x9e80601af88a353a	-9.099647320709147e-162
185	0x9e72cef24993b210	-5.225812654849386e-162
186	0x9e634cf8515471e2	-2.681294989850544e-162
187	0x9e50bec9a10b021c	-1.1631463226623045e-162
188	0x9e335c36b9449cca	-3.361959078761072e-163
189	0x1e10d5415ac7ef90	7.307765886576384e-164
190	0x1e2cd6b235499ef0	2.503960023189666e-163
191	0x1e31a9438bc123bb	3.06691857423715e-163
192	0x1e3170d5c1c29d8e	3.0286410626621297e-163
193	0x1e2f386abe8c69f2	2.7107566451549884e-163
194	0x1e2a4d99ec8eaa96	2.2838090712223093e-163
195	0x1e25318b2ab5d4f1	1.840160301679092e-163
196	0x1e20763e00c8f499	1.4293279604093464e-163
197	0x1e18c47409150ce4	1.0752333043924032e-163
198	0x1e12198cfb106a3f	7.857715891112207e-164
199	0x1e09c1673b52af4e	5.5906466524048514e-164
200	0x2084d8d12fecaefd	4.975475078967078e-152
201	0x2085c96a21a2ca3e	5.1997822881317915e-152
202	0x207860acb4532dea	2.909067359830639e-152
203	0xa0853493cd02810e	-5.061022442404439e-152
204	0xa0a92b796c2a359a	-2.40288134361076e-151
205	0xa0c03d1ac558a82c	-6.201020473275242e-151
206	0xa0d1007783b2ece2	-1.2984872325314648e-150
207	0xa0df8380c6aa8d34	-2.4068074583286307e-150
208	0xa0eac218010b571a	-4.087226667760923e-150
209	0xa0f53388bfe6f15d	-6.47686387699286e-150
210	0xa0ffb99c721b7534	-9.691798878474344e-150
211	0xa10699c84f0fd556	-1.3808747826029689e-149
212	0xa10ed288995070b1	-1.8832092179406673e-149
213	0xa114280d91087ac3	-2.463067739032888e-149
214	0xa1193e69a8ffbfd0	-3.0847280718756295e-149
215	0xa11e22aff4d03720	-3.682481071144359e-149
216	0xa12108968922a826	-4.162912168483944e-149
217	0xa122196325ae83dc	-4.423344790557486e-149
218	0xa121f099a99b8c64	-4.384406715374106e-149
219	0xa1207680fe2be003	-4.023450360023166e-149
220	0xa11bbf24d59ff752	-3.390570710688731e-149
221	0xa1153ede07c5020a	-2.596155235861538e-149
222	0xa10d0bdaae90fa34	-1.774692302282097e-149
223	0xa101114972f9d456	-1.042804177022343e-149
224	0xa0eed34ca4c1952e	-4.7084799723938894e-150
225	0xa0c4397e9734a448	-7.723103615099304e-151
226	0x20d4c3d832e4ce86	1.5858951901319952e-150
227	0x20e20e5ef9d62d95	2.7580174321451654e-150
228	0x20e49fbdfa21c92c	3.150249243156431e-150
229	0x20e438a3a313c0fc	3.088731123929339e-150
230	0x20e24e2bceed2d45	2.796084878711386e-150
231	0x20df8708ede640e3	2.4078611275547227e-150
232	0x20da30f12a383772	2.0003096958142705e-150
233	0x20d521ff652dd39a	1.6139842294540786e-150
234	0x20d09df32e028c63	1.2690963185133888e-150
235	0x20c982b75ddb4dc3	9.74166144087487e-151
236	0x20c3228ae64517b9	7.306999923828265e-151
237	0x20bc114e5e83e350	5.359046137318935e-151
238	0x20b42317a58c20eb	3.844843539479746e-151
239	0x20ac46a57bbccf50	2.699414571404137e-151
240	0x22b2111ae841f34d	1.4815751595373836e-141
241	0x22b577fc0f151df9	1.7605468590941423e-141
242	0x22b357cfed04dabb	1.5862303227052407e-141
243	0x228b85a2ff435264	2.821190029379018e-142
244	0xa2c420ebf3811ea1	-3.3013047664010475e-141
245	0xa2e09413481b29d7	-1.0876149057097586e-140
246	0xa2f2c994c9e89df0	-2.465070394164738e-140
247	0xa301e863e5c79d06	-4.699305047560256e-140
248	0xa30e655ec7085821	-7.97642228931857e-140
249	0xa31782ebfa5fb5f9	-1.233959072285757e-139
250	0xa320c3bd13d16d71	-1.7597270563369816e-139
251	0xa3262bc3096b1a7a	-2.327213440434596e-139
252	0xa32b46509c8f2043	-2.8629349589639382e-139
253	0xa32f3f5ff14206d2	-3.2799565842778215e-139
254	0xa330a8c7c34a383f	-3.4973469043198225e-139
255	0xa3307c657c380a72	-3.46094974600293e-139
