src/kernel/kernel5.npy (npy, 92608 bytes, 1 tensors)

array f8 [17, 17, 40]
0	0x3e65c0539f623bf0	4.0514908692804394e-08
1	0x3e6b3907cb983021	5.0706370168738733e-08
2	0x3e6bf4d8b321afa5	5.2072911663934726e-08
3	0x3e5f7cbefa1709e3	2.9324823130338607e-08
4	0xbe677a0487d6ca69	-4.3728634029241546e-08
5	0xbe8b9db6391c662f	-2.0575569386546553e-07
6	0xbea0f056a514b851	-5.048162369564179e-07
7	0xbeb08f3b8f0b527f	-9.870232668313418e-07
8	0xbebc186b3c4f7ac7	-1.6746155193575418e-06
9	0xbec5448167512430	-2.535295431847533e-06
10	0xbeccf4af8aba3aa7	-3.4518007703884554e-06
11	0xbed1a6b08d519bba	-4.208357684643466e-06
12	0xbed2ee896fcd6cd6	-4.51368918849144e-06
13	0xbed11486e13ac605	-4.072232986083919e-06
14	0xbec6980a361a627e	-2.6934034601074e-06
15	0xbe9ad86109dd7b20	-4.000251098058882e-07
16	0x3ec5250e17605d26	2.520650180147906e-06
17	0x3ed759bd6438c217	5.567204030707438e-06
18	0x3ee123c389a836b7	8.172846993860642e-06
19	0x3ee4bf466e758701	9.893020844034801e-06
20	0x3ee61ca3a46ccdfb	1.0543762198978414e-05
21	0x3ee572b95639a1ec	1.0227270372102083e-05
22	0x3ee3630ad0446354	9.244386554517536e-06
23	0x3ee0ad5884301ed6	7.952276183345092e-06
24	0x3edbdbb01ae6787a	6.641901946128937e-06
25	0x3ed6fd235b53275c	5.480961978674079e-06
26	0x3ed2f7d1ad8db999	4.5223339036740135e-06
27	0x3ecf703b3809958b	3.7477497587974404e-06
28	0x3eca1df17747bb14	3.113384929635276e-06
29	0x3ec5a214201bda26	2.5788688170450586e-06
30	0x3ec1c3f1301d32cf	2.1178005917054785e-06
31	0x3ebccce36b99d764	1.7166343425889709e-06
32	0x3eb6fa092250e8f8	1.3695181533394945e-06
33	0x3eb2031a226ad3ce	1.0736058670250315e-06
34	0x3eabb9a2fa9dbb0e	8.262736532602863e-07
35	0x3ea4f02f25c6e095	6.240075652230536e-07
36	0x3e9f05f2e081e4bd	4.622822591459266e-07
37	0x3e968a450c23267e	3.3587390303440587e-07
38	0x3e900ee205fb5dd4	2.392848781179961e-07
39	0x3e866e8c0ba9ab8c	1.6713011581915798e-07
40	0x3e794df99d70ebee	9.426694390437529e-08
41	0x3e7ec40b50758628	1.1461152748172905e-07
42	0x3e7d749ad2846591	1.0973024145259353e-07
43	0x3e65621fd9732620	3.9829497194809936e-08
44	0xbe85ddec0f4c24a9	-1.629209759534664e-07
45	0xbea41b1ed51f9c3c	-5.992036824471073e-07
46	0xbeb7704053f706d4	-1.3970423678875503e-06
47	0xbec68cef6bc04cc6	-2.68823245442584e-06
48	0xbed32298fd543e2d	-4.562174543267954e-06
49	0xbedd5e000494131a	-7.001683181022379e-06
50	0xbee497a40fb5f996	-9.81919628517402e-06
51	0xbeea79d5cb4269a0	-1.262470173229031e-05
52	0xbeef2978809e94d6	-1.4859197125913924e-05
53	0xbef0af1357a6026d	-1.5910996333359123e-05
54	0xbef00a1000bf79ea	-1.5296274838644536e-05
55	0xbeeaef4e205391d5	-1.2843506747414152e-05
56	0xbee273fbef35e6b7	-8.799106103951763e-06
57	0xbecfcd85d1febd74	-3.7911919576677514e-06
58	0x3eb6a5e6f45ea1b8	1.3499292932183065e-06
59	0x3ed882089844d4d1	5.843149100838791e-06
60	0x3ee33b3f022a6d8c	9.170260516547559e-06
61	0x3ee76aafa5fa2eeb	1.1165973034430818e-05
62	0x3ee9195ddcddc04f	1.1968178025262422e-05
63	0x3ee8eaf2bd673c73	1.1881716926702272e-05
64	0x3ee79024b1fc89e9	1.1235742533315242e-05
65	0x3ee595c78f044cbe	1.029256642984808e-05
66	0x3ee356a38748a669	9.221283314780897e-06
67	0x3ee104d4db89a516	8.115231012700271e-06
68	0x3edd752cec4bffc0	7.023266964223342e-06
69	0x3ed90f3a9650bb0e	5.974647455038766e-06
70	0x3ed4efa76d36e7e9	4.991566771856187e-06
71	0x3ed12a2fac256d29	4.09240482420894e-06
72	0x3ecb9b28a854e7b1	3.2909022730483196e-06
73	0x3ec5c475fc2a2c20	2.5948793063771503e-06
74	0x3ec0d3ab0b65ee4b	2.005914292611289e-06
75	0x3eb980854872ddeb	1.5200396619572796e-06
76	0x3eb2f133014c1650	1.1290421799160394e-06
77	0x3eab948a180919bb	8.219549699282937e-07
78	0x3ea3adafc1600597	5.864639003318311e-07
79	0x3e9b8512dba1e7fd	4.1007725893433476e-07
80	0x3e88cdf2a236abbc	1.848078038218217e-07
81	0x3e8d3cbd443b8357	2.1783458425182937e-07
82	0x3e89bff5d811ef07	1.9185129576995298e-07
83	0x3e55bf3f0c84e678	2.025352399787859e-08
84	0xbe9dcb5dc5f40384	-4.439711513565735e-07
85	0xbeb7d2f1243280af	-1.420020581822982e-06
86	0xbecac67e4acfa997	-3.1918721874375072e-06
87	0xbed973408aa7f20a	-6.067801374684293e-06
88	0xbee599a369e840ab	-1.0299754021253783e-05
89	0xbef0bf77bc47be25	-1.5972061889911238e-05
90	0xbef800a9a6c475b6	-2.2890652347053965e-05
91	0xbf0000324fda99ba	-3.051904239486114e-05
92	0xbf03ecaf2d8cc327	-3.8003059393060174e-05
93	0xbf07399d0e5e9479	-4.429827258371154e-05
94	0xbf095ca36770937f	-4.837392491933208e-05
95	0xbf09eb3bd9140cc6	-4.9436344065534275e-05
96	0xbf08b2ec7994b860	-4.710945285989264e-05
97	0xbf05c5cdaa84565f	-4.152807133743214e-05
98	0xbf0178dbb360fb7e	-3.332539056132617e-05
99	0xbef8a8d0bdc31684	-2.3517069948983494e-05
100	0xbeebe5cf3c5164de	-1.3302656848223517e-05
101	0xbed00d2a3e143291	-3.826958136399079e-06
102	0x3ed0ed71dca42380	4.035834942913634e-06
103	0x3ee493bd82ff38d0	9.811930880146083e-06
104	0x3eec2ea931151664	1.3438353138393862e-05
105	0x3eefcfc7ebeb51a9	1.5168974070980277e-05
106	0x3ef02db743b12ffd	1.542909397427016e-05
107	0x3eeec85aba3ee3c8	1.4678303905545339e-05
108	0x3eebeeda3cb713fc	1.3319500701389549e-05
109	0x3ee87462c4389fbe	1.1660877254973555e-05
110	0x3ee4cbba7c572bd5	9.916216991442541e-06
111	0x3ee13ec5e1ac7b29	8.223155466389309e-06
112	0x3edbf3c6592aadfe	6.6643346083128195e-06
113	0x3ed62a2e89d98d27	5.284493594356975e-06
114	0x3ed134e354e46b9b	4.102371646187449e-06
115	0x3eca297c464344fd	3.118759695032988e-06
116	0x3ec37b0a67eee77b	2.322271768187673e-06
117	0x3ebc6aed058a2960	1.693825671863514e-06
118	0x3eb44dfde55c60f6	1.2102517720821542e-06
119	0x3eac6cdafeb5ad21	8.471374689905406e-07
120	0x3e945b25ed3e1174	3.0332874455969777e-07
121	0x3e971a6dba619838	3.442650559126549e-07
122	0x3e921c19412b7766	2.6985645821912263e-07
123	0xbe751dd54adf654c	-7.866522608260583e-08
124	0xbeb0450ab654b189	-9.697493735346327e-07
125	0xbec788814209ccea	-2.8053787136051013e-06
126	0xbed9a6750fd3f57a	-6.1154898933745645e-06
127	0xbee81f6aba16e371	-1.1502610336987345e-05
128	0xbef47a2e18b3cd0d	-1.952864253680375e-05
129	0xbf0005bee0ec3003	-3.056038632651139e-05
130	0xbf07642a58537b3b	-4.461530901677396e-05
131	0xbf100eb50a6e6f62	-6.125431046516202e-05
132	0xbf14da0dc0af6a88	-7.954319896389718e-05
133	0xbf19b52dd108b1d3	-9.806720869027308e-05
134	0xbf1e23de8957b0e2	-0.0001149754119393362
135	0xbf20c9a71b2292a4	-0.00012808003299826399
136	0xbf21b53ef69df141	-0.0001351012572817865
137	0xbf2194efe8a18c6b	-0.00013413837979489875
138	0xbf204b04ba082183	-0.0001243060369378151
139	0xbf1bdbe27f8292c6	-0.00010627336439712328
140	0xbf1597639a7fad7d	-8.236451560577302e-05
141	0xbf0d627691cb0b5c	-5.6046718076816214e-05
142	0xbf003ca9580b477e	-3.096954151761334e-05
143	0xbee4f01384c05de8	-9.983920016095251e-06
144	0x3ed6cd1905224880	5.436220890458099e-06
145	0x3eefe26d895604b8	1.5203706690727174e-05
146	0x3ef52de243e6db0a	2.0198091300572956e-05
147	0x3ef6c3748a64d2bb	2.1708962458083107e-05
148	0x3ef602f7bd34cac8	2.09918906197242e-05
149	0x3ef3f680c9c32c4c	1.9038107539153922e-05
150	0x3ef154b2d3a2cbd0	1.6527990034997085e-05
151	0x3eed1df1590346a4	1.3884050332899183e-05
152	0x3ee7cd55d2ba4ddf	1.1349721339904327e-05
153	0x3ee2fd8c9589c4fc	9.055340954607857e-06
154	0x3edd9eb35d24917c	7.061940282580464e-06
155	0x3ed698ad23cd18e0	5.3873996506746495e-06
156	0x3ed0dec1fb14b99c	4.022156575174409e-06
157	0x3ec8a8add2b05965	2.939570227687682e-06
158	0x3ec1a5373c16c7d9	2.103492506144185e-06
159	0x3eb8bacc26f1eaa7	1.4740036496085436e-06
160	0x3e9b788683f08e05	4.0934685680197717e-07
161	0x3e9d87a385aad1ea	4.4002888947437805e-07
162	0x3e92d89bf1afb9b4	2.808292138269296e-07
163	0xbe95060fb6a1d9ab	-3.1327720385141653e-07
164	0xbebd70ea753f6766	-1.7548249688831827e-06
165	0xbed39060d1b6fb60	-4.6644156798659705e-06
166	0xbee4b5cb0456b152	-9.875359078780639e-06
167	0xbef345b35226fd2a	-1.8379466504956126e-05
168	0xbf005ce373c9158c	-3.120965127271632e-05
169	0xbf09d6bbcfdb1857	-4.928360611482278e-05
170	0xbf133381f75838d2	-7.324677229567374e-05
171	0xbf1b15edbbd51b38	-0.00010332358848073604
172	0xbf223c1007af3ee3	-0.00013911910704544122
173	0xbf277f955029f8ee	-0.00017927835149928552
174	0xbf2cf7d4802162f0	-0.00022100895881995526
175	0xbf31056269fb3624	-0.0002597203510788812
176	0xbf32f4f553b68408	-0.00028925885609437695
177	0xbf33ddb67278f738	-0.0003031320979721588
178	0xbf336fd710f32037	-0.00029658318176162566
179	0xbf319b81508fde81	-0.00026866824242641896
180	0xbf2d40b95b09c48c	-0.00022318136827296044
181	0xbf25fc753706571a	-0.0001677411160129698
182	0xbf1d320660e6da50	-0.00011137165004169417
183	0xbf10307aec765623	-6.175756708722744e-05
184	0xbef88ffc00bbde8c	-2.3424567230782972e-05
185	0x3ec59e6d7a9ab480	2.5771687049620817e-06
186	0x3ef2a23d877d0aef	1.7770530092118866e-05
187	0x3efa186954e0c634	2.4886471969581654e-05
188	0x3efc0468b422a5e5	2.67193056592614e-05
189	0x3efabe76a99a4078	2.5505064150055785e-05
190	0x3ef7e0be2ac4703e	2.2771741599134298e-05
191	0x3ef465fbc82e3f18	1.9453404557944522e-05
192	0x3ef0dbec65d704da	1.6078067678786157e-05
193	0x3eeb1c19ea6356fd	1.2926945896312136e-05
194	0x3ee543078a60248f	1.0138432411837296e-05
195	0x3ee04a100bcba750	7.767347022863809e-06
196	0x3ed866ae2bbb0d60	5.817674430810951e-06
197	0x3ed1e06b52dbe7de	4.2621225426700954e-06
198	0x3ec9a1663c4ed9b3	3.0553896714594183e-06
199	0x3ec1fbf235a66718	2.143879482119435e-06
200	0x3e9d27b435384eea	4.344447479276018e-07
201	0x3e9c5e8cdc60aec6	4.2273606160285023e-07
202	0x3e83d712ba55eac0	1.4782048400246473e-07
203	0xbea7aecb0a6ec694	-7.05802013159338e-07
204	0xbec65e5d7b3a38aa	-2.6665465727221767e-06
205	0xbedb67b0e55a7ba4	-6.533871404506174e-06
206	0xbeec1cd47a04f0ae	-1.3405140464877192e-05
207	0xbef9da4a89e54e86	-2.4655055875412553e-05
208	0xbf05f458a5485bb6	-4.187484288225385e-05
209	0xbf1182e507f25ad9	-6.680033583204448e-05
210	0xbf1a89edd9ed143a	-0.00010123743275609965
211	0xbf23410b30121e76	-0.00014689694947754892
212	0xbf2adbfb26b28296	-0.0002049202042586808
213	0xbf320385e0f6fb6d	-0.00027486818813920213
214	0xbf37267e2a101f6e	-0.0003532464998561223
215	0xbf3c539fa3776bcc	-0.0004322304480106037
216	0xbf406025b442a124	-0.0004997428991560288
217	0xbf41c111fe13a4d9	-0.0005418145994130721
218	0xbf41ec5f30124b88	-0.0005469765457227641
219	0xbf40bdb959fa510e	-0.0005108981167319131
220	0xbf3cc1b2628c7e94	-0.0004387913236758381
221	0xbf368c08e1d4e976	-0.00034404007768142704
222	0xbf2fee32975df5cc	-0.00024361007279686956
223	0xbf23ff83c9ade300	-0.00015257343042287402
224	0xbf150d34de3e7db2	-8.030543500447162e-05
225	0xbeff0a17bcbeba72	-2.9601502134541558e-05
226	0x3ebd87943aa09920	1.7601016488816033e-06
227	0x3ef35c36e948a389	1.8463337783245228e-05
228	0x3efab162fd91af28	2.5456349110816002e-05
229	0x3efc07ae01bdfc24	2.6731490023742516e-05
230	0x3efa39765eadc642	2.5009596281438827e-05
231	0x3ef700e766a01388	2.1937876603334304e-05
232	0x3ef354f52038bf16	1.8436303447610143e-05
233	0x3eef7165a64ab0c8	1.4993170404175088e-05
234	0x3ee8dd5414da2b91	1.1856348147950577e-05
235	0x3ee32aa495a7f44c	9.139334612657178e-06
236	0x3edcd7e8acfa8e70	6.876801037645008e-06
237	0x3ed5342f661912d0	5.05539137091579e-06
238	0x3ece7a73eb9a1e64	3.633300221409472e-06
239	0x3ec56cfac3173e9f	2.554142633150031e-06
240	0x3e953501882085ab	3.160097393779889e-07
241	0x3e8e5db49f6c156a	2.2624460856866058e-07
242	0xbe869279175d7578	-1.6817569886254876e-07
243	0xbeb41b8dc834787b	-1.198508272910329e-06
244	0xbecca66f716f30e3	-3.415362594938214e-06
245	0xbee00fb6cb7b9698	-7.658664216102313e-06
246	0xbeefb41ef815eb7d	-1.5117453360904407e-05
247	0xbefcb680d36f9b7c	-2.738275835758749e-05
248	0xbf0863dd42b07194	-4.6520414194814414e-05
249	0xbf13b5ffd834f307	-7.51912503362367e-05
250	0xbf1e9c0724ef85c0	-0.00011676591496680763
251	0xbf26f672a9e625bd	-0.00017519139960268755
252	0xbf30a82031093747	-0.0002541617005008445
253	0xbf37471d7ff8abdc	-0.00035519094669450384
254	0xbf3f1d34419fcb56	-0.00047476316251431527
255	0xbf43b7fef690c2dd	-0.0006017680108297525
