src/kernel/kernel5spatial.npy (npy, 55616 bytes, 1 tensors)

array f8 [17, 17, 24]
00000000: a64a 4c49 abbc bb3e 80a9 c7a2 8a77 d73e
00000010: c1b2 a45d 9c5b f03e 6e31 629e 55c4 023f
00000020: 507d abfc fdaf 113f ba22 3062 f24c 1b3f
00000030: d775 ad8c 2e21 213f 1e2e bdcb e328 213f
00000040: 723a 356e 86f5 193f 0766 7752 5c1e 073f
00000050: e8dc 5a18 c471 f1be 7002 07b2 52e6 11bf
00000060: 866f 4e41 831b 1bbf 73d9 900b f8a4 1fbf
00000070: 2857 75bf 46fd 1fbf 253b 6596 b507 1dbf
00000080: 104a 9bba e4f0 17bf c055 306d c003 12bf
00000090: e800 dc74 20c4 08bf 5c1c bd18 2b1d ffbe
000000a0: ac8b ccc9 9cdc f1be fec6 2ab8 29be e2be
000000b0: 4286 8ede 7df9 d1be 814d 2d93 2382 bfbe
000000c0: 3618 b570 e8c9 c03e daf9 2800 bee3 dc3e
000000d0: 4447 71dd 7257 f43e b451 2d53 b56b 073f
000000e0: 1933 adb4 daff 153f bef1 d015 34c7 203f
000000f0: f52b 896e 6f8b 243f cf9a d81d 6695 233f
00000100: 7e86 1085 be24 1a3f 6cfa 39bb 6acf f53e
00000110: f37d 865e cfeb 10bf 731c 90f9 cff8 21bf
00000120: 9b34 80e5 3080 28bf bccd 34fa 78ae 2bbf
00000130: 6af4 080d a1ac 2bbf d470 1fcb df05 29bf
00000140: 44fb 3d39 089d 24bf 053b bc6c 0e03 1fbf
00000150: 2eb3 2df5 c750 15bf 478a 3708 49c7 0abf
00000160: 803d 8020 e1be febe f5a8 59c0 8e21 f0be
00000170: a8fd f714 95f0 debe 271e e31c 271e cbbe
00000180: eb4b c9be 3904 bf3e f292 4316 5da7 db3e
00000190: e893 60b7 d0df f33e 05ab b629 b90b 073f
000001a0: 77ee 29ff ad80 153f 9147 4aa0 1902 203f
000001b0: 6cce 2e18 9997 223f 92c8 38a9 1666 1f3f
000001c0: d791 012c 4211 0b3f 7f66 5ac3 8642 08bf
000001d0: a606 8a84 dd83 23bf 0ea2 6824 92f2 2ebf
000001e0: 5f3b 4f64 1273 33bf 6546 850d fd5a 35bf
000001f0: ccbe c71f 9122 35bf 86ac bd02 c30b 33bf
00000200: 51ee 3622 d758 2fbf f8f2 bcd9 c392 27bf
00000210: 4956 c094 9733 20bf 59be 5b6f 7a5a 14bf
00000220: ea6a 9055 605e 07bf 0ea0 f0c5 7485 f8be
00000230: 00c6 a612 2684 e7be 6852 6bc8 7a9c d4be
00000240: 14c0 d231 67d6 aa3e e085 3b0f 866b cc3e
00000250: 5e19 9fd4 e23a e63e 3ed9 efd6 557e fa3e
00000260: aafd 66c9 db16 083f b234 2cc0 c937 103f
00000270: 20f2 7560 0898 0c3f 80e6 e2c9 99e0 e33e
00000280: e486 07a8 25ca 12bf 43a2 3770 cf8c 26bf
00000290: 20ae 2aa4 4dcd 31bf a195 9273 cf58 37bf
000002a0: d8d7 1434 d74b 3bbf c3eb 1794 8922 3dbf
000002b0: 02cd 5b24 1f89 3cbf f821 cc3c f99f 39bf
000002c0: 3b6c da03 9610 35bf b3c4 883d 1cac 2fbf
000002d0: d20a 5ef7 22c4 25bf a20c 536b f557 1bbf
000002e0: b3b0 f2f5 ec64 0fbf 8eb8 9f75 ab78 00bf
000002f0: af8a aacb a997 efbe 8121 7609 98b0 dbbe
00000300: 668e 75a4 b7ec b7be 80cd c71f 040c cfbe
00000310: ec1b 962a 56a5 e1be 0400 219b 449c f2be
00000320: dc23 41b7 63fe 02bf c202 beae ba93 12bf
00000330: b88a 22a9 cea7 20bf f8c7 f3e7 7775 2abf
00000340: dae7 8b40 338a 32bf 8335 27c3 bb6b 37bf
00000350: eaa3 d381 2796 3bbf 2830 4e7d b21e 3fbf
00000360: f437 d8b9 99e8 40bf 7f61 9757 097c 41bf
00000370: e7b6 2790 05eb 40bf b7fc ada8 2e42 3ebf
00000380: ef1c aa8c 84d7 38bf f351 75cd 40ab 32bf
00000390: 039b 644b 49a8 29bf a057 b600 981d 20bf
000003a0: 6427 28c4 bb80 12bf 5c0b 9930 5d6a 03bf
000003b0: 9de0 0ebc a19e f2be e8a0 4f38 cf51 e0be
000003c0: 12f3 293f 0f1b d4be f4a9 04d1 a1ac eebe
000003d0: a24e d633 f7f6 03bf a475 6848 4d53 16bf
000003e0: 4071 b62f 8d8e 25bf 070f 460e ba06 32bf
000003f0: 0cac 1fd0 cc2a 3abf b293 3b0b b592 40bf
00000400: ee3f 656b ab96 42bf a4e3 286e c808 43bf
00000410: 98fa bb46 77a7 42bf 28cc 646c 0d53 42bf
00000420: 40f4 b60b 104f 42bf 3b81 8c25 ec2c 42bf
00000430: 7ca3 9f2e b34c 41bf 67b5 02d8 81c3 3ebf
00000440: 9bd2 33e4 2536 39bf ee76 fbb6 eeef 32bf
00000450: 27dd de8c d105 2abf 4d71 d97c 3758 20bf
00000460: 6edf ec85 02c4 12bf 0070 dad3 f3b0 03bf
00000470: 9cc2 3365 53e2 f2be c6e7 9d1b 248d e0be
00000480: 3a4a 7dda 6e84 e2be ffc2 fdd3 7440 fdbe
00000490: fa8a 8b59 4282 13bf 0ea0 2893 7f05 26bf
000004a0: cb20 5569 5313 35bf 3296 900c 2021 41bf
000004b0: ee3c fcc2 7bb3 47bf 242f 0ce6 070e 4cbf
000004c0: e2d4 a6f3 ebbf 4cbf 0b41 5900 cf2e 4abf
000004d0: cbc7 f4ca 4f42 46bf 66af eddb 08ea 42bf
000004e0: 15a5 5b0e 1fe6 40bf 5bf7 2261 c97f 3fbf
000004f0: d316 4ffd ab2b 3dbf c134 915c b2ae 39bf
00000500: 3201 f517 70fb 34bf 5140 d686 4b7e 2fbf
00000510: 0a51 4470 30a2 25bf 37b3 fc6c 972c 1bbf
00000520: 4531 bd39 f532 0fbf 9461 af85 6f5e 00bf
00000530: 1598 cdea 5665 efbe a978 bd5b 7c84 dbbe
00000540: 03ee 0566 469b eabe c188 9c7d da5d 05bf
00000550: 037e 1bca 9cd1 1cbf d9c3 6c68 5a55 30bf
00000560: 74d7 e0cb eb23 3fbf 6a37 ecff 8cfb 48bf
00000570: 2d23 4b5e 2ae3 50bf 3319 3c4c 6e49 53bf
00000580: 1f83 c320 f0b9 52bf 0e59 ad9c 8862 4fbf
00000590: 1b91 c950 9a7b 47bf 31a9 bb55 0dc1 40bf
000005a0: 7a48 2fb6 20ed 38bf b603 78c8 a15a 34bf
000005b0: 4be1 0746 98a3 31bf fe11 3dce 5347 2ebf
000005c0: 6cd3 e644 1189 28bf 45ce 790f d95e 22bf
000005d0: b8a5 3332 2639 19bf 0538 3d8d c7ad 0fbf
000005e0: 8ab0 471d 562f 02bf 6f38 b54d e814 f3be
000005f0: 147b 3e9e ab4c e2be c711 91bf f809 d0be
00000600: 173e 0814 de28 f0be c335 af58 b13b 0abf
00000610: 8a37 4979 d6d0 21bf c7e6 8094 493f 34bf
00000620: a485 1f92 f340 43bf 42a0 776e faa3 4ebf
00000630: fb91 8615 f266 54bf bc9a f102 24bd 56bf
00000640: 958f 00f6 8c37 55bf 5dc8 ba8b 6996 50bf
00000650: 67ef 48fd 94c7 45bf 93db 4e2e 2929 38bf
00000660: 00c1 a767 190b 27bf ee57 7f62 64d7 13bf
00000670: 1776 feba d44d 01bf c32e 158e 3aec f1be
00000680: 5404 5328 08cd e6be c629 63b5 fd78 dfbe
00000690: fff0 de10 ac22 d5be 4892 e969 1e68 cabe
000006a0: ed1c 57b5 8348 bebe 9089 5c57 0ec5 afbe
000006b0: fc25 19c9 5f77 9ebe b04b e05c dfb3 8abe
000006c0: 93e8 1a59 1019 f1be 3911 161d b0fc 0bbf
000006d0: c1db a1b1 d51b 23bf 8529 75d5 66c2 35bf
000006e0: e02c cb1f 3ea7 44bf c676 1896 d354 50bf
000006f0: d0d5 d7bf a97e 55bf 1d59 9ebb 2f7d 57bf
00000700: 01e5 5d86 df2e 55bf d61a c999 ed01 4fbf
00000710: 3f71 c6d5 c876 41bf 0d8b b44d ebc1 27bf
00000720: c869 3359 259c 0a3f 84b2 a5c4 2e34 263f
00000730: 4ec7 3a40 8c4b 2b3f c0a8 7efd 0b34 2a3f
00000740: 62b6 b8bf 12f8 253f 9fe1 1053 389b 203f
00000750: 0819 6f16 42db 163f 3a6f 3abb fbb8 0c3f
00000760: ba52 cc0f 6a7d 003f b47d 7be2 b04d f13e
00000770: a49a c29f 2198 e03e 9d80 94cd b816 cd3e
00000780: 5951 13ba a4e6 efbe f9f1 8e9d 4f4d 0abf
00000790: ae8b 9f0c f20a 22bf 8413 fd04 b294 34bf
000007a0: 1cf9 9314 c680 43bf 9146 a4cb 99ac 4ebf
000007b0: 584c a0e6 adf9 53bf a4f5 76e0 7b6f 55bf
000007c0: 3b60 66c8 b4b3 52bf 6043 c7ba fc7f 49bf
000007d0: 9cd0 a52d 053e 37bf 80d7 a11e bde3 d73e
000007e0: 840c 3845 6317 303f 0611 4107 f40a 383f
000007f0: 0a3e 9559 2912 3a3f 0cbe 2d4c 602e 383f
1.6532533539433347e-06 5.5949590600324955e-06 1.5600065901443973e-05 3.579508101933774e-05 6.747234071323893e-05 0.00010414342300192172 0.00013068860274760452 0.0001309183188545762
9.902604101806061e-05 4.409522290034153e-05 -1.663627474243488e-05 -6.82819340971448e-05 -0.0001034067975766423 -0.0001207138437998351 -0.00012202972708527367 -0.00011074109861406981
-9.132762957201495e-05 -6.872045496238762e-05 -4.723762559244606e-05 -2.9672564365837046e-05 -1.7034308814288933e-05 -8.937274974616084e-06 -4.285473075878146e-06 -1.8780443269042872e-06
2.0013693579372264e-06 6.887821657529435e-06 1.9399258089975642e-05 4.4671507928004296e-05 8.392116903372902e-05 0.00012800703817274038 0.00015674338580348694 0.0001494109300647834
9.972966042017838e-05 2.079984888192015e-05 -6.454899960894166e-05 -0.00013711489444309977 -0.00018692585831595475 -0.00021119334005846406 -0.0002111384005888701 -0.00019090992787951808
-0.00015726781259314305 -0.00011830115834874859 -8.131237454529476e-05 -5.1075855505695665e-05 -2.9321310677286102e-05 -1.538380094815661e-05 -7.376617147780198e-06 -3.232691802332815e-06
1.8487278296188758e-06 6.5931711541219465e-06 1.895358897043348e-05 4.395636389216941e-05 8.202611915380542e-05 0.0001221329004193442 0.0001418470747843627 0.00011977685272127257
5.162699881181329e-05 -4.627202762925736e-05 -0.00014888838838449553 -0.00023611101114907922 -0.0002967758085192142 -0.00032585790679204855 -0.0003224949175821667 -0.00029061804774838833
-0.00023915887969204683 -0.00017985001329092593 -0.0001236078772996355 -7.764217647454034e-05 -4.4572176826037705e-05 -2.338534647719497e-05 -1.1213400814866041e-05 -4.914104585214235e-06
7.998201884320426e-07 3.3879297179773823e-06 1.0600101308610898e-05 2.5266167934711837e-05 4.594667659629387e-05 6.186646355051359e-05 5.4538493766440954e-05 9.478257478756679e-06
-7.167677723132374e-05 -0.00017204315382392436 -0.00027163644350977796 -0.00035624565823363415 -0.0004165077590018141 -0.000444563473223244 -0.00043541918090213305 -0.00039100489520696403
-0.000321423172729932 -0.00024164051753098256 -0.0001660626109548287 -0.00010430751247540946 -5.987976214191903e-05 -3.141663792392931e-05 -1.5064446747208497e-05 -6.601767516108463e-06
-1.426021883543186e-06 -3.701083413293414e-06 -8.414195081808303e-06 -1.7748281330165496e-05 -3.622762497507818e-05 -7.08658878334585e-05 -0.00012707135880870245 -0.00020186508843483809
-0.00028289557717153596 -0.0003573735622495954 -0.000420937199875625 -0.0004748521580999498 -0.0005160093894021043 -0.0005335851303085863 -0.0005162980235675325 -0.00046170844205302035
-0.0003790567977052924 -0.0002848656854060043 -0.0001957501860456388 -0.00012295227530206582 -7.05828288475575e-05 -3.703209774787747e-05 -1.775708711068744e-05 -7.781776512020115e-06
-4.793572758840486e-06 -1.4626667081592424e-05 -3.8079661389603796e-05 -8.516463467641303e-05 -0.0001644656511928886 -0.0002750591504751963 -0.0003992795974442915 -0.0005057701113996198
-0.0005672776231140356 -0.0005808809913282376 -0.0005692798999630986 -0.0005592170280465146 -0.0005587414120139592 -0.0005546715793549936 -0.0005279421723091006 -0.000469416809219711
-0.0003846971996630894 -0.0002889592933409253 -0.0001985376642872152 -0.0001246993764877448 -7.158532524165009e-05 -3.7558022524225576e-05 -1.8009266864407224e-05 -7.892290216682847e-06
-8.82974457253493e-06 -2.78966738273571e-05 -7.442026106789157e-05 -0.00016801054296533595 -0.00032158647930603514 -0.0005227476586965928 -0.0007233003907191318 -0.0008561647956368585
-0.0008773710354065512 -0.000799037051089997 -0.000679291688277178 -0.0005772155053427152 -0.0005157138482136137 -0.0004806391381285601 -0.0004451079269610473 -0.0003918824627973765
-0.00032016264590952186 -0.0002402751155554683 -0.00016505090037156222 -0.00010366129140200192 -5.950747364966367e-05 -3.122117842452584e-05 -1.4970711470229555e-05 -6.560688628669061e-06
-1.2686988328117736e-05 -4.0753584199985846e-05 -0.00010993499247601711 -0.00024922806953769705 -0.00047516352413211967 -0.000762409064778186 -0.0010307229760419632 -0.0011771752478480612
-0.001142963886245414 -0.0009577910471801081 -0.0007166388982793622 -0.000511294852427546 -0.0003803448545883836 -0.0003105778673387309 -0.00026915042511134875 -0.0002310075570851749
-0.00018719039731043428 -0.00014015578902936053 -9.621902113434485e-05 -6.042256577974695e-05 -3.468495893685457e-05 -1.8197698279203244e-05 -8.725878565316677e-06 -3.8239841098669204e-06
-1.5411032338317762e-05 -5.003581016858494e-05 -0.00013592355812125048 -0.00030894800557100223 -0.0005875768003954962 -0.0009350750742074326 -0.0012452472784413293 -0.0013878680872722446
-0.001294982583211789 -0.0010124235840689646 -0.0006646611678386816 -0.000368664316109096 -0.00017580685728502826 -7.568884086536751e-05 -3.300481273458779e-05 -1.709248397689548e-05
-1.0872319089807115e-05 -7.503657647409855e-06 -5.039081100773967e-06 -3.1479256244352053e-06 -1.805022937660841e-06 -9.468123340665252e-07 -4.5398332657441273e-07 -1.9895007458188503e-07
-1.6305833532050616e-05 -5.338108497724082e-05 -0.00014578803603956632 -0.00033202181426319365 -0.0006302884426871123 -0.00099678671575225 -0.0013119371136530618 -0.001433655370851001
-0.001292913709646293 -0.0009462747726239572 -0.0005329590454042145 -0.00018125531537645963 5.0754442008932624e-05 0.00016940184498128255 0.00020824515387612503 0.00019991537442127193
0.00016761044376905054 0.00012669622950213248 8.719054095171843e-05 5.47839948954174e-05 3.1451987501684165e-05 1.650188474300119e-05 7.912761241191564e-06 3.4676501000780567e-06
-1.5211558834251378e-05 -5.016707627400816e-05 -0.00013765530303463724 -0.0003140387170684144 -0.000595185011803587 -0.0009361029581517901 -0.0012191961527647979 -0.0013083181128047206
-0.001141478105273221 -0.0007781967192902299 -0.00035464884208314686 5.695725557077857e-06 0.0002455346450178158 0.000366863801222431 0.0003978110267625906 0.0003689751721855656
