src/kernel/kernel3.npy (npy, 92608 bytes, 1 tensors)

array f8 [17, 17, 40]
000000 a4 ed e1 12 44 65 62 be 59 cc 07 4d a9 cb 64 be
       -3.426441917781324e-08 -3.873473420129135e-08
000010 74 31 fd 8a d2 15 60 be 81 20 01 a8 aa de 45 3e
       -2.9961101487456326e-08 1.0183915266759386e-08
000020 82 67 79 a9 eb 27 7e 3e a3 14 69 f6 db a2 95 3e
       1.1233962948203572e-07 3.224040398301674e-07
000030 11 20 0a f3 5e 85 a7 3e f5 89 06 90 8a 19 b6 3e
       7.009798306959279e-07 1.3172489731003003e-06
000040 18 3c 3b e7 a4 c2 c2 3e 4e e3 e0 5a a1 61 cd 3e
       2.2364054589117594e-06 3.5025320448658334e-06
000050 54 64 05 c7 2a 7b d5 3e 66 b9 e1 a2 9d 90 dd 3e
       5.1214984611798135e-06 7.0488227220513296e-06
000060 3d 50 7a 9c d6 42 e3 3e 8c bb 08 74 3d d9 e7 3e
       9.184402088004243e-06 1.1371895767357266e-05
000070 7c 81 c5 88 45 1a ec 3e 25 df b4 43 be 7b ef 3e
       1.3400375131922915e-05 1.5012441613934297e-05
000080 24 38 e8 7c 85 b4 f0 3e 22 a0 7f 40 d8 b0 f0 3e
       1.59312838210955e-05 1.591758703503599e-05
000090 77 61 9f b5 01 24 ef 3e 12 99 65 9d 5c d2 ea 3e
       1.4849019567651025e-05 1.2789595456208273e-05
0000a0 14 42 11 b1 ea fb e4 3e fc 6a 62 29 aa f9 dc 3e
       1.0005974703159794e-05 6.9082385804285444e-06
0000b0 8e 71 13 d3 74 80 d0 3e 22 b6 25 81 46 ff b7 3e
       3.934331560287084e-06 1.4303427674182614e-06
0000c0 c8 b1 43 4c 83 46 9c be bf ae f4 b5 7e ed ba be
       -4.213369033795824e-07 -1.6050168694753758e-06
0000d0 4c 59 48 09 0c a4 c2 be 28 47 a8 d2 df 56 c4 be
       -2.2221575568623035e-06 -2.424639793171478e-06
0000e0 c0 91 50 f4 9b ce c3 be f9 8f c8 a5 cb 07 c2 be
       -2.361186405968311e-06 -2.149397273736375e-06
0000f0 7e 59 65 7b 5f 5f bf be 78 73 29 67 58 63 ba be
       -1.8699497395711859e-06 -1.5728513999204032e-06
000100 6a b6 a2 6c fb 96 b5 be 05 33 33 6d 5a 3c b1 be
       -1.2868508059525962e-06 -1.0273310422803563e-06
000110 ec d9 d6 45 27 e5 aa be df b3 3f 8a 4e 86 a4 be
       -8.015373499845828e-07 -6.116818167513542e-07
000120 3d 73 79 04 98 a7 9e be d1 06 bb 9a 7a 68 96 be
       -4.5679007996072465e-07 -3.339070200164087e-07
000130 e6 76 ac 0d 7e 09 90 be a4 1e bb ee 62 7a 86 be
       -2.3897110927756526e-07 -1.674746877759753e-07
000140 77 c9 c9 0f 2f ea 77 be a3 a1 8f d4 97 1a 7c be
       -8.90895001744397e-08 -1.0469510870715573e-07
000150 57 f4 c8 09 f4 89 78 be c2 dc 99 ee 3e 82 3e be
       -9.141445151627588e-08 -7.103377200349047e-09
000160 05 cc 13 14 aa 7e 8d 3e 8c 0f 55 c6 1a 59 a7 3e
       2.1975325562687857e-07 6.95826554299594e-07
000170 b6 80 21 25 21 2a ba 3e da 3d 40 a5 58 d8 c8 3e
       1.5595297964341278e-06 2.9617670325233105e-06
000180 69 ad 5d 20 42 16 d5 3e 81 8b 29 5c 22 5d e0 3e
       5.027519824323111e-06 7.802870532097043e-06
000190 fe 27 aa 95 29 7e e7 3e 96 7e 25 7a 00 69 ef 3e
       1.1202250495462998e-05 1.4977533116577399e-05
0001a0 aa 23 9e 36 47 a3 f3 3e a0 cd 55 c0 2b 06 f7 3e
       1.8728070621007856e-05 2.1957497684477905e-05
0001b0 44 13 9b b7 c7 56 f9 3e de 02 9e 0b c1 28 fa 3e
       2.4165139143733695e-05 2.4947353018503193e-05
0001c0 76 83 18 7e d1 40 f9 3e 1c cb bb f5 e0 a2 f6 3e
       2.4083325007254412e-05 2.1587605586635616e-05
0001d0 88 e8 a5 6b 97 94 f2 3e 66 2a 7d b6 09 26 eb 3e
       1.7719684117769213e-05 1.294545445742097e-05
0001e0 c7 bb 8f e4 4e 77 e0 3e 57 41 ae c9 2f 66 c9 3e
       7.851623324809765e-06 3.0278166156043405e-06
0001f0 d8 a9 5c 04 e2 a5 b1 be d0 ca d6 92 ea 3c d1 be
       -1.0519015786839482e-06 -4.109848572952503e-06
000200 3c 8b 54 f4 a9 83 d9 be ba d9 70 cb 42 b4 dd be
       -6.0830860253737675e-06 -7.082019855045335e-06
000210 f3 17 40 3d 7b af de be 7f 8c ac b9 e0 70 dd be
       -7.3159871654179005e-06 -7.01926446814154e-06
000220 3f 55 84 ee 29 d8 da be 21 89 88 d5 40 91 d7 be
       -6.400201279418038e-06 -5.618904957790142e-06
000230 c1 fa 1b a0 36 13 d4 be e9 bf 53 f1 4d aa d0 be
       -4.786265437094456e-06 -3.973305657142803e-06
000240 ca 0c 31 d7 1b 08 cb be fd 16 50 7d 25 72 c5 be
       -3.222426749911743e-06 -2.556548660328778e-06
000250 02 79 ce b2 aa a7 c0 be 19 21 49 8e ab 54 b9 be
       -1.985424566488333e-06 -1.509829922545909e-06
000260 2c 55 d4 fa a8 dd b2 be b4 e2 62 66 8b 86 ab be
       -1.1244928644395622e-06 -8.203257493489099e-07
000270 ef eb 08 39 74 ab a3 be c7 9d ad 23 fa 89 9b be
       -5.862039974055656e-07 -4.1036267688648986e-07
000280 f5 59 5e 56 73 00 8a be 22 35 8f a2 c9 87 8f be
       -1.9372820786170314e-07 -2.3491993886155726e-07
000290 19 a0 a2 90 3f fc 8d be 54 13 21 56 8f 92 74 be
       -2.2340822908762066e-07 -7.663853332600138e-08
0002a0 5a 11 34 30 24 39 97 3e 2c 8c 63 eb ef 07 b5 3e
       3.4605277239609024e-07 1.2535455602917182e-06
0002b0 91 bf f8 29 4b 6d c8 3e 6f 39 7b 60 37 79 d7 3e
       2.9119167519672336e-06 5.596518810781179e-06
0002c0 9e 19 64 57 32 eb e3 3e be 0c 9c 7e d7 99 ee 3e
       9.49799389761142e-06 1.459166738327353e-05
0002d0 36 7a 03 0f 01 81 f5 3e f2 83 04 22 37 c0 fb 3e
       2.0507738498371483e-05 2.646526456928986e-05
0002e0 63 e3 38 4d 03 6e 00 3f 2b 95 13 6b 5e c3 01 3f
       3.1337238081302945e-05 3.3880537907463676e-05
0002f0 39 54 07 ed b9 59 01 3f de 5b 22 46 79 f8 fd 3e
       3.3093439586608484e-05 2.8582191938210956e-05
000300 48 77 52 c4 f0 c8 f5 3e ce 74 46 50 a2 c9 e6 3e
       2.0775722323499655e-05 1.0865990142156642e-05
000310 c0 95 78 3a d4 84 9f 3e 4d 6c c9 f8 b7 91 e2 be
       4.696676634017605e-07 -8.854490965484524e-06
000320 5e c3 1c ce aa cd f0 be 22 bb 81 9b 4b a1 f5 be
       -1.6024959115404503e-05 -2.0628032615761735e-05
000330 51 da 3d 80 1b f4 f7 be f4 4a 82 34 56 54 f8 be
       -2.2843880301571317e-05 -2.320236242831903e-05
000340 bf 39 18 4e 6b 66 f7 be 56 52 51 4b c2 b4 f5 be
       -2.231605038188213e-05 -2.070054025112214e-05
000350 74 77 5d ea e8 9e f3 be 88 14 66 fd 0e 5f f1 be
       -1.8711797245322484e-05 -1.656658408812466e-05
000360 3a 02 65 44 2f 2f ee be e1 1c eb 0f 72 bd e9 be
       -1.4393002982005931e-05 -1.22737987998792e-05
000370 b8 0e 8a 89 a1 89 e5 be 40 b6 3c 63 f0 ac e1 be
       -1.0269938045987803e-05 -8.428355705437864e-06
000380 5b 8b 26 27 74 72 dc be 65 b2 98 d1 17 71 d6 be
       -6.782313550254513e-06 -5.350534843223501e-06
000390 88 b3 82 34 cb 5a d1 be 85 11 0a e1 42 4f ca be
       -4.13767413235962e-06 -3.1363504223188686e-06
0003a0 8c 18 99 7d df 8b c3 be 6f 6d d4 65 fb 76 bc be
       -2.3301099474652944e-06 -1.696632714604344e-06
0003b0 37 02 c2 40 ea 4f b4 be 80 cf 35 9c a1 68 ac be
       -1.2106995681827694e-06 -8.466457121340153e-07
0003c0 ed a9 ca a9 ac d0 97 be c0 c0 a8 d1 7c ba 9d be
       -3.548731600059577e-07 -4.42988680102011e-07
0003d0 73 49 80 66 bf 58 9e be a2 14 54 22 de 95 90 be
       -4.522006293871079e-07 -2.47142028023397e-07
0003e0 02 dc 3d 80 d5 1b 9b 3e 94 d7 53 b6 86 ed be 3e
       4.039515035728754e-07 1.8434427258551559e-06
0003f0 e6 e4 b4 58 83 dd d2 3e f8 53 bb e4 69 69 e2 3e
       4.497834548638731e-06 8.779417064822326e-06
000400 91 b9 7c f3 27 3d ef 3e e5 9a 9b 10 60 ae f7 3e
       1.489586394106955e-05 2.258410771718401e-05
000410 74 5f 4c cd 1b 2c 00 3f 5c 9a cb 06 87 d5 03 3f
       3.084621281440508e-05 3.783052748023284e-05
000420 a6 57 30 9f 76 82 05 3f 82 e1 57 b7 ef da 03 3f
       4.102634911633202e-05 3.787082725276431e-05
000430 32 42 10 11 12 fa fb 3e f0 9e f9 91 3a ca df 3e
       2.668079202200659e-05 7.57931618942225e-06
000440 1c 9e e7 19 04 e4 f1 be ae 3b 1a e1 12 90 06 bf
       -1.7061889247131393e-05 -4.303510298796859e-05
000450 f2 88 6c 13 82 2e 11 bf 0c 5c e2 63 ea 2c 15 bf
       -6.554287834295897e-05 -8.077793697434959e-05
000460 b3 1e 4a 9e 0d d5 16 bf 2f 5d 8c a1 bd 59 16 bf
       -8.709807986850386e-05 -8.526058116974511e-05
000470 12 f5 23 5d e9 5e 14 bf 84 db e1 67 6e aa 11 bf
       -7.770823802740284e-05 -6.73894773813699e-05
000480 fd af 2d c5 b0 be 0d bf 40 9f d7 cf 95 ba 08 bf
       -5.673386535573475e-05 -4.716653527819673e-05
000490 97 53 c6 6c d3 88 04 bf 60 11 1a 7d 2c 1a 01 bf
       -3.9166404891911154e-05 -3.261993664430379e-05
0004a0 ab e2 e2 f7 10 84 fc be a8 a7 71 12 33 ad f7 be
       -2.719486610011877e-05 -2.2579727695072306e-05
0004b0 73 8d f3 08 5a 79 f3 be 76 d8 04 c4 82 9a ef be
       -1.8571882319030072e-05 -1.5069750702961299e-05
0004c0 87 e4 5b bf 53 3b e9 be 01 51 b9 c5 6b ca e3 be
       -1.2031434362113367e-05 -9.43694447311976e-06
0004d0 6f fa a5 de ba 79 de be 87 4b 4a c6 d0 05 d7 be
       -7.265927232656858e-06 -5.489043449674326e-06
0004e0 ff bc a1 7c 63 0f d1 be 00 60 e1 c3 82 cb c8 be
       -4.067447614371959e-06 -2.9557900509784296e-06
0004f0 2a 1e dc b7 c5 aa c1 be e5 0d 10 e4 97 ae b8 be
       -2.106079988520799e-06 -1.4711621505466326e-06
000500 5f c6 65 50 78 5c a2 be 6e d7 f4 07 f2 9f a7 be
       -5.472067250834523e-07 -7.040735140798166e-07
000510 a1 bd 30 2e 92 c9 a9 be 98 70 5b 83 3a ba a2 be
       -7.685240145434476e-07 -5.581216615219141e-07
000520 a4 ed d6 ba d0 35 90 3e 02 a4 61 a6 c1 8b c1 3e
       2.415510448013368e-07 2.0916370884649553e-06
000530 c1 c2 bb a0 fb 45 d7 3e e9 06 93 83 26 45 e7 3e
       5.548803993824556e-06 1.109605737992536e-05
000540 6e bd 55 ac a8 bb f3 3e 00 35 52 6c df 4e fd 3e
       1.8818895815395633e-05 2.795037905350007e-05
000550 28 07 09 72 3b 18 03 3f d8 1d fd 83 44 53 05 3f
       3.6420168048069336e-05 4.067471354446032e-05
000560 0f 5b de 6a 9a ed 02 3f b8 d1 99 a5 7b 2a f3 3e
       3.610255713153685e-05 1.8278073503146078e-05
000570 00 fa 04 13 86 c1 ef be 07 c1 17 26 ee 66 10 bf
       -1.5142417936983739e-05 -6.256893677636733e-05
000580 cf e2 a0 93 ab db 1e bf ce 76 76 8e db 60 26 bf
       -0.00011771425934704458 -0.00017073326237675715
000590 e2 fc c9 0f 26 ae 2b bf 0f 9f 98 c7 bf 5b 2e bf
       -0.00021118368740145112 -0.00023161617336708197
0005a0 b5 cd 8d 4d 8d 27 2e bf 7c a1 24 8c 0b 8d 2b bf
       -0.00023006057633843743 -0.00021019712409865363
0005b0 7c ce 75 9f 2e 80 27 bf 04 7c 5c c6 91 07 23 bf
       -0.00017929619910327435 -0.0001451840827763896
0005c0 fe 29 1c 9f 54 d3 1d bf 04 5b 95 87 e7 15 17 bf
       -0.00011377529133597267 -8.806443829221736e-05
0005d0 b4 5d 41 7b 26 f5 11 bf b1 31 2e 70 fd 58 0c bf
       -6.850287792425116e-05 -5.406878883382498e-05
0005e0 ce 24 30 6e ed b4 06 bf 49 a0 77 29 97 56 02 bf
       -4.330968456407181e-05 -3.497742471464443e-05
0005f0 11 ce 13 6b 29 9c fd be f3 de 1a c8 42 b9 f7 be
       -2.823830317750907e-05 -2.2624659783614586e-05
000600 9e c1 63 88 5c c5 f2 be b9 b8 52 53 0c 40 ed be
       -1.7901366413165824e-05 -1.3947576557118599e-05
000610 0c 31 37 84 ef 67 e6 be 7d c1 f4 7e 03 dc e0 be
       -1.068401264250247e-05 -8.039201900262395e-06
000620 e9 34 9f 6b bf e8 d8 be 2f e9 07 e1 ff 0e d2 be
       -5.938809119099646e-06 -4.305503822350003e-06
000630 b5 94 80 c9 42 b0 c9 be 46 c1 f5 28 a0 eb c1 be
       -3.062310110396063e-06 -2.1362796542233324e-06
000640 eb 2f 85 c3 24 9e a7 be 86 c4 72 75 dd 7f af be
       -7.038637539840352e-07 -9.387574476852322e-07
000650 0d 6b f2 ef 6a 78 b2 be 22 09 ab 5c cf ba b0 be
       -1.1009205420966807e-06 -9.97169410752392e-07
000660 f8 b9 32 86 92 84 93 be d8 cd c1 c1 ca 43 b9 3e
       -2.908387896721988e-07 1.5059001788026449e-06
000670 b1 2c bf 97 c6 c2 d4 3e 24 a0 6a 81 cb da e5 3e
       4.94977063776184e-06 1.0421117662431983e-05
000680 e6 85 fd 0c 79 84 f2 3e a8 ea 4b fb 1d 54 fa 3e
       1.7659637534866555e-05 2.5108892901729935e-05
000690 06 6a ad 7c 64 b0 fe 3e c4 df 7b ee 99 a6 f9 3e
       2.926734286332925e-05 2.446249609897013e-05
0006a0 60 31 cd 2a fa 28 ce 3e c8 08 aa 4b 61 da 04 bf
       3.595360189489829e-06 -3.9774030899956926e-05
0006b0 26 c3 78 f5 6b 61 1c bf d6 e3 3e e8 f7 e6 29 bf
       -0.00010826322010682991 -0.00019761825762801163
0006c0 f1 e0 4a 92 65 5f 33 bf b8 24 72 47 ca 2e 39 bf
       -0.0002956030823884201 -0.0003842586369918288
0006d0 e9 09 ff e0 bc 2f 3d bf 0b 0c 0c 8c b3 97 3e bf
       -0.000445350277910843 -0.00046680577729335597
0006e0 1d 8d fa 64 0a 4b 3d bf 51 9a da dd ab db 39 bf
       -0.00044697765131669777 -0.0003945631595833376
0006f0 cc 9f 97 63 37 43 35 bf ac c2 70 63 5f 81 30 bf
       -0.000324440977776505 -0.00025185183352775353
000700 99 c5 cd 70 51 9e 28 bf b5 28 19 69 97 04 22 bf
       -0.0001878237166255514 -0.00013746593735880987
000710 22 e1 29 27 b2 73 1a bf b3 42 63 ef 54 ca 13 bf
       -0.00010090613231195482 -7.549422648201846e-05
000720 7e c0 9e 90 5e 58 0e bf c1 a3 e6 85 73 b8 07 bf
       -5.787886227837188e-05 -4.524328754779801e-05
000730 e8 f2 da e4 9d b6 02 bf 4c 35 9b 4a 8d 80 fd be
       -3.569287637847867e-05 -2.8135448394907712e-05
000740 91 3a 69 e0 76 11 f7 be 41 6f 46 b1 1f d0 f1 be
       -2.1999569094705856e-05 -1.6987784947283166e-05
000750 af 8d 92 f9 c0 19 eb be 53 06 6b d4 df 47 e4 be
       -1.2922573477353422e-05 -9.67061954549039e-06
000760 c7 42 87 5c 19 d6 dd be b1 f2 d8 82 37 8f d5 be
       -7.1135340892903214e-06 -5.140171237591363e-06
000770 72 3a 01 24 7f 97 ce be fa 03 b2 9d 15 4d c5 be
       -3.6468248083906336e-06 -2.5392903189595954e-06
000780 ac 62 80 9a 96 c2 a8 be fc 64 c9 fa 56 5a b1 be
       -7.37908796291552e-07 -1.0343128266281708e-06
000790 92 88 99 e6 fe 37 b6 be e3 30 a4 2f 31 a2 b8 be
       -1.324339701368658e-06 -1.468274773377839e-06
0007a0 52 fe 54 4f bd 65 b4 be a0 f0 e7 05 fd d8 8c be
       -1.21578096685939e-06 -2.1493144948526295e-07
0007b0 0c 5e bb 87 55 7c bf 3e a0 e8 30 9a 90 5c d5 3e
       1.8766927771164312e-06 5.092997898132262e-06
0007c0 02 5f 66 18 4e 09 e2 3e 5c 46 77 ad 42 c5 e4 3e
       8.60040087217974e-06 9.904169401861434e-06
0007d0 38 36 8e 26 63 0b d1 3e 58 ca aa e2 d2 56 f1 be
       4.063721100856054e-06 -1.6535907131307682e-05
0007e0 5b 04 71 da aa 04 10 bf a2 0d db 9a 99 06 22 bf
       -6.11047058649712e-05 -0.00013752579746127447
0007f0 33 05 f5 ec c6 3f 30 bf 54 0a d8 cb a9 33 39 bf
       -0.0002479420335995297 -0.00038454909721977637
