src/kernel/kernel5.npy (npy, 169408 bytes, 1 tensors)

array f8 [23, 23, 40]
4.7321828424533944e-11 4.996180508691217e-11 2.938718073950062e-11 -4.3863740653793486e-11 -2.193370956402751e-10 -5.716610434915368e-10 -1.2015317050175978e-09 -2.2302039328896686e-09
-3.7872262008934274e-09 -5.994294773739099e-09 -8.94898748493075e-09 -1.2707418594183213e-08 -1.725589930839138e-08 -2.2458256622359143e-08 -2.798080950141018e-08 -3.3232383291918e-08
-3.7387973180659e-08 -3.955202081596714e-08 -3.904308251363969e-08 -3.5683847939236154e-08 -2.993720841573278e-08 -2.279243517817284e-08 -1.5444108480481802e-08 -8.922283270098656e-09
-3.8438105771325055e-09 -3.6452899099180696e-10 1.7040163315849774e-09 2.714112268692894e-09 3.029404470004779e-09 2.941557521475517e-09 2.6497301517715725e-09 2.275339878658701e-09
1.8867934525966772e-09 1.5204892831845205e-09 1.1944950305823527e-09 9.162812813183975e-10 6.86932327606711e-10 5.036128926073779e-10 3.6121448140753016e-10 2.535513748085329e-10
1.0450446528121854e-10 9.763925893341938e-11 2.181938016586901e-11 -2.0391896625582392e-10 -7.149688615559933e-10 -1.7165146259047283e-09 -3.491999721264085e-09 -6.401559537582381e-09
-1.0873225495060688e-08 -1.7394222091674695e-08 -2.65014590822999e-08 -3.8741140833844215e-08 -5.4530515985964854e-08 -7.385534585184071e-08 -9.582651675865114e-08 -1.182917974565609e-07
-1.3783886417078183e-07 -1.5046008629156203e-07 -1.52809469656552e-07 -1.4354086508341063e-07 -1.2401640423499976e-07 -9.794007985388575e-08 -7.006860486547559e-08 -4.466004525918123e-08
-2.4387723492969222e-08 -1.0077784203218085e-08 -1.14042448631837e-09 3.714361454028657e-09 5.858137950645827e-09 6.399334656828245e-09 6.092960138066002e-09 5.395226120203473e-09
4.5603137714143155e-09 3.7230415328214614e-09 2.9522698594946902e-09 2.2803591648073567e-09 1.7184334940300923e-09 1.2647075811914584e-09 9.09699005994398e-10 6.398900205491116e-10
1.4623151701318406e-10 8.35773207717199e-11 -1.4947456662128384e-10 -7.326596972856605e-10 -1.9639756594907225e-09 -4.2992517410101855e-09 -8.390283425585772e-09 -1.5126928883087517e-08
-2.5701227076640265e-08 -4.170784486153466e-08 -6.524114561627087e-08 -9.88299546841012e-08 -1.4492793337488668e-07 -2.0471223986821333e-07 -2.7630269228891116e-07 -3.5314975184779264e-07
-4.238330340701963e-07 -4.7426268670356745e-07 -4.920635453970478e-07 -4.7136320025784394e-07 -4.1548792045804635e-07 -3.3596915152642685e-07 -2.4831568395860084e-07 -1.6677314737759925e-07
-1.0056070401954696e-07 -5.284840199309691e-08 -2.2085444888802476e-08 -4.327232364880126e-09 4.720939266920338e-09 8.550280013267928e-09 9.534302581856078e-09 9.097261956741496e-09
8.025693718216585e-09 6.73571499085961e-09 5.444692951721806e-09 4.264191430710949e-09 3.246252859024159e-09 2.407082727658504e-09 1.740929912507022e-09 1.229475327549475e-09
-4.2309073370346036e-11 -3.043053883711045e-10 -9.072918279475696e-10 -2.1501301750673325e-09 -4.519778351553987e-09 -8.775282769903296e-09 -1.607554790953573e-08 -2.820103129424199e-08
-4.7938767351279775e-08 -7.964803212550041e-08 -1.298150923820881e-07 -2.0702605136536966e-07 -3.204447097978467e-07 -4.760517868012988e-07 -6.710325068042709e-07 -8.885993421627326e-07
-1.0969639769859193e-06 -1.255412829339007e-06 -1.3269019105265389e-06 -1.292067237189334e-06 -1.1574462336474826e-06 -9.532263926018646e-07 -7.216685818191046e-07 -5.024134283340127e-07
-3.2172288625024353e-07 -1.8931507733617926e-07 -1.0180765217073605e-07 -4.9043989505292143e-08 -1.9722650040524523e-08 -4.608327626231829e-09 2.567008490668556e-09 5.541218624169031e-09
6.361951540112176e-09 6.109977140231829e-09 5.36141888719705e-09 4.434008533897707e-09 3.5053074619561337e-09 2.669393005179044e-09 1.967625913433061e-09 1.408454167511887e-09
-1.0541754933409347e-09 -1.8536450047799343e-09 -3.1679151806476096e-09 -5.268376226146334e-09 -8.56680701343959e-09 -1.3756395297693704e-08 -2.2156775110813213e-08 -3.6455128818603225e-08
-6.204648292536539e-08 -1.0896586713073695e-07 -1.937917094735116e-07 -3.399105280563158e-07 -5.737337802004438e-07 -9.150087480065595e-07 -1.3622880332262253e-06 -1.8793437664615323e-06
-2.3917681539216816e-06 -2.801084191841107e-06 -3.015059392668564e-06 -2.9819520916291764e-06 -2.7112803967464213e-06 -2.2696451023469195e-06 -1.754038556421052e-06 -1.2572238510843838e-06
-8.419499039519593e-07 -5.328653397904527e-07 -3.2403888678906536e-07 -1.9344620295303366e-07 -1.1602120766913591e-07 -7.117193090337538e-08 -4.4946310699678666e-08 -2.9076521540829262e-08
-1.9070675244633718e-08 -1.2563679884405653e-08 -8.268443931295503e-09 -5.4259455253815285e-09 -3.551047120192209e-09 -2.319446485464625e-09 -1.5123831416413985e-09 -9.837367744759893e-10
-4.012767088310864e-09 -5.9667364597306915e-09 -8.362690906016911e-09 -1.0869370883258272e-08 -1.282546077716674e-08 -1.3405271311441283e-08 -1.2392411790981976e-08 -1.2091419059257363e-08
-2.0860373596253642e-08 -5.8153185774635943e-08 -1.5949863668059668e-07 -3.776869187416401e-07 -7.74861009339414e-07 -1.4016097676821284e-06 -2.265484000194242e-06 -3.301226613808557e-06
-4.362056591211207e-06 -5.247281070665447e-06 -5.763779105624883e-06 -5.79649624992676e-06 -5.3525009848489745e-06 -4.554956398243159e-06 -3.5912910351687976e-06 -2.644444365746885e-06
-1.840782804461608e-06 -1.2327776119028165e-06 -8.12747934345593e-07 -5.407884499210669e-07 -3.7026076703207614e-07 -2.6261938343007456e-07 -1.9179835563191186e-07 -1.424626529844155e-07
-1.0636076072946672e-07 -7.916051600003202e-08 -5.844731984558607e-08 -4.269291850937734e-08 -3.0799602010453124e-08 -2.191694584414382e-08 -1.5366587153351294e-08 -1.0604552088455089e-08
-1.0352059665755321e-08 -1.4307309610425243e-08 -1.7890291252078342e-08 -1.888672437793176e-08 -1.3369328992301944e-08 4.24461234857228e-09 3.9735252110351604e-08 9.505492726224945e-08
1.607787559961369e-07 2.0540138602979287e-07 1.647508130125835e-07 -6.125100826854576e-08 -5.946557877718186e-07 -1.541474780207552e-06 -2.9342036213332068e-06 -4.676893492037009e-06
00000000: 4710 068d f403 ca3d d20c f3bb 7f77 cb3d
00000010: 0420 13c5 e027 c03d 6961 face 451d c8bd
00000020: 7cb3 a4ec 3c25 eebd c295 313b 62a4 03be
00000030: 49a1 4b6f 64a4 14be 7864 3c33 4528 23be
00000040: dd20 1d68 1944 30be 348a 59fb cbbe 39be
00000050: 73ac 9e05 c237 43be a832 2a2d fa49 4bbe
00000060: 3ce6 c7f6 4387 52be 8496 9f50 471d 58be
00000070: fcee f96c 4e0b 5ebe d92d 058a 6cd7 61be
00000080: a84a 2b5c 9012 64be b8c5 6a04 fd3b 65be
00000090: c03a b857 0af6 64be 3c88 90c8 5928 63be
000000a0: 72ca 54e1 8912 60be 9d17 4d0a 2379 58be
000000b0: 8783 ca84 3e95 50be 3c53 e2bc 1329 43be
000000c0: 5f2e 207e 5082 30be 0060 c4a0 dc0c f9bd
000000d0: 8aad 38d4 5746 1d3e 3bc9 0f60 6550 273e
000000e0: 1adc f31a bb05 2a3e 2d82 71ab 8d44 293e
000000f0: 583e 2c77 d1c2 263e 12a5 8c7a 868b 233e
00000100: e400 4849 1a35 203e 4ae4 06be 2e1f 1a3e
00000110: d1e1 f9d7 7185 143e d216 c004 b27b 0f3e
00000120: 808c 5a16 529a 073e e430 f16a d34d 013e
00000130: fae0 6367 8dd2 f83d 5b15 8ae0 856c f13d
00000140: 6c8f 6615 d9b9 dc3d 42da 4585 c0d6 da3d
00000150: 604a c409 9cfd b73d bb7d c9c2 c206 ecbd
00000160: ec5b cebf ee90 08be 1160 4ba8 4f7d 1dbe
00000170: 513f 9714 fdfe 2dbe 8a65 5ed2 967e 3bbe
00000180: 268f 4d72 9e59 47be d498 8590 49ad 52be
00000190: 99c4 fd64 aa74 5cbe d0ae d8b6 8acc 64be
000001a0: 7a0d f3f6 9d46 6dbe 64c3 0efc 4cd3 73be
000001b0: 089e 2ae9 25b9 79be 3f44 f24e f3c0 7fbe
000001c0: ce89 a878 1b80 82be 9945 47ea c431 84be
000001d0: 9a4d 4d4f 7e82 84be 6144 40cd 0644 83be
000001e0: 0046 f3d3 2ba5 80be ea74 221b 644a 7abe
000001f0: ee34 c3ee 13cf 72be db0c 60a6 07fa 67be
00000200: 9fcc bd79 a52f 5abe 216b 7509 52a4 45be
00000210: d006 aad2 a397 13be c86f 879b f7e7 2f3e
00000220: 860c 443e 1729 393e d487 d092 247c 3b3e
00000230: b237 1ed0 472b 3a3e b72f 8325 1d2c 373e
00000240: d417 6d36 1e96 333e 657f b70e 0efb 2f3e
00000250: 0140 0d2e 1c5c 293e c2ad ea15 9096 233e
00000260: 2141 601c c085 1d3e bc46 d925 3eba 153e
00000270: 387e 5d0d cc41 0f3e 251f a33a 88fc 053e
00000280: c447 3b69 1019 e43d 901a a929 3bf9 d63d
00000290: 22ba 7f34 2b8b e4bd ca99 47f8 8a2c 09be
000002a0: 973d 8b01 d4de 20be 78dd 9ec8 1377 32be
000002b0: 7bd5 786a 9b04 42be 50e1 1ffd 0e3e 50be
000002c0: f2c4 bd12 b398 5bbe c856 2755 4864 66be
000002d0: 772f 165f 5683 71be d69e 16f3 8a87 7abe
000002e0: 4f11 5f95 af73 83be 2e26 98e7 db79 8bbe
000002f0: dd29 8217 d88a 92be 12f9 b408 11b3 97be
00000300: ee92 9365 6571 9cbe 694a c75a c5d3 9fbe
00000310: 012b f62d cb82 a0be 9b64 4247 f5a1 9fbe
00000320: 7d1d f032 07e2 9bbe 5dd5 67f4 e78b 96be
00000330: d1c1 6fed 07aa 90be f34c 311e 4862 86be
00000340: 368a 269d 7afe 7abe c6e5 0bd7 6d5f 6cbe
00000350: 6270 7c05 cdb6 57be a86a 0ea1 d795 32be
00000360: cc67 2c45 ba46 343e 58a7 0def 905c 423e
00000370: 5567 70cc 8979 443e 95c0 77cc 4589 433e
00000380: bbf5 e8f9 2b3c 413e 0ad6 5d38 ffed 3c3e
00000390: a757 60d2 8062 373e 58a1 032f 8750 323e
000003a0: e5ee 51e5 95e2 2b3e ecb9 021c 3bad 243e
000003b0: 6121 89d3 b0e8 1d3e 47fb 2028 4a1f 153e
000003c0: 88b2 3a04 7942 c7bd 5985 38a2 65e9 f4bd
000003d0: 1689 b291 9f2c 0fbe 3a41 91ae 2f78 22be
000003e0: 5d02 9981 8c69 33be 6a6b b341 43d8 42be
000003f0: 2ef7 4c1e d042 51be 96e3 1c28 d747 5ebe
00000400: 2845 8f6d a7bc 69be 3e1b cdff 5e61 75be
00000410: bcea d6a0 696c 81be fa7c e467 5cc9 8bbe
00000420: 06dc e8bc 3281 95be ce6e 69e6 81f2 9fbe
00000430: 4c1c 7316 2084 a6be 30dd 479e 02d1 adbe
00000440: dee1 dfa5 6c67 b2be 4584 e600 f50f b5be
00000450: 50df 5c14 0043 b6be 9f18 7ff3 62ad b5be
00000460: 24e6 a897 316b b3be f6af 5001 27fc afbe
00000470: e44b 85fe 1537 a8be 1831 14d0 b2db a0be
00000480: a685 a837 2897 95be 3e98 df07 d168 89be
00000490: f02c 6128 2b54 7bbe 48ba b8f9 8d54 6abe
000004a0: 2a39 7e1d 522d 55be 6ce7 48e9 e8ca 33be
000004b0: f8cd 6c4f e90c 263e e284 1862 a2cc 373e
000004c0: a9ca 5d29 0a53 3b3e 8412 5aac fd3d 3a3e
000004d0: 9f13 a441 f106 373e 8274 e572 3e0b 333e
000004e0: 05bd 24ac 401c 2e3e 6460 fdaa 0eee 263e
000004f0: 1dcc 93ea dae6 203e d190 7e6a 7232 183e
00000500: 36bf f916 501c 12be 05be fabc 6ad8 1fbe
00000510: 6b40 11b4 5136 2bbe b8bc 5713 a4a0 36be
00000520: dde3 fce6 a665 42be 2cab e485 a88a 4dbe
00000530: 2cfa 8770 68ca 57be 655c 20d1 5a92 63be
00000540: 14e0 6145 cda7 70be b528 9bce 1340 7dbe
00000550: 5944 49e7 a102 8abe 5099 df4f 9ecf 96be
00000560: 080f d7ec 5540 a3be cc04 1284 ddb3 aebe
00000570: 50f1 6c88 fbda b6be 4265 e552 b887 bfbe
00000580: 0211 b672 4810 c4be 3adf d451 487f c7be
00000590: 9493 2a6e ca4a c9be 2895 c57f b103 c9be
000005a0: 77df 4329 6ebe c6be f98a 2997 060a c3be
000005b0: 1976 d1c9 896d bdbe 283d 343e bc17 b5be
000005c0: 437c 366b 4b40 acbe 8501 3746 47e1 a1be
000005d0: 87fe 7218 f2be 95be e98b c4cb c2f6 89be
000005e0: 2134 a0ab ea24 7fbe e3e4 7ed9 e51a 73be
000005f0: fbcc 3cb8 5f21 68be 5758 4e4e 7e38 5fbe
00000600: 89a5 b377 1b7a 54be 6bd2 5dc0 f4fa 4abe
00000610: 6736 1008 a0c1 41be 429a f0e3 e34d 37be
00000620: eebc 97cf d580 2ebe e20f 7c4a 84ec 23be
00000630: be01 cd09 88fb 19be d49e 8a24 85e6 10be
00000640: a479 d185 153c 31be 81ec 8b01 7fa0 39be
00000650: 866a 2f1d 70f5 41be 0cd9 46f5 7f57 47be
00000660: bee5 0323 df8a 4bbe 2a66 1037 a0c9 4cbe
00000670: f021 fee8 cc9c 4abe 180c f5f2 53f7 49be
00000680: c803 054b 0e66 56be 14f3 9153 8338 6fbe
00000690: 6644 5cd8 5468 85be e27b a0a2 9c58 99be
000006a0: e098 1d61 0100 aabe b93b b73c de83 b7be
000006b0: 79b5 1800 1701 c3be a082 1e86 54b1 cbbe
000006c0: c1fd 5afc b84b d2be 893a 4aa3 3902 d6be
000006d0: 305a 6189 cf2c d8be 06e6 bcc1 f04f d8be
000006e0: d776 8344 3473 d6be 5944 87e1 d81a d3be
000006f0: 211f 3e20 3d20 cebe fc6f 21aa e62e c6be
00000700: 9ee4 0319 1ae2 bebe 188a 9951 bdae b4be
00000710: 7f7a c89b 7345 abbe 08a0 b160 5625 a2be
00000720: 6ae0 1b13 08d9 98be f0c7 5643 c49f 91be
00000730: a821 7a2d 24be 89be a889 72bf fa1e 83be
00000740: 7a58 634a 0e8d 7cbe 1836 5c86 de3f 75be
00000750: b038 c13f f060 6fbe 15c7 c787 abeb 66be
00000760: 0c5e 46a8 1089 60be 7c11 8cf4 7b88 57be
00000770: 5b0e b670 ef7f 50be ce06 ac06 eac5 46be
00000780: d6fa 6ce0 1a3b 46be 776b d7d1 86b9 4ebe
00000790: b2cd 1054 a535 53be 8099 7b13 8b47 54be
000007a0: 0e1c 8bc8 ddb5 4cbe 5838 7629 003b 323e
000007b0: 78ff 31e5 2b55 653e ae7c fff6 1f84 793e
000007c0: 0ff1 cbe4 5094 853e 7ae6 cab2 8991 8b3e
000007d0: a4d5 0b7a cb1c 863e 80a8 0322 2371 70be
000007e0: c221 07e8 0df4 a3be 65e6 db71 95dc b9be
000007f0: b852 fd7f 279d c8be 1ef5 afb1 c69d d3be
