src/kernel/kernel5.npy (npy, 101696 bytes, 1 tensors)

array f8 [23, 23, 24]
000000 32 ad be ee fe ae bc 8f bc cf 2e 61 d1 20 d4 8f
       -7.216999596939852e-233 -2.025760901282332e-232
000010 0a b3 9d 5c 25 8e e8 8f a0 da bb dc dd bc fa 8f
       -4.942627101520386e-232 -1.0763868260916523e-231
000020 dc ed 00 9f af 79 0a 90 88 41 e7 72 dd de 17 90
       -2.1316447250065888e-231 -3.843846757653804e-231
000030 51 bd a6 4f 2b 5d 23 90 0e 3e 40 5c 47 f9 2b 90
       -6.236301599816742e-231 -9.009152698875631e-231
000040 5a 47 a9 f7 0b 11 32 90 e7 eb 58 c1 ce 59 35 90
       -1.163695865963595e-230 -1.3752375054970698e-230
000050 13 be 47 cd ea e6 37 90 71 c8 ad e3 44 10 3a 90
       -1.5395646859661229e-230 -1.678792105394952e-230
000060 7e b9 f3 a0 b0 ca 3b 90 5e eb 23 aa e2 7c 3c 90
       -1.790108455301769e-230 -1.8349437451813627e-230
000070 1e d1 c7 a7 4a 78 3b 90 d0 73 93 4c 3d 89 38 90
       -1.7693764270522342e-230 -1.5804061622275013e-230
000080 06 f4 74 6b e8 22 34 90 04 62 3b 83 24 43 2e 90
       -1.2970128363624603e-230 -9.746191055201995e-231
000090 02 e4 1d a0 6f cb 24 90 65 a1 7f 50 58 1f 1a 90
       -6.697078804560823e-231 -4.20646326942541e-231
0000a0 c0 60 aa d4 f4 fd 0d 90 c4 68 b5 bb a7 78 ff 8f
       -2.4147880481330937e-231 -1.2669461616161285e-231
0000b0 54 35 6a d9 6a 2e ee 8f 8a c3 1d f6 f8 73 da 8f
       -6.0750737061159555e-232 -2.6623097150351448e-232
0000c0 20 a7 dc 1a a1 24 f9 93 56 69 66 ec 6a 68 13 94
       -1.8671602948400542e-212 -5.765024981480403e-212
0000d0 18 d0 e6 40 54 7a 29 94 83 06 57 cc 91 95 3c 94
       -1.5136163175947582e-211 -3.3963304951885516e-211
0000e0 fb b2 26 f1 bc 83 4b 94 d8 37 00 30 70 c8 56 94
       -6.5384721733078915e-211 -1.0828124154901752e-210
0000f0 9b 2d 02 ed 4e 45 60 94 51 42 94 bf 70 29 64 94
       -1.5466079077505747e-210 -1.9164786833213332e-210
000100 47 57 45 b3 a1 fe 65 94 01 76 a2 72 b0 c7 65 94
       -2.0906926419848605e-210 -2.0702921499822107e-210
000110 29 ad f5 4b ee 91 64 94 49 da 89 60 ab 88 63 94
       -1.955276703334911e-210 -1.856783301104628e-210
000120 b0 c0 9e 48 c9 0f 63 94 97 10 ec 89 5f b0 62 94
       -1.811898537591727e-210 -1.776471003368859e-210
000130 d3 23 e1 9d 2b b2 61 94 58 88 e6 2f 1b 69 5f 94
       -1.682083730295771e-210 -1.4928592949068117e-210
000140 6d 1b 99 c5 0f ba 59 94 75 ba 03 d7 36 52 53 94
       -1.2227252128612328e-210 -9.182818491813444e-211
000150 f4 2a c4 3a 97 8c 4a 94 a2 4a 36 09 d3 ac 40 94
       -6.309053386832812e-211 -3.962610345453775e-211
000160 f0 f0 0a d6 23 25 33 94 f0 da 0c 04 df 16 24 94
       -2.274784152905995e-211 -1.1934898657667707e-211
000170 49 2b ab 06 11 44 13 94 53 b5 2a cd ce e2 00 94
       -5.722845485092479e-212 -2.5079508928526895e-212
000180 38 17 88 d8 a5 f4 c7 97 1e 52 26 41 d2 03 e3 97
       -4.1020492124936455e-194 -1.3024092100976541e-193
000190 98 96 93 fc b2 72 f9 97 72 eb f1 8b 0d c3 0c 98
       -3.486078744906687e-193 -7.880082138641509e-193
0001a0 a1 9d ec 5c 5b 7e 1b 98 63 25 88 5a 3a 42 26 98
       -1.5065172290862723e-192 -2.4393416562957023e-192
0001b0 ec ce 7e de 58 96 2e 98 89 81 b8 57 79 ea 31 98
       -3.3520757965650695e-192 -3.926826789337268e-192
0001c0 2d d8 aa cf 50 15 32 98 c6 67 c2 1b 2d 1b 30 98
       -3.963506782141689e-192 -3.530162559899965e-192
0001d0 e4 cb 94 8f 88 88 2a 98 34 56 eb 74 bc b1 25 98
       -2.9078004490554267e-192 -2.3774864912743285e-192
0001e0 02 b7 a0 38 35 b7 22 98 16 db f7 3c 4f 0f 21 98
       -2.05105747226731e-192 -1.869591766567923e-192
0001f0 a5 98 39 a7 6c 46 1f 98 68 c6 da cc 69 6e 1b 98
       -1.7137261631310956e-192 -1.5031045980732667e-192
000200 48 0c 2c dd 56 62 16 98 54 9c e9 67 09 cb 10 98
       -1.2265440700906874e-192 -9.201825119602188e-193
000210 c8 1f 56 29 b7 11 07 98 2d 7e 08 7d 18 fa fc 97
       -6.320411323036621e-193 -3.96949497429807e-193
000220 7a 34 09 e4 63 a2 f0 97 b8 82 60 8f 68 74 e1 97
       -2.2787059200110625e-193 -1.1955443590172002e-193
000230 b5 6e 8e 71 3f bd d0 97 52 35 14 e7 c7 57 bd 97
       -5.732694243715173e-194 -2.5122667752055612e-194
000240 82 0e 04 68 9f 15 2f 9b d7 1d de f6 46 09 49 9b
       -9.588616488854149e-178 -3.0891688911675485e-177
000250 07 d1 7a 4e bf ea 60 9b 42 b9 20 e7 8f 30 73 9b
       -8.349403142350637e-177 -1.8942209668317634e-176
000260 6b 89 af 31 cd 47 82 9b ce ac a1 08 c8 43 8d 9b
       -3.6089429422474834e-176 -5.777469688570681e-176
000270 68 80 6e b6 40 b3 93 9b 45 af 10 d8 db 59 96 9b
       -7.778454443609825e-176 -8.825101506967002e-176
000280 fd 10 ef d8 68 79 95 9b df cb d8 02 3f ae 91 9b
       -8.478922563588442e-176 -6.981049907429458e-176
000290 6a b0 ad 52 bb a7 89 9b 80 58 bc 71 35 64 81 9b
       -5.0648662929833135e-176 -3.433429232160767e-176
0002a0 70 2c c7 2a 19 2c 78 9b 3b 18 c2 49 8f 90 72 9b
       -2.3860513667274434e-176 -1.832526092386124e-176
0002b0 5d 8c 4f c7 b8 0c 6f 9b b0 d1 3d 4a ca 42 6a 9b
       -1.5324626037509274e-176 -1.2961108512525557e-176
0002c0 0e aa 6e 1f 41 2d 65 9b 01 7b f5 85 e0 aa 5f 9b
       -1.0451830910624634e-176 -7.814769612961754e-177
0002d0 8b f2 f2 a6 80 bb 55 9b 7a 4a 2e e8 d4 4a 4b 9b
       -5.3630381234502506e-177 -3.3675408860713674e-177
0002e0 b1 70 86 f6 4b 55 3f 9b 2a 45 62 bd 69 70 30 9b
       -1.9330682334536913e-177 -1.01419382001581e-177
0002f0 01 62 76 ae ce 87 1f 9b 1a 2b 16 a4 b1 a2 0b 9b
       -4.863102219762367e-178 -2.1311806741577634e-178
000300 30 c6 a1 37 0d 37 2d 9e 4f 5d be 22 c3 c3 47 9e
       -2.5366405408802726e-163 -8.253622905590418e-163
000310 7c 48 4b 3c 75 29 60 9e cd 77 2a d2 8d 60 72 9e
       -2.245256558056622e-162 -5.106000263444427e-162
000320 1e e9 1a 3d 87 77 81 9e f1 3d 67 50 61 c0 8b 9e
       -9.706180272812891e-162 -1.5421213965362456e-161
000330 d9 85 1b 9a 10 6c 92 9e 6a fb 06 9e a5 6d 94 9e
       -2.0473973460541683e-161 -2.2703600582581343e-161
000340 65 72 ac 55 f6 e5 92 9e b8 4a 60 62 95 14 8d 9e
       -2.1003169744636058e-161 -1.6159680842583203e-161
000350 67 c5 f0 b0 1d 73 82 9e 97 7c 2c 43 d3 cd 72 9e
       -1.025229235539981e-161 -5.224595790535297e-162
000360 84 d5 d8 05 c0 e3 5b 9e ec 7a c1 61 90 67 2b 9e
       -1.937248776848969e-162 -2.3794412605253342e-163
000370 80 fc cf b5 44 49 39 1e 54 63 a2 7d d3 41 41 1e
       4.391025992483831e-163 5.993506895143896e-163
000380 75 97 fb 90 16 5d 3f 1e c2 9f b5 f1 8c 35 38 1e
       5.4463885300505585e-163 4.203997723301755e-163
000390 17 2b 68 7e 7d bf 30 1e 5c f0 a0 d7 6e 12 25 1e
       2.908342400438405e-163 1.8296086272835436e-163
0003a0 27 05 fc 77 96 33 18 1e c3 03 b6 d9 97 65 09 1e
       1.0506665741142562e-163 5.512799489889855e-164
0003b0 fc a7 ac 0e 2b 5b f8 1d 5c 4d 03 98 f2 58 e5 1d
       2.643446856452048e-164 1.1584530033663349e-164
0003c0 a6 fa 0f 72 94 5f c4 a0 32 3a d5 92 70 b4 e0 a0
       -7.779914349469221e-151 -2.5516115760831015e-150
0003d0 57 b7 d1 28 80 d6 f6 a0 ed 5a 19 83 5a 04 0a a1
       -6.976830996864259e-150 -1.5896059603989076e-149
0003e0 e5 a4 fe c5 39 af 18 a1 07 32 fb 5b fe 7d 23 a1
       -3.016380048606008e-149 -4.763785273388672e-149
0003f0 2d d9 28 f5 92 96 29 a1 5d 7b f5 e6 77 d6 2b a1
       -6.253620899168585e-149 -6.8034085501367525e-149
000400 2b 23 cd 9b e1 e7 28 a1 8f 3b 00 e9 77 ee 21 a1
       -6.086847369560603e-149 -4.382371511809206e-149
000410 b6 f5 2a 5f c6 54 13 a1 22 b3 5f a9 aa 0e f5 a0
       -2.362217557054997e-149 -6.432868579390611e-150
000420 af e1 2c 4e 2c 26 f0 20 9a 87 78 cc 84 8f 01 21
       4.933451421097017e-150 1.0729315380331753e-149
000430 8c 25 f8 c4 f4 7b 04 21 d3 86 58 f7 91 65 03 21
       1.251558771226712e-149 1.1851172585748716e-149
000440 d9 74 66 98 e7 32 00 21 b8 b5 7e fc 8a 76 f8 20
       9.897288960846434e-150 7.473308624932428e-150
000450 7e 6d 0d 62 9e d4 f0 20 cc 24 00 03 15 26 e5 20
       5.141623395770262e-150 3.2304055101768535e-150
000460 9f 60 bc 93 76 48 d8 20 ba 70 70 9a 27 7b c9 20
       1.8545800250874496e-150 9.730382079441691e-151
000470 37 f0 99 95 c9 6f b8 20 23 1c 54 ef 02 6b a5 20
       4.665779426191253e-151 2.0447083867151585e-151
000480 2c 61 97 42 e0 48 f5 a2 4e a9 ec da 76 94 11 a3
       -2.7927302552546474e-140 -9.226550734339613e-140
000490 55 f4 94 ae 61 25 28 a3 60 4e 4b 35 c8 8d 3b a3
       -2.5345309791209572e-139 -5.78447680546707e-139
0004a0 6e 9f c3 9c d0 19 4a a3 b1 74 90 28 b1 7f 54 a3
       -1.0958887846279742e-138 -1.721354730275425e-138
0004b0 e1 b7 85 1e 7e a1 5a a3 6e 21 a3 f6 76 73 5c a3
       -2.2362827640954195e-138 -2.3891315182805975e-138
0004c0 80 11 9a 69 e1 9d 58 a3 37 8f ff 87 f4 76 50 a3
       -2.0671510040023508e-138 -1.3825950602383464e-138
0004d0 79 c4 22 02 4a 05 3c a3 1c d7 47 f5 d7 ad 10 23
       -5.8824789336640446e-139 8.753747623401642e-140
0004e0 66 8e 49 29 c8 a2 39 23 dc 8a d5 c8 29 3c 42 23
       5.381830516453888e-139 7.656284708692713e-139
0004f0 87 0c 69 d9 5c 88 43 23 d2 67 09 6d ef 0c 42 23
       8.201127212052969e-139 7.578825820580743e-139
000500 b7 27 00 5a 69 ef 3d 23 7b b5 75 cd 2c 8f 36 23
       6.2844054219750814e-139 4.7359509542422724e-139
000510 0a 33 60 ae a5 06 2f 23 94 df d6 74 aa 7d 23 23
       3.2566967652624804e-139 2.045895810978129e-139
000520 fb 0e a9 5f 01 61 16 23 66 dd fe 76 9e 7b 07 23
       1.1745223470392276e-139 6.162309519894906e-140
000530 59 a7 4f 9d 36 85 f6 22 6e 15 cc 83 09 bd e3 22
       2.9548636579555607e-140 1.2949248373778782e-140
000540 3e 96 77 f7 93 ac c0 a4 46 4f af 73 c9 c0 db a4
       -1.1745598719813922e-131 -3.909966095075848e-131
000550 0d 95 24 7a 72 26 f3 a4 14 85 12 94 fe e3 05 a5
       -1.0791823852816957e-130 -2.4672298861723246e-130
000560 46 ee c9 c2 d9 b3 14 a5 b5 84 6c f0 32 2b 20 a5
       -4.666653397590305e-130 -7.289340150270415e-130
000570 a6 04 09 e6 61 c7 24 a5 2e 83 12 78 63 c5 25 a5
       -9.367703267976093e-130 -9.815021003560341e-130
000580 a8 d8 08 11 e0 22 22 a5 36 54 44 11 41 15 16 a5
       -8.176339721670069e-130 -4.977834212298636e-130
000590 00 f9 91 62 c5 a7 f7 a4 52 d6 f5 3f 0d 5c ff 24
       -1.3330651398477952e-130 1.7672259859267978e-130
0005a0 db 77 9a 21 34 14 11 25 0e f1 77 bc 57 b3 15 25
       3.849836606972086e-130 4.891620687874788e-130
0005b0 62 96 9e 3e 80 87 16 25 36 10 c2 6a c5 9e 14 25
       5.0784314155737816e-130 4.6480923891792675e-130
0005c0 bb e0 4f dc 9b 0c 11 25 84 2a 34 17 1d ad 09 25
       3.843149185800036e-130 2.8938969443849012e-130
0005d0 cc c7 99 c8 1b a7 01 25 8a 26 ba 77 a5 2d f6 24
       1.9895950520482883e-130 1.2498280387894631e-130
0005e0 cc c7 1c 67 dc 76 e9 24 3b a5 5b cb 6c b8 da 24
       7.175028770998159e-131 3.764480206871673e-131
0005f0 d8 05 f1 b4 0b a0 c9 24 51 72 61 05 af 75 b6 24
       1.805089770376661e-131 7.910535698857183e-132
000600 ee 35 66 c1 c6 74 23 a6 00 89 50 c5 2f 56 40 a6
       -5.748425236918526e-125 -1.9307019747615625e-124
000610 65 7c 63 ce 84 ab 56 a6 08 ea e1 15 34 f7 69 a6
       -5.3583764750479415e-124 -1.227469748081921e-123
000620 60 b7 3b b9 a9 82 78 a6 34 85 6f 69 e3 04 83 a6
       -2.3173531661178187e-123 -3.596347345667215e-123
000630 76 80 d5 e9 57 21 88 a6 3e 2b c0 70 03 b0 88 a6
       -4.562822370849982e-123 -4.6682039158516987e-123
000640 58 ae c7 92 95 92 83 a6 d2 3b 04 eb 61 a0 74 a6
       -3.7010093948925994e-123 -1.9501463458120072e-123
000650 80 49 52 42 0d 6b fb 25 c0 13 2a d3 a0 bd 71 26
       1.0126055488135512e-125 1.677310250587873e-123
000660 f1 dd 81 01 ee ab 7d 26 53 cb a3 32 37 cb 81 26
       2.8053222639697974e-123 3.3646566708886576e-123
000670 b5 f8 4e b0 b5 25 82 26 b0 a9 64 97 04 84 80 26
       3.431499081846819e-123 3.122975935214533e-123
000680 91 e9 17 c4 b3 43 7b 26 d3 b6 6e 2d 39 85 74 26
       2.577737650869302e-123 1.940115954413451e-123
000690 5e 3f ea f9 73 36 6c 26 69 2c ab 2c e3 b8 61 26
       1.3336950882761865e-123 8.377796871727137e-124
0006a0 69 74 ff 86 0d 59 54 26 69 23 e6 fa ff 59 45 26
       4.809507350129113e-124 2.5233730203082025e-124
0006b0 cd 1e c6 8e f4 79 34 26 14 a4 88 ae 6a f2 21 26
       1.2099715308282436e-124 5.302518923667839e-125
0006c0 10 b7 8e 38 8b 97 20 a7 22 45 4d 78 7f 34 3c a7
       -3.2126960743746076e-120 -1.0922672618211223e-119
0006d0 5a 02 23 5c 2c b7 53 a7 a6 5c a4 f3 3c a4 66 a7
       -3.054006631318541e-119 -7.014520241957434e-119
0006e0 c4 fa 1f 00 ba 51 75 a7 86 9a 05 a7 34 66 80 a7
       -1.3209717354235954e-118 -2.0322421685338923e-118
0006f0 45 8e 28 b9 1a 71 84 a7 84 aa d0 f1 83 35 84 a7
       -2.533209717716347e-118 -2.5043642428151132e-118
000700 b2 26 e1 75 3b a2 7d a7 bb 94 9e 8c 4d 0e 67 a7
       -1.8361488589430992e-118 -7.142878310572117e-119
000710 20 be 4a 68 7e b5 60 27 9c f1 d7 dc e7 42 79 27
       5.176558694958322e-119 1.565230423775335e-118
000720 f2 36 dc 50 69 65 82 27 de 3e cb 51 2a 3a 85 27
       2.279703559114874e-118 2.630538080711549e-118
000730 1c ed 71 23 17 60 85 27 f2 fa fc 77 95 5f 83 27
       2.6488966225899357e-118 2.400805545685157e-118
000740 74 53 6b 39 21 f1 7f 27 4f f2 7e 35 4e 08 78 27
       1.979167917624279e-118 1.4890855344769232e-118
000750 7a bb 45 c8 e7 84 70 27 80 42 ce d4 c8 c0 64 27
       1.0235515537126338e-118 6.429451965321326e-119
000760 71 cd 9c 5e e0 d3 57 27 8d b6 29 7b c2 00 49 27
       3.6909894058351994e-119 1.9365257993300999e-119
000770 77 dc 5e 44 66 fa 37 27 9f 35 0e 80 1f 04 25 27
       9.285748515341706e-120 4.069340042090331e-120
000780 b3 7a 0e c7 d1 bd b3 a7 22 20 61 8a 10 21 d1 a7
       -1.957138031644033e-117 -6.79262630423784e-117
000790 00 ad d2 81 d5 3d e8 a7 ae 30 e5 6c a2 f5 fb a7
       -1.9226130096406355e-116 -4.4349755830216323e-116
0007a0 a1 0d 99 b0 43 38 0a a8 f9 3d af 1f 6e e1 13 a8
       -8.318035487276603e-116 -1.2613943124019014e-115
0007b0 4a 96 b7 7c 1d 0b 18 a8 0e 6e 96 8e 37 51 16 a8
       -1.525519955047592e-115 -1.4159973143908628e-115
0007c0 43 b1 62 e9 f1 95 0b a8 5c 9d fe b2 80 ee c4 a7
       -8.751369914874149e-116 -4.1502588705401224e-117
0007d0 fc cc 7c fd 7c da 0a 28 0e e5 ff 57 cf 65 19 28
       8.519068028233282e-116 1.611446821890773e-115
0007e0 40 4a d0 fd a7 d2 20 28 d6 6d 07 19 a6 d2 22 28
       2.134774021707588e-115 2.3885645386950637e-115
0007f0 93 b3 b7 85 0b c1 22 28 7e c2 a1 bb 2f f0 20 28
       2.37983847489787e-115 2.1494119185696544e-115
