src/kernel/space_time_kernel_combined_spatial.npy (npy, 55616 bytes, 1 tensors)

array f8 [17, 17, 24]
-1.0141968602453816e-06 -3.1434778075393975e-06 -8.275628385843446e-06 -1.8588721836133928e-05 -3.575085582886648e-05 -5.901899327180876e-05 -8.385432495340751e-05 -0.00010314546826885066
-0.0001114452654421236 -0.0001090313411355637 -0.0001015414991995723 -9.513646914860322e-05 -9.193274343675221e-05 -8.966009693962895e-05 -8.470628875194443e-05 -7.511738279224269e-05
-6.150946420947713e-05 -4.619112176872266e-05 -3.17350283068855e-05 -1.9932153933166976e-05 -1.1442282589314284e-05 -6.003315049077939e-06 -2.878620451640482e-06 -1.261512077260626e-06
1.5008101032072584e-07 8.489942193537109e-07 2.9449265269440236e-06 7.229839515186997e-06 1.2787189950004197e-05 1.5204236753956133e-05 7.513995064787642e-06 -1.5084247285720214e-05
-5.089102158323404e-05 -9.282799554889918e-05 -0.00013349921695252293 -0.00016804356294537593 -0.0001928987724154686 -0.00020432585766064305 -0.00019954762919032607 -0.00017901754018203277
-0.00014711579902510426 -0.00011058980158287318 -7.599898229644603e-05 -4.773636109782111e-05 -2.740395977201357e-05 -1.4377814326408522e-05 -6.894238993753534e-06 -3.0212966680515745e-06
2.8245471845886806e-06 9.761535063925292e-06 2.7560742126067976e-05 6.352020536192937e-05 0.00011923354762077414 0.00018134343657920924 0.00022069402152056532 0.00020764653600756567
0.00013360365327115683 1.780014220197258e-05 -0.00010684872336997677 -0.00021282421696393168 -0.00028570827006046777 -0.0003211332567752801 -0.0003204712796442764 -0.00028959511860660167
-0.00023851922020513787 -0.00017941154490018938 -0.000123313997762905 -7.745867525349143e-05 -4.446696765257802e-05 -2.3330160809502618e-05 -1.1186940147714473e-05 -4.902508677544819e-06
6.639341507858375e-06 2.2247577963695714e-05 6.165656326055569e-05 0.00014116718371051616 0.000266640315532876 0.00041450044945871194 0.0005276585522145573 0.000543260322969157
0.00043654217406798165 0.0002399240454070634 1.8847641405351118e-05 -0.0001691816331562208 -0.0002961793482488562 -0.0003592868640905611 -0.0003677498311343933 -0.0003350740259167665
-0.00027667073549832584 -0.00020825464147230727 -0.00014316418876123729 -8.993116057168325e-05 -5.162754838358307e-05 -2.708709740197107e-05 -1.2988415840955122e-05 -5.691978654688371e-06
1.0092268072524513e-05 3.32652708786344e-05 9.124548085048688e-05 0.000208135203934833 0.00039451840975800883 0.0006207537252276092 0.0008091256799514241 0.000869488123584363
0.0007605912269886754 0.0005215834970322751 0.00024249358613558076 5.047421629144055e-06 -0.00015289462137298845 -0.0002328542203453321 -0.0002536535793586883 -0.00023558586332605264
-0.00019563951773205425 -0.00014749533673631232 -0.00010143642457246564 -6.372512943178104e-05 -3.658396338093591e-05 -1.9194350283705507e-05 -9.203805501192766e-06 -4.033430326447316e-06
1.1012363536749714e-05 3.5701526871604236e-05 9.68907273478066e-05 0.00022014977209739253 0.0004188355348156469 0.0006672910950055776 0.0008904991418903355 0.000995920255927436
0.0009346501580727864 0.0007384701202653161 0.0004954193014425474 0.00028853673579127984 0.000154085214007987 8.40716161809643e-05 5.28111074644752e-05 3.841577594322089e-05
2.9297175726227136e-05 2.1544053822303072e-05 1.4721236380215122e-05 9.234354535694886e-06 5.29964973487924e-06 2.7803708732462344e-06 1.333189654556718e-06 5.842494083365909e-07
7.846151714402254e-06 2.4646369830348028e-05 6.549040942591892e-05 0.00014762917696833726 0.0002829751830286819 0.00046210956802666915 0.0006445484256880136 0.0007720782813680659
0.0008046955258649851 0.0007505510695067855 0.0006588581923365924 0.0005806473505179903 0.0005350640160968491 0.0005080211196536534 0.0004743982755119568 0.00041893904444082646
0.0003425953559202989 0.00025717991103318537 0.00017667545361418438 0.00011096395981690596 6.369983941083818e-05 3.342076648188128e-05 1.602542686475577e-05 7.022901886381866e-06
9.751096965368323e-07 1.6491486563085804e-06 1.8020662921042124e-06 1.8477507630755118e-06 7.552205724109919e-06 3.3594884322427966e-05 9.813438011865876e-05 0.00020774372577040583
0.00034822175774814506 0.0004946586022241043 0.0006289994415855182 0.0007430378045565824 0.0008271846139693674 0.0008646784539502823 0.0008401980981476867 0.0007524527563897716
0.0006180317806485078 0.0004645168069203852 0.00031921072933930645 0.00020050034855050513 0.0001151007933344083 6.038898163774262e-05 2.895683830765505e-05 1.2689899239599154e-05
-7.06133816437677e-06 -2.4720217640453684e-05 -7.032004784272389e-05 -0.00016249309734955956 -0.00030426412645030015 -0.0004586920533325329 -0.0005476967003881472 -0.0004940907211672217
-0.00027844684957604516 4.534558297409186e-05 0.00038958826995615943 0.0006822281335693545 0.0008845411181229767 0.0009822481886406643 0.000976048877793567 0.0008807605559240122
0.0007251061380545314 0.0005453506979062084 0.00037482142075313335 0.00023543929678111774 0.00013515923761415628 7.09129939001191e-05 3.4003167952117653e-05 1.4901378063429902e-05
-1.2870138983266582e-05 -4.330895115356347e-05 -0.00012033835807777636 -0.00027578072105806665 -0.0005204431518842691 -0.000806576362481207 -0.0010205173941447785 -0.0010386403600086403
-0.0008141350057320596 -0.0004131973836822541 3.419134837424117e-05 0.0004146782005692408 0.000672469118034551 0.0008000822645441741 0.0008138629954371707 0.0007400700449300126
0.0006107069141829338 0.0004596117307236358 0.000315945470847376 0.00019846484183442758 0.00011393416145248003 5.97770869588985e-05 2.8663447932790184e-05 1.256132648143742e-05
-1.4209679911484899e-05 -4.698058644547719e-05 -0.00012911628588353446 -0.00029472829007693574 -0.0005582825502617454 -0.0008764320330431615 -0.001137395691149098 -0.0012128449582731603
-0.0010456400952139988 -0.000693538824809185 -0.00028575869203583234 6.115184885751939e-05 0.0002926685311210465 0.0004094065727906039 0.00043662597956222116 0.00040296064051711505
00000000: 541a 9e3d f103 b1be 7074 5533 915e cabe
00000010: 847b 65b4 f15a e1be ae81 de3c df7d f3be
00000020: 9b87 7e0d 66be 02bf 9159 e52a 65f1 0ebf
00000030: 8464 4d55 5efb 15bf 4623 dba6 f909 1bbf
00000040: a656 db14 f736 1dbf 2175 7b2d f894 1cbf
00000050: 7675 49ac 559e 1abf a0bf 3718 80f0 18bf
00000060: e639 8781 8019 18bf 31d4 87bc fc80 17bf
00000070: 74cc b6f5 8a34 16bf 3b0c 50cf 0ab1 13bf
00000080: d863 778c d41f 10bf e8b8 e0db aa37 08bf
00000090: a8bd 0c45 67a3 00bf 271a 4230 7fe6 f4be
000000a0: e801 2b58 07ff e7be 760f e8ac 022e d9be
000000b0: 16cb 4a54 ca25 c8be 7b30 9132 272a b5be
000000c0: 88f1 1387 be24 843e 7879 3d08 ce7c ac3e
000000d0: 5c07 cb7a 2eb4 c83e b82d 4a27 fb52 de3e
000000e0: c8e8 2b01 12d1 ea3e a823 4763 b6e2 ef3e
000000f0: 905d 773c 1784 df3e 9844 2e29 4ba2 efbe
00000100: db60 d72f 7aae 0abf a2e4 f4d1 9455 18bf
00000110: 5434 ad8a 7d7f 21bf c7d9 dc36 9b06 26bf
00000120: fa50 82d6 9b48 29bf 21d4 b4c0 09c8 2abf
00000130: fd06 2e15 b527 2abf bd12 03f6 d476 27bf
00000140: b7b8 5017 6348 23bf b4e6 0353 8efd 1cbf
00000150: ecb3 ef92 34ec 13bf d615 c2e0 1007 09bf
00000160: 64b7 a9c6 31bc fcbe 96a1 15c1 0727 eebe
00000170: 1416 0dfc a1ea dcbe 664d a368 2f58 c9be
00000180: 1f08 803c abb1 c73e 7cea d829 af78 e43e
00000190: 9a03 01c7 47e6 fc3e e19e 93d1 c4a6 103f
000001a0: c4be 1ec0 a041 1f3f c886 4742 e0c4 273f
000001b0: 415d af35 43ed 2c3f 4e8e 9d29 7637 2b3f
000001c0: 34ea 91a4 fe82 213f 10f2 3b75 30aa f23e
000001d0: 9982 0817 7f02 1cbf c5c5 721a 32e5 2bbf
000001e0: de4f 15ad 63b9 32bf ced6 e3d5 b80b 35bf
000001f0: 8c4e 56aa 9d00 35bf 1850 4190 99fa 32bf
00000200: ed91 2080 6043 2fbf a7ce 8c6f 0d84 27bf
00000210: b9d2 d02c bb29 20bf 1f0f 74e8 294e 14bf
00000220: 1f39 e35f 4150 07bf 742b 6871 a476 f8be
00000230: 6d53 b158 f175 e7be 637c f552 0790 d4be
00000240: 141b 134c f0d8 db3e 3232 93ea 0954 f73e
00000250: c74b efb0 b329 103f ef73 e6df c880 223f
00000260: fdbc 5c6f 7b79 313f 88f2 e5df 292a 3b3f
00000270: afe2 d31c 524a 413f 91c8 01a9 32cd 413f
00000280: 1801 675c f69b 3c3f 208f 6adb 8372 2f3f
00000290: b8f3 190e 60c3 f33e 3709 b929 cb2c 26bf
000002a0: 2a86 4e9d 1069 33bf d755 c654 d58b 37bf
000002b0: aae6 717f d119 38bf 8144 a9fb 9bf5 35bf
000002c0: 4de9 bec2 c321 32bf 7f9b acbf dd4b 2bbf
000002d0: 0bbd 7204 cbc3 22bf 40e8 fd92 2d93 17bf
000002e0: b12d 170e 5511 0bbf b410 e628 2367 fcbe
000002f0: c5ea ca47 1a3d ebbe 7e05 d12d b7df d7be
00000300: 367d 15c3 3e2a e53e c0b2 0e01 ca70 013f
00000310: a55f b56c 61eb 173f 1373 c0c9 db47 2b3f
00000320: 828f e6aa ebda 393f 44bf 6f79 4257 443f
00000330: 1029 b82a 7083 4a3f df0c 0c87 cb7d 4c3f
00000340: bc7b 0739 4dec 483f 3ce9 eb07 5c17 413f
00000350: fafd 3b0b bcc8 2f3f a0c7 60b1 a02b d53e
00000360: 014b 0ccc 4a0a 24bf 525c b185 4a85 2ebf
00000370: b38f eed3 999f 30bf f41e 2228 f3e0 2ebf
00000380: bda0 32a9 92a4 29bf 5891 914b 1f55 23bf
00000390: 8296 3081 4897 1abf c4c6 2a63 85b4 10bf
000003a0: 360f 0569 372e 03bf 9d50 31b5 7120 f4be
000003b0: e11f 6365 414d e3be 1ada cce2 dcea d0be
000003c0: 1e26 41b8 3718 e73e dec1 651f c7b7 023f
000003d0: 3ecf 5e05 3a66 193f 88f0 8b24 00db 2c3f
000003e0: 51d4 a7ec e472 3b3f 28f6 08b7 a4dd 453f
000003f0: 7e38 8458 0c2e 4d3f 1eb6 6e3b 3151 503f
00000400: 0213 5aee 69a0 4e3f fc98 ff81 bc32 483f
00000410: 77c6 47d9 e03b 403f ea04 0bd8 d7e8 323f
00000420: 8cb5 f0e8 3d32 243f ad41 3a5e f309 163f
00000430: 5104 ddd5 2fb0 0b3f df84 b702 1424 043f
00000440: fca4 f395 66b8 fe3e 8d2c fe1a 3097 f63e
00000450: 58bd 6852 67df ee3e d2ec fb05 a85d e33e
00000460: 01c9 6ca0 743a d63e d0a0 650d cd52 c73e
00000470: 069d f786 015e b63e a4a2 3509 aa9a a33e
00000480: 7a8c 62e1 5e74 e03e a6fd 5fa3 f5d7 f93e
00000490: 38ba afaa fc2a 113f bcf3 59f9 9c59 233f
000004a0: 1eb1 1c28 898b 323f f813 5a7b e948 3e3f
000004b0: 39b6 5a34 dd1e 453f 9970 f57b a94c 493f
000004c0: 0502 c17b 465e 4a3f 4bca 1426 1498 483f
000004d0: 9cc8 c331 e796 453f e513 c4b0 d206 433f
000004e0: 0cc9 a639 7188 413f 4984 1b0c 97a5 403f
000004f0: ac4d 1f14 1517 3f3f 862a b17e a174 3b3f
00000500: 54d8 74d9 cb73 363f b283 9c4e c3da 303f
00000510: 55cb 2e97 3e28 273f 3bbe 5450 aa16 1d3f
00000520: 858d 7ae8 d2b2 103f 531e d9ca a885 013f
00000530: 3591 d8f2 cacd f03e 9446 3a92 c874 dd3e
00000540: 887f 1f73 105c b03e 607a a01f 0aab bb3e
00000550: 20e1 99d7 d03b be3e 80f7 0073 0700 bf3e
00000560: 00b5 9380 1ead df3e 5005 926f 079d 013f
00000570: 14a8 19d0 afb9 193f 1005 2a04 b93a 2b3f
00000580: 864d b00f 31d2 363f b160 7642 7f35 403f
00000590: 52a6 f103 6e9c 443f ba59 fe88 0d59 483f
000005a0: 6838 b06e ed1a 4b3f 4eee 33d7 7255 4c3f
000005b0: 923a 46ad 1788 4b3f 0657 80fd 07a8 483f
000005c0: f33d 9424 6d40 443f ac9f 817e 4c71 3e3f
000005d0: a392 9ea4 77eb 343f b476 35e1 ac47 2a3f
000005e0: f1b8 8c92 482c 1e3f bd82 009c 45a9 0f3f
000005f0: d82e c4c6 0a5d fe3e e1a7 9d78 d69c ea3e
00000600: 114c d7da 0d9e ddbe 9510 ca6b c8eb f9be
00000610: ac4a 1339 196f 12bf 2238 f013 5d4c 25bf
00000620: 807c f278 b4f0 33bf 3f23 355e 930f 3ebf
00000630: e120 49b5 69f2 41bf 5bbf 8cbe bb30 40bf
00000640: a692 d31c 903f 32bf 4e82 fc5d 2ec6 073f
00000650: 9da7 dce0 3488 393f e9e4 d3c2 f15a 463f
00000660: 28a4 4f96 11fc 4c3f c36d 31f6 d817 503f
00000670: feb3 3401 b1fb 4f3f 1930 43e4 5adc 4c3f
00000680: 94d3 1493 a1c2 473f 1f25 c8b4 bbde 413f
00000690: a924 75be 7590 383f 087a e428 08dc 2e3f
000006a0: 6d59 b702 31b7 213f 5e13 6af5 e396 123f
000006b0: 6749 5bf4 d3d3 013f 228a 6bce 1d40 ef3e
000006c0: e37d d26e 9afd eabe 6b7f 0a3b d4b4 06bf
000006d0: dc5c e53f c58b 1fbf 3611 852d d512 32bf
000006e0: 2bec 8b28 cb0d 41bf b661 9e8c 0d6e 4abf
000006f0: 236e 4d35 5cb8 50bf 7b0b 3a98 5f04 51bf
00000700: 71e1 b09c 75ad 4abf d1dd ec3f 4d14 3bbf
00000710: 80c3 dac8 15ed 013f d0a4 4f4f 252d 3b3f
00000720: 8fb4 4c6f 1409 463f 1597 8594 9337 4a3f
00000730: d22b 7379 2dab 4a3f f876 e251 2840 483f
00000740: c556 a71c fb02 443f 3361 315a 011f 3e3f
00000750: 379a f076 afb4 343f 8575 9a02 6003 2a3f
00000760: 2d8a 45fd fddd 1d3f cbb1 7c11 2557 0f3f
00000770: 7a44 b524 490e fe3e 5329 da90 cf57 ea3e
00000780: b7d5 4489 c3cc edbe cdbf 9ca8 a0a1 08bf
00000790: 8b11 5473 6cec 20bf 8060 f95d b850 33bf
000007a0: f971 cca5 364b 42bf fda5 a475 0bb8 4cbf
000007b0: 8b3f f352 95a2 52bf c2e4 935b 0adf 53bf
000007c0: a905 ca80 bb21 51bf f08c 1849 d3b9 46bf
000007d0: 47a7 a13c 3cba 32bf 70ef 83c3 d407 103f
000007e0: 0c3d 0dc5 292e 333f bb6c 45d7 b3d4 3a3f
000007f0: 278b 844d 5e9d 3c3f b1dd c8c5 8e68 3a3f
