src/kernel/space_time_kernel1.npy (npy, 169408 bytes, 1 tensors)

array f8 [23, 23, 40]
0	0xbe470466617c86b5	-1.0718213025074654e-08
1	0xbe4b7c3dd0d641aa	-1.2798848670806924e-08
2	0xbe491924fe7e8c7e	-1.1687269776803656e-08
3	0xbe260e499f7c216e	-2.5676343238029496e-09
4	0x3e586cfddd219552	2.274825112342697e-08
5	0x3e7485721c8cd8b9	7.644769718377507e-08
6	0x3e8761aa15036e56	1.7420576137778913e-07
7	0x3e9653bc069af60f	3.326995342381496e-07
8	0x3ea2f2af4a23c56d	5.646940233456576e-07
9	0x3ead44761ebe4fa1	8.722373059260536e-07
10	0x3eb4cd4af88cb5ea	1.2398913630905312e-06
11	0x3ebb5d4b40569453	1.6310470994731956e-06
12	0x3ec0b23a7314e44f	1.990342661042694e-06
13	0x3ec2e74dfdb62816	2.2534768341952057e-06
14	0x3ec3d1c097886184	2.362650033182504e-06
15	0x3ec32661d4c67240	2.2828495842132726e-06
16	0x3ec0e2cc1aab34b6	2.012959347075402e-06
17	0x3ebaa1067d3a845b	1.5872123996579364e-06
18	0x3eb1e3ad23e81d16	1.066288987440678e-06
19	0x3ea17fc83e317ad6	5.215152864104776e-07
20	0x3e535e42ef725843	1.803805013393163e-08
21	0xbe9aad4ddbdd676b	-3.975178194303013e-07
22	0xbea78e501c821bd6	-7.020208210452901e-07
23	0xbeadfdb014fcc02a	-8.938004984800813e-07
24	0xbeb08bf9a7940786	-9.862648354123841e-07
25	0xbeb0c8b9dab01a7e	-1.0004094785923607e-06
26	0xbeb015550ad989b4	-9.586411055187136e-07
27	0xbead8f5154791546	-8.809517248539948e-07
28	0xbeaa4895cee28104	-7.833104101080954e-07
29	0xbea6bc1aa237a6ce	-6.775492846198521e-07
30	0xbea33125bde12ab1	-5.719656390815645e-07
31	0xbe9fae85b1901c91	-4.720945284146224e-07
32	0xbe99982e6386a5b2	-3.8138714189092387e-07
33	0xbe943faddc2326bc	-3.017298376815612e-07
34	0xbe8f626d245ee014	-2.338325819065042e-07
35	0xbe87d40ceced4779	-1.7753483524479556e-07
36	0xbe81b9a36d1e2333	-1.3206265819475353e-07
37	0xbe79d6535696c24a	-9.625110455078237e-08
38	0xbe72734bd1cfef7b	-6.87330054676689e-08
39	0xbe69d1879df81590	-4.809065834100224e-08
40	0xbe44448e05c294de	-9.43792615615513e-09
41	0xbe4833c3cc71c83a	-1.1270030587775022e-08
42	0xbe4619a9c7894ee9	-1.0291229411328882e-08
43	0xbe236bd72950cd2f	-2.2609312846618633e-09
44	0x3e558212ee36137c	2.0030980330611726e-08
45	0x3e7211ec67986fd1	6.731604598085998e-08
46	0x3e8496adc78a13ef	1.5339694294319213e-07
47	0x3e93a8fdf0a97cb1	2.929586890073023e-07
48	0x3ea0af45a8423a81	4.972415159775515e-07
49	0x3ea9c57d4d60216f	7.680488589576664e-07
50	0x3eb251303e48ee16	1.0917867651190353e-06
51	0x3eb8188394eec6f1	1.4362190829783227e-06
52	0x3ebd6758af435bd9	1.7525969129761174e-06
53	0x3ec0a54059e9e2e3	1.984299799414787e-06
54	0x3ec173b1c034ca19	2.080432297235353e-06
55	0x3ec0dccb565d16f9	2.0101639845196344e-06
56	0x3ebdbce19a3293cc	1.7725120436209625e-06
57	0x3eb772bbe804f8c7	1.397620423018328e-06
58	0x3eaf814568797dea	9.389211336855708e-07
59	0x3e9ed158f60a1412	4.592204643566411e-07
60	0x3e510dffb3a645ca	1.58834112334584e-08
61	0xbe977d8bcd33ac88	-3.500344522694222e-07
62	0xbea4bdfe7ee30204	-6.181646748024674e-07
63	0xbeaa689734718a02	-7.870363355584546e-07
64	0xbead23fa9634c2a7	-8.684558391644529e-07
65	0xbead8ef793829a81	-8.809109095689572e-07
66	0xbeac53095bc81783	-8.441317543301508e-07
67	0xbeaa07677929127c	-7.757223435341812e-07
68	0xbea724dba599c3a1	-6.897442503384378e-07
69	0xbea404e504f796da	-5.9661625500799e-07
70	0xbea0e6460e2b72c4	-5.03644539708361e-07
71	0xbe9be5b91fca94c1	-4.1570299894940304e-07
72	0xbe968986813151c8	-3.3583057862843025e-07
73	0xbe91d47d8dd1f770	-2.6568831208012064e-07
74	0xbe8ba2b78491d1eb	-2.0590136021497034e-07
75	0xbe84fb66cc19681c	-1.563283600788367e-07
76	0xbe7f373cf23793b0	-1.1628781897801083e-07
77	0xbe76c03f22b48cf1	-8.475394313151598e-08
78	0xbe703f199dbb4648	-6.0522871543687e-08
79	0xbe66bc0610b5787c	-4.2346245699861306e-08
80	0x3e40533a6404ebb6	7.601971608295945e-09
81	0x3e437e81921f9b1b	9.07767777956371e-09
82	0x3e41cd14c3c1c66b	8.289282253852e-09
83	0x3e1f49579a7a2b26	1.8211135740978826e-09
84	0xbe5152fafd967914	-1.613436482127334e-08
85	0xbe6d1c171b04de05	-5.4221092839924795e-08
86	0xbe8095606869310e	-1.2355672059301204e-07
87	0xbe8fabda87ab954d	-2.359695974930562e-07
88	0xbe9ae0c48eef6c08	-4.0051339927704015e-07
89	0xbea4c2155faa163e	-6.186407398168148e-07
90	0xbead8201a5d40f78	-8.794020903983598e-07
91	0xbeb3688e6efd2c19	-1.1568321802320516e-06
92	0xbeb7af0e4f09152b	-1.4116652061896646e-06
93	0xbebad0a0005b60dd	-1.5982950584605745e-06
94	0xbebc1d31458decb9	-1.6757269547241313e-06
95	0xbebb2a19f35ed6d1	-1.619127897962135e-06
96	0xbeb7f3f3a1945f29	-1.427706257500379e-06
97	0xbeb2e306865085f8	-1.1257420962157887e-06
98	0xbea96056a168e92a	-7.562733255813608e-07
99	0xbe98d2a3193d0f5c	-3.6988856176957407e-07
100	0xbe4b795df3ae8fcf	-1.2793620043413163e-08
101	0x3e92ebbbfb978e14	2.819424441398259e-07
102	0x3ea0b50b3d8a0d01	4.97913442990347e-07
103	0x3ea54574e9a9f6e1	6.339345931108712e-07
104	0x3ea778cb15b053f6	6.99515605775469e-07
105	0x3ea7cef81bf7184e	7.095477982325608e-07
106	0x3ea6d07f162104ca	6.799232716918257e-07
107	0x3ea4f72d05862ab6	6.248215056887027e-07
108	0x3ea2a44c7468f321	5.555686833424287e-07
109	0x3ea01ff3a2746bac	4.805568253636635e-07
110	0x3e9b395f401ca1ed	4.0567084634787935e-07
111	0x3e9678729c15fd0a	3.3483652480538623e-07
112	0x3e92272ecdb8ac98	2.705016421712468e-07
113	0x3e8cb92013458e57	2.1400411188552545e-07
114	0x3e864279e289cea1	1.6584748265305167e-07
115	0x3e80e6817afdafeb	1.259178907768568e-07
116	0x3e7924b4fb014cb0	9.366641395948703e-08
117	0x3e72534257e23f21	6.826680551603199e-08
118	0x3e6a2c10b50e1fb0	4.87493908635418e-08
119	0x3e624fdb92b062cb	3.410865397779433e-08
120	0x3e6bc8b156806127	5.175165079823545e-08
121	0x3e7096b5ad1360a1	6.179775914898338e-08
122	0x3e6e4bc440beab49	5.643062914115772e-08
123	0x3e4a9f9c8b055804	1.2397525090437185e-08
124	0xbe7d7bf62a49d47c	-1.0983729709943513e-07
125	0xbe98c569e575690c	-3.691188558884254e-07
126	0xbeac39459a51a686	-8.411323518923325e-07
127	0xbebaf370c873e506	-1.6064011861257419e-06
128	0xbec6df3e0ed63d4d	-2.7265597199521556e-06
129	0xbed1aa0f70f25208	-4.211496857160515e-06
130	0xbed91c23d8295e8a	-5.98667191072762e-06
131	0xbee0840807258a3f	-7.875322101729146e-06
132	0xbee4276776de19ec	-9.610139126936674e-06
133	0xbee6d1816d4041e8	-1.0880652020290587e-05
134	0xbee7ec81a4b06feb	-1.1407782173171419e-05
135	0xbee71da56bbfc19a	-1.1022474943418043e-05
136	0xbee46208147015d3	-9.719341177226198e-06
137	0xbee01266f793e0b6	-7.663671328192765e-06
138	0xbed5981bf7a1ebdb	-5.14845293697171e-06
139	0xbec51f87061486ee	-2.5180761872447296e-06
140	0xbe7761190e476a12	-8.709463689781366e-08
141	0x3ec019d024449c60	1.9193687724908492e-06
142	0x3ecc6f2abf006646	3.389626265015697e-06
143	0x3ed219da756a53f2	4.315612236145844e-06
144	0x3ed3f93a9ec28d67	4.762065582894623e-06
145	0x3ed4428f9e7a6849	4.830361355035304e-06
146	0x3ed36a03f5aba36a	4.628687600962596e-06
147	0x3ed1d73d5bd78f36	4.2535734201298535e-06
148	0x3ecfba0c7515983e	3.782123635320675e-06
149	0x3ecb716cb59228b2	3.271468284331529e-06
150	0x3ec72aa411d63514	2.7616698747347883e-06
151	0x3ec31f16f799fee2	2.2794537784530565e-06
152	0x3ebee51cb341cbce	1.8414836633589575e-06
153	0x3eb87132db63dbc9	1.4568675915074621e-06
154	0x3eb2f12984c9d680	1.1290335521196555e-06
155	0x3eacc358cec42486	8.572063996691211e-07
156	0x3ea5655d8b73d331	6.376492568670523e-07
157	0x3e9f30205496702e	4.647373158196626e-07
158	0x3e964578e18a1e0d	3.3186936002806625e-07
159	0x3e8f2a565a60676a	2.3220017658712865e-07
160	0x3e80a2b09ef9dad8	1.2394418956773536e-07
161	0x3e83dd64aa5b978a	1.4800442221031542e-07
162	0x3e8223ba2e0cb91a	1.3515025101260544e-07
163	0x3e5fe1a0c3eb9e68	2.969182965719607e-08
164	0xbe91a74e15e14328	-2.630581742479263e-07
165	0xbeada9c7dd80c08a	-8.840324268230012e-07
166	0xbec0e6189d09be0d	-2.014495500461466e-06
167	0xbed0230198a10d1d	-3.847299362705404e-06
168	0xbedb63986d9ff6ca	-6.530057101270749e-06
169	0xbee5271f77f331a0	-1.0086452446955035e-05
170	0xbeee11a27b033848	-1.4337961914991909e-05
171	0xbef3c706b04a86ea	-1.886124211359408e-05
172	0xbef82255ff66947f	-2.3016094894541275e-05
173	0xbefb53254bfc79e5	-2.605894837792192e-05
174	0xbefca6095389c0f0	-2.7321414764747956e-05
175	0xbefbae52c4d14f37	-2.6398611499735976e-05
176	0xbef8688aaaed22a4	-2.3277631665127377e-05
177	0xbef33ef4d2c4cc3b	-1.8354342658354955e-05
178	0xbee9dbdb4e2165af	-1.233044389807838e-05
179	0xbed94b760c37a51f	-6.030743125753635e-06
180	0xbe8bff1897a804cf	-2.085899487164526e-07
181	0x3ed347d4abd8d0f3	4.5968505993263635e-06
182	0x3ee1065d95dbd3d0	8.118088483647078e-06
183	0x3ee5acfe7628a841	1.0335806739442926e-05
184	0x3ee7eb0aa70f9de6	1.1405053756476579e-05
185	0x3ee842db22845329	1.1568620792470879e-05
186	0x3ee73f8b79d0619f	1.1085616103343613e-05
187	0x3ee55d398aa0a65d	1.018722499075973e-05
188	0x3ee2ff096ed532d1	9.058111994386498e-06
189	0x3ee06e70476fb34d	7.835102435260798e-06
190	0x3edbbde265ec7794	6.614145233977803e-06
191	0x3ed6e5d26ce05dae	5.4592471325979295e-06
192	0x3ed27f8ac90fea64	4.41031728914496e-06
193	0x3ecd44ef207afe76	3.4891693337644744e-06
194	0x3ec6aed2fef53794	2.7040132334681694e-06
195	0x3ec138c494458f93	2.0529925299095596e-06
196	0x3eb99f1766c47dec	1.5271574752075396e-06
197	0x3eb2ac74dd6a5f0e	1.113036764676824e-06
198	0x3eaaab7503b7a9b1	7.948206141560253e-07
199	0x3ea2a8fd89c7ba82	5.561148728719971e-07
200	0x3e8afe5d960e907c	2.0111810797058467e-07
201	0x3e901de8772f21ef	2.401594578175117e-07
202	0x3e8d6f25891b0a06	2.1930162979161136e-07
203	0x3e69ddbc2f0a124f	4.817946386729742e-08
204	0xbe9ca540b7868a90	-4.2685149239711943e-07
205	0xbeb81106b87764bb	-1.4344757078759357e-06
206	0xbecb6bbe08275889	-3.268822241535181e-06
207	0xbeda2f2df79d518e	-6.242822445507921e-06
208	0xbee638af420b2296	-1.0596000778477233e-05
209	0xbef1296d1573f4bd	-1.6366787659362283e-05
210	0xbef865491d13c5ea	-2.326550185655598e-05
211	0xbf000bc2d5f8dd4b	-3.060520498048921e-05
212	0xbf0394a3de5157ea	-3.734707915074838e-05
213	0xbf062b56a91f121a	-4.2284567043835745e-05
214	0xbf073e4a05347416	-4.433310882687878e-05
215	0xbf0675502fd6fb59	-4.283572159690411e-05
216	0xbf03cd998cc7911b	-3.777146193664952e-05
217	0xbeff3aba7b1377ae	-2.978268429820019e-05
218	0xbef4fadb6718e040	-2.000800163257121e-05
219	0xbee485b48e11270c	-9.785788679067822e-06
220	0xbe96b6d8a0b9b3f3	-3.3846859601762885e-07
221	0x3edf4920e56835b0	7.4590821754877255e-06
222	0x3eeba01ab3dc213d	1.3172820782184606e-05
223	0x3ef1960a01b781ee	1.67714025404181e-05
224	0x3ef367c74776d8be	1.850641680586277e-05
225	0x3ef3af06433d588b	1.877182894757154e-05
226	0x3ef2dca385a89dfa	1.798808112077157e-05
227	0x3ef15551ff8298ae	1.6530306283479047e-05
228	0x3eeed3026a925351	1.4698150453443299e-05
229	0x3eeaa994751cc055	1.271363331376022e-05
230	0x3ee681f034bee4d9	1.0732446433669322e-05
231	0x3ee293d8269b26c1	8.858450388688086e-06
232	0x3ede04214bf7ffb3	7.156403796226775e-06
233	0x3ed7bf34f2ba1ed7	5.661702555344065e-06
234	0x3ed267392763c29b	4.38766857356666e-06
235	0x3ecbf1e3c0ac34db	3.331289467728606e-06
236	0x3ec4c98e8139d453	2.4780429244650013e-06
237	0x3ebe4d02a96e73ee	1.8060697237539232e-06
238	0x3eb5a349dc2e7b4f	1.2897161105540854e-06
239	0x3eae4762d736b955	9.023801070174028e-07
240	0x3e8f572b29119e30	2.3350493852661636e-07
241	0x3e92b651af38820b	2.7883326867049467e-07
242	0x3e911647c0b80e7e	2.5461662353529414e-07
243	0x3e6e080f0f74de89	5.593799017950214e-08
244	0xbea0a113d7013b6c	-4.955890471421983e-07
245	0xbebbf129066774d1	-1.665474906090929e-06
246	0xbecfd628a06fdb08	-3.7952133911072103e-06
247	0xbede669e5d941e65	-7.248128406140904e-06
248	0xbee9ccc16e71ad7d	-1.2302315964349574e-05
249	0xbef3eceaa59d1afa	-1.9002395084367713e-05
250	0xbefc52fcfb7470b0	-2.7012036040039474e-05
251	0xbf02a13ff36ee20b	-3.553368008319201e-05
252	0xbf06bbd853d81508	-4.3361224452845694e-05
253	0xbf09bd42a5682057	-4.909381521051085e-05
254	0xbf0afc7cc1833f85	-5.1472241638371995e-05
255	0xbf0a1325c17d07fd	-4.973372432327814e-05
