src/kernel/space_time_kernel2_spatial.npy (npy, 55616 bytes, 1 tensors)

array f8 [17, 17, 24]
0	0xbebb0b7358555088	-1.6119914517292246e-06
1	0xbed5f65b38c5caa8	-5.2362273773471705e-06
2	0xbeedd6ff5484bf73	-1.422874142117923e-05
3	0xbf00f5449544e7cc	-3.2344966401656386e-05
4	0xbf101fcdbf7daeab	-6.150906835749685e-05
5	0xbf19a6a5c7198020	-9.785067393286483e-05
6	0xbf21117d15f00be9	-0.00013022090840317184
7	0xbf2300846411f9b2	-0.00014497390842289692
8	0xbf21b2728951f7c7	-0.0001350178542089393
9	0xbf1b93596a933908	-0.0001051925015815616
10	0xbf11f8fb3e480b77	-6.8559965775745e-05
11	0xbf03992a9de68a93	-3.738080316686046e-05
12	0xbef1e0c4438d6bf1	-1.7049784421057456e-05
13	0xbedb493d1d2a4ddd	-6.505510514859489e-06
14	0xbec16b4ae6042378	-2.076519919684232e-06
15	0xbea29aea720ebf01	-5.544763760269724e-07
16	0xbe809fb5de1fd66a	-1.2385747455406346e-07
17	0xbe58d9ff37d9b960	-2.3144810060187473e-08
18	0xbe2f1439ab65b187	-3.618072365299819e-09
19	0xbe0041d0ffee9fbe	-4.731437462867586e-10
20	0xbdcc74b03eb2acb5	-5.176082465179917e-11
21	0xbd94d55d5b590edf	-4.736979408821967e-12
22	0xbd59850465c8fb5c	-3.626553045708663e-13
23	0xbd1a268195c23ba3	-2.322623410054138e-14
24	0xbeb58089f1bc477e	-1.2816253222619376e-06
25	0xbed1761836542d54	-4.1630999920814795e-06
26	0xbee7b97080172c29	-1.1312662539083862e-05
27	0xbefaf71cb4c8456c	-2.5716096660193517e-05
28	0xbf09a3adfe263c54	-4.890322431371692e-05
29	0xbf1464dc2db1f340	-7.779687750715265e-05
30	0xbf1b23fc7db419d8	-0.00010353306372588107
31	0xbf1e372363de28c7	-0.00011526254180985455
32	0xbf1c23edddf8e614	-0.00010734690976556992
33	0xbf15ec9609fda12d	-8.363405004064148e-05
34	0xbf0c94161840cfe4	-5.450909068863122e-05
35	0xbeff29de3c4f2462	-2.97198746641896e-05
36	0xbeec6d95024d14a6	-1.3555552934039279e-05
37	0xbed5b1a9f9758ba8	-5.172252620286063e-06
38	0xbebbb2c8ebc198cb	-1.6509520000207007e-06
39	0xbe9d95949ab1f96f	-4.4084040479860347e-07
40	0xbe7a6f10e2a9386d	-9.847377017391628e-08
41	0xbe53c226b093b06a	-1.840144662073665e-08
42	0xbe28b5a75c680366	-2.87657428714659e-09
43	0xbdf9d9c384a6f2c6	-3.761763163573194e-10
44	0xbdc69fbe5d4399cc	-4.1152813498944615e-11
45	0xbd90905466e04c26	-3.766169327304473e-12
46	0xbd544a1f3ab38218	-2.8833169127047625e-13
47	0xbd14ca83d5f3853a	-1.8466183385839532e-14
48	0x3ea0d2e41cfb2787	5.013881096635087e-07
49	0x3ebb5307fb15f7de	1.6286576108577343e-06
50	0x3ed290036b976fd8	4.425657317477066e-06
51	0x3ee5192b9be00475	1.00604637474097e-05
52	0x3ef40f96fa1fb7a3	1.913156268778356e-05
53	0x3effe9ddff1e512c	3.0435126923204398e-05
54	0x3f053c47f19425fb	4.050344996115934e-05
55	0x3f07a42b31114471	4.509217081561594e-05
56	0x3f06048988828cd7	4.1995474988421113e-05
57	0x3f01276e12ff08f0	3.27187029820641e-05
58	0x3ef65c4ab5b32bf5	2.132464883856582e-05
59	0x3ee862163410059d	1.1626792572274827e-05
60	0x3ed63e2a46806ed3	5.303104536859721e-06
61	0x3ec0f953eb353291	2.0234509407245783e-06
62	0x3ea5ac029f93907f	6.458733984552076e-07
63	0x3e8725c306d41c78	1.7246236742199246e-07
64	0x3e64aeb96fd8a0fb	3.8524190043155034e-08
65	0x3e3eeb40801ed028	7.198879716235392e-09
66	0x3e13555a2c37469c	1.1253524092311214e-09
67	0x3de439e81164fc70	1.471649544390247e-10
68	0x3db1b39b7cddd0aa	1.6099503504779924e-11
69	0x3d79eb7bc091efa6	1.4733732916241073e-12
70	0x3d3fc006ac1441b6	1.1279902100174032e-13
71	0x3d00447891a99b58	7.224205561251764e-15
72	0x3ed088c55a1f8870	3.942075098325057e-06
73	0x3eeadaa62610013f	1.2805031646579409e-05
74	0x3f023e3b9856c8d1	3.479594583257059e-05
75	0x3f14bc37cf242da2	7.909861213677716e-05
76	0x3f23b7353d3010ac	0.0001504185189277243
77	0x3f2f5d44381a8665	0.00023929078820565937
78	0x3f34deb9752a5e70	0.00031845119262061735
79	0x3f373c034e0b086d	0.0003545291965957379
80	0x3f35a388c8957ebf	0.00033018197480847925
81	0x3f30dbdadcb29227	0.0002572450000093728
82	0x3f25f9c7578364b0	0.00016766126987625063
83	0x3f17f6a9997c999a	9.141359475659528e-05
84	0x3f05dc2ba2cad441	4.1694718992437315e-05
85	0x3ef0ae8bd15df99c	1.5909024191790308e-05
86	0x3ed54c87e50f5bb7	5.078065059080831e-06
87	0x3eb6bfc80c2a628c	1.355954780157611e-06
88	0x3e94539a9a81b8c7	3.0288961250832867e-07
89	0x3e6e630879937a3d	5.659991515206508e-08
90	0x3e43002cefc5a70b	8.84788375266288e-09
91	0x3e13e0cbe5622986	1.1570583567080617e-09
92	0x3de1659eb31b9f5e	1.2657949129304806e-10
93	0x3da97949f87aaa95	1.1584136224025291e-11
94	0x3d6f34253baceca7	8.868622993569334e-13
95	0x3d2ff99a876516da	5.679903511733526e-14
96	0x3ee1281be2e28849	8.180940394734422e-06
97	0x3efbdd7009d976fc	2.657412607331206e-05
98	0x3f12ee09e11b9f00	7.22116021979434e-05
99	0x3f25840a41295d1c	0.00016415238549669856
100	0x3f3475345f5dc95d	0.0003121617186173842
101	0x3f4045c27c71a7c5	0.0004965972556309975
102	0x3f45a7d86fa3bda4	0.000660877877889311
103	0x3f481beb59e2b34e	0.0007357501197212486
104	0x3f46741063164b2c	0.0006852226271568443
105	0x3f417e521050d331	0.0005338574125120841
106	0x3f36cd8e118a88ca	0.0003479453894589367
107	0x3f28dd985ba36216	0.00018970951879883406
108	0x3f16aed50868f1ba	8.652854203545268e-05
109	0x3f014f4e62db3d0f	3.301580396241666e-05
110	0x3ee619c90f4e9678	1.0538446511730611e-05
111	0x3ec79b02e51e6a19	2.8139964251665107e-06
112	0x3ea5177ce6583d1c	6.285831203894831e-07
113	0x3e7f87ddc4e197e7	1.1746111392013072e-07
114	0x3e53b7483747e60d	1.836190528963522e-08
115	0x3e24a05bcfb0145c	2.4012291022765993e-09
116	0x3df20d4585380e64	2.6268887518257065e-10
117	0x3dba6ec6960a93df	2.404041668650633e-11
118	0x3d80306cdacabef6	1.8404945183461654e-12
119	0x3d4096def0610308	1.1787434515663584e-13
120	0x3ee7acdaf05f860e	1.128922259491501e-05
121	0x3f0339dd650faeeb	3.667075055332848e-05
122	0x3f1a1f4075ca9f08	9.964781697624156e-05
123	0x3f2db0c67eb46784	0.00022652075799883483
124	0x3f3c3b09c3c22b29	0.0004307650413088332
125	0x3f467481a6f754b4	0.0006852753703535859
126	0x3f4de22f4b097750	0.0009119730876354457
127	0x3f50a271f2db8f52	0.001015292432776389
128	0x3f4efbfe96ca2e99	0.0009455674276792225
129	0x3f4823d28084634f	0.0007366922227759284
130	0x3f3f777c9e6c7595	0.0004801444287510723
131	0x3f312813674f2c5c	0.0002617881175949793
132	0x3f1f4d1753905d11	0.00011940436242273792
133	0x3f07e2f1f74bba1d	4.555989190701082e-05
134	0x3eee7f6a4cb95ff0	1.4542444112183834e-05
135	0x3ed04980979f50e0	3.88315162954211e-06
136	0x3ead1afacca4bfc9	8.674081979683582e-07
137	0x3e85c15a73ce22b7	1.6208951505679235e-07
138	0x3e5b34f4c5bfe0dd	2.533836283844098e-08
139	0x3e2c769696a9c656	3.313556697520527e-09
140	0x3df8e9161b52ea6a	3.6249539075637724e-10
141	0x3dc23ce0f55f845b	3.317437875762563e-11
142	0x3d865710eb033f53	2.5397755392160215e-12
143	0x3d46e46f6423d9fe	1.6265975016265877e-13
144	0x3ee76f0d3da86026	1.1174104590103215e-05
145	0x3f0307ad000debea	3.629681305646739e-05
146	0x3f19db0f921e5f0f	9.863169228052311e-05
147	0x3f2d6344e08944cc	0.00022421088967176093
148	0x3f3bf157c7191414	0.00042637246142290916
149	0x3f4639e3550516d5	0.0006782875080168735
150	0x3f4d942cb1862b0d	0.0009026735524896038
151	0x3f50770564ac8f8d	0.0010049393337760754
152	0x3f4eab1c55292064	0.000935925325685549
153	0x3f47e4ce3e617c90	0.0007291800545877903
154	0x3f3f2557fd3a4419	0.0004752483193693493
155	0x3f30fb4a0245a35d	0.0002591186223726472
156	0x3f1efb615e97db9d	0.00011818677707951674
157	0x3f07a497114ac43b	4.509531041686122e-05
158	0x3eee2fcd410d0213	1.4394152488273815e-05
159	0x3ed01efc3839c7b2	3.843554512538153e-06
160	0x3eaccf003817fa1a	8.585630981160008e-07
161	0x3e85888fce7f61d2	1.6043666239866033e-07
162	0x3e5aedeef18647a9	2.507998350801016e-08
163	0x3e2c2c4925cdc064	3.279767830958436e-09
164	0x3df8a80ee556fff1	3.5879896739449383e-10
165	0x3dc20d44fa2b6e58	3.283609432206416e-11
166	0x3d861cbf7381ab23	2.513877042637874e-12
167	0x3d46a8ace262c3c5	1.6100108272613002e-13
168	0x3edd4fd5cb608387	6.988491056986944e-06
169	0x3ef7cdabf6a0fc8e	2.2700696185259726e-05
170	0x3f102baec4e627be	6.16860790839937e-05
171	0x3f226130f1e29c9c	0.00014022562476620904
172	0x3f3179d5218d8d33	0.00026666119952363786
173	0x3f3bcd1f2c462311	0.00042421351488335183
174	0x3f427fc711a1d6b6	0.0005645486846918765
175	0x3f44984dc5b41999	0.0006285075900514413
176	0x3f432e3ab921580b	0.0005853449567989622
177	0x3f3de32046944182	0.00045604265194845045
178	0x3f337aad1a26c177	0.000297229062336
179	0x3f253dbfe1094151	0.00016205756448296274
180	0x3f13606e783fe6a9	7.391618970578141e-05
181	0x3efd92cd8c456bf9	2.8203438675471874e-05
182	0x3ee2e11c171435d6	9.002368388989523e-06
183	0x3ec42a2f71c12208	2.403829865858324e-06
184	0x3ea2047626abb4bf	5.369611931462379e-07
185	0x3e7aef50c688c525	1.0034004705655923e-07
186	0x3e50d797d251abec	1.5685484151485827e-08
187	0x3e219eb24d2024dc	2.0512272791814614e-09
188	0x3deed75aec0b5587	2.2439949032814705e-10
189	0x3db69474498ea4bf	2.0536298874396476e-11
190	0x3d7ba8ac142b543e	1.572225057424247e-12
191	0x3d3c57b2d930f420	1.0069304593705987e-13
192	0xbbb85d76ca0238f6	-5.159509308764856e-21
193	0xbbd3c948c6d7ee54	-1.675961982754373e-20
194	0xbbeae21d022ecb25	-4.5542005657554804e-20
195	0xbbfe8e419bb1663f	-1.0352669988541919e-19
196	0xbc0d0da0edf617ce	-1.9687239062187475e-19
197	0xbc171c037d80900f	-3.131911540126053e-19
198	0xbc1ec11afb9d57f7	-4.1679872953497496e-19
199	0xbc211e8873e50d8c	-4.6401873237824415e-19
200	0xbc1fe3207b00abe2	-4.3215233858293113e-19
201	0xbc18d7e5cdf35872	-3.3669017942999385e-19
202	0xbc10311bdc183b56	-2.1944023415824866e-19
203	0xbc01a80ebedbabb6	-1.1964492845271008e-19
204	0xbbf01b4b15ca82db	-5.457133245868883e-20
205	0xbbd895214ee313c3	-2.082222087696488e-20
206	0xbbbf62eadfaa8571	-6.646327959092743e-21
207	0xbba0c2ff9d4323af	-1.7747153811097977e-21
208	0xbb7df4187d4c89ea	-3.964312541709065e-22
209	0xbb5663a3defcca5f	-7.407971228819563e-23
210	0xbb2bffe8e5ced297	-1.1580382779650732e-23
211	0xbafd4ae9f9e50701	-1.5143936158790924e-24
212	0xbac9a2e8ee0fe7ed	-1.6567113698637833e-25
213	0xba92c4ed27384b94	-1.516167429363626e-26
214	0xba56fdb724290258	-1.1607526936939624e-27
215	0xba178f342d7fd775	-7.434032663184651e-29
216	0xbedd03cea24e8634	-6.917684491820854e-06
217	0xbef78fee6e4b3beb	-2.2470695415329546e-05
218	0xbf1001bd6b2803e0	-6.106108302363035e-05
219	0xbf223184cccce911	-0.00013880487531443182
220	0xbf314c81134e20b7	-0.00026395941977642605
221	0xbf3b85030e0a3482	-0.00041991543370373957
222	0xbf424fcb971245c6	-0.0005588287441630694
223	0xbf4462e2ac24e208	-0.0006221396254551545
224	0xbf42fc7ac2112cee	-0.000579414310899832
225	0xbf3d959b13e1718a	-0.00045142208171513514
226	0xbf334826da30269d	-0.0002942175726166981
227	0xbf2506a7a703ea65	-0.00016041561639908438
228	0xbf132e2c4ad1693e	-7.316727961051859e-05
229	0xbefd4618b0639d4d	-2.7917684769199637e-05
230	0xbee2b02427b3aaf4	-8.911157456788808e-06
231	0xbec3f5e1f7305725	-2.379474545853311e-06
232	0xbea1d5ba865c66d9	-5.315207658202047e-07
233	0xbe7aa973f84f4ba8	-9.932341356261269e-08
234	0xbe50abe89394860a	-1.5526560680499417e-08
235	0xbe2170fea11b5aee	-2.030444486897766e-09
236	0xbdee875c407f8886	-2.221259012220593e-10
237	0xbdb659e32a92a943	-2.0328227522131315e-11
238	0xbd7b60ee8091f2df	-1.5562954590207448e-12
239	0xbd3c0e2f4b81f392	-9.967283590018985e-14
240	0xbee6f61aac263ec4	-1.0948822254857624e-05
241	0xbf02a57518087dde	-3.556502906953603e-05
242	0xbf19559cfbf8db5c	-9.664316802902639e-05
243	0xbf2ccb977394fe6c	-0.00021969054959390959
244	0xbf3b611fa19a9aac	-0.00041777631995857756
245	0xbf45c72c6ed740ea	-0.00066461247996055
246	0xbf4cfb82dabeddff	-0.0008844746530404789
247	0xbf50220aa4594ab4	-0.0009846786428126366
248	0xbf4e0cd2d625fbcd	-0.000917056033628566
249	0xbf47697beb2a0481	-0.0007144789763772337
250	0xbf3e84979e5906ce	-0.00046566678642899213
251	0xbf30a3a4970e1368	-0.0002538945037076552
252	0xbf1e5b7994fe06ee	-0.00011580400064128599
253	0xbf072a902cabc25f	-4.4186138969841365e-05
254	0xbeed94002f6d28d5	-1.4103950417916289e-05
255	0xbecf978faf7ecc53	-3.7660641929115374e-06
