src/kernel/space_time_kernel_combined.npy (npy, 169408 bytes, 1 tensors)

array f8 [23, 23, 40]
-1.2800097010384774e-08 -1.6701366446754597e-08 -1.8763946657690403e-08 -1.5010783308495992e-08 1.4384049862052506e-09 4.063302019458502e-08 1.1447900574426418e-07 2.3258768474598648e-07
3.943663890246687e-07 5.778845123558959e-07 7.288423155923445e-07 7.564029342972706e-07 5.44522988967127e-07 -1.5553242058310077e-08 -9.758680328900113e-07 -2.283763560220226e-06
-3.763121142377278e-06 -5.146569025352625e-06 -6.1562158372406634e-06 -6.6003722392587924e-06 -6.439161594300815e-06 -5.7864219415464075e-06 -4.850918162444176e-06 -3.851946974971094e-06
-2.951806836042097e-06 -2.2293508205445525e-06 -1.6919655179617502e-06 -1.3063963159458488e-06 -1.0282830739831015e-06 -8.199484532541845e-07 -6.561334629326373e-07 -5.224633937082752e-07
-4.1155476209355814e-07 -3.1958643185929607e-07 -2.441749862581146e-07 -1.8335881501762182e-07 -1.3523964012158362e-07 -9.79268109840577e-08 -6.958686904234976e-08 -4.851082296556929e-08
-1.5214578502389103e-08 -2.209843823475051e-08 -2.992705080962101e-08 -3.6787228755680004e-08 -3.909794978992512e-08 -3.205977866596741e-08 -1.2328287424027617e-08 1.5175991059039437e-08
2.4629432224836194e-08 -4.869874446092002e-08 -3.262330189330918e-07 -9.906766059909807e-07 -2.25915285783661e-06 -4.311631196813532e-06 -7.18303212028334e-06 -1.066092466464211e-05
-1.4254514028373539e-05 -1.7286760907682775e-05 -1.91015324821612e-05 -1.930204797089841e-05 -1.7901059962807994e-05 -1.5302753172575445e-05 -1.2130207483424993e-05 -8.995074777902348e-06
-6.322291350497092e-06 -4.29088328865643e-06 -2.8789042092701387e-06 -1.9562134336547572e-06 -1.3694756491684944e-06 -9.917345696679445e-07 -7.371869755777071e-07 -5.554626714041485e-07
-4.1953738229928103e-07 -3.1523542295680797e-07 -2.3459867225780781e-07 -1.7248829341638266e-07 -1.25103065279467e-07 -8.94035650930094e-08 -6.289210684058522e-08 -4.3512086342969113e-08
-3.425161617754065e-09 -1.1592822467352316e-08 -2.919381445752499e-08 -6.40866231556987e-08 -1.290064143878428e-07 -2.439210076259625e-07 -4.399119527662902e-07 -7.662329117054976e-07
-1.302689278907379e-06 -2.1777417718921526e-06 -3.5862800776311627e-06 -5.789567626989192e-06 -9.069750986817969e-06 -1.3616686631339112e-05 -1.9358884975017252e-05 -2.5807147927329022e-05
-3.2021922616821175e-05 -3.679262142889452e-05 -3.9011778190174636e-05 -3.8092452893230236e-05 -3.421469980156294e-05 -2.8261513443068257e-05 -2.1477587616447967e-05 -1.5034505881288434e-05
-9.711388006181605e-06 -5.7997966226520745e-06 -3.2042825971186984e-06 -1.6286346039577732e-06 -7.419801812201012e-07 -2.7369010428724075e-07 -4.0141606940305876e-08 6.804731274689626e-08
1.107125427619577e-07 1.1942293236218138e-07 1.1106677850833993e-07 9.506996586176643e-08 7.683886582947454e-08 5.939107650430047e-08 4.422672415333388e-08 3.1883164313304683e-08
3.675281330764138e-08 3.368224918848259e-08 5.447035790708158e-09 -7.724856989350621e-08 -2.633631042131015e-07 -6.27144050245719e-07 -1.2714310178644524e-06 -2.32765240473872e-06
-3.953677333308162e-06 -6.332148030238982e-06 -9.668501286059688e-06 -1.4176655791855903e-05 -2.0026480505793636e-05 -2.7227774922015197e-05 -3.545998214481153e-05 -4.392242946493088e-05
-5.133284759986514e-05 -5.617689012595852e-05 -5.7182657006364293e-05 -5.3827387550188174e-05 -4.660769270796258e-05 -3.6904743305959986e-05 -2.6500913951388356e-05 -1.699621809990093e-05
-9.39859142604563e-06 -4.0234900619867484e-06 -6.545144255326816e-07 1.1884774166710351e-06 2.017229337163223e-06 2.2455600184471074e-06 2.1552866560795294e-06 1.9165736033540653e-06
1.6241424300865992e-06 1.3282205794274696e-06 1.0545221752963646e-06 8.152478050608265e-07 6.147608365865242e-07 4.5266476583513696e-07 3.257177391471034e-07 2.291731198598351e-07
1.1201925664590367e-07 1.2565098511545275e-07 9.461538081354347e-08 -4.158193873039215e-08 -3.8511996421989216e-07 -1.0891772013285512e-06 -2.3566075295629924e-06 -4.420735297799896e-06
-7.5056857281990204e-06 -1.1772491315328879e-05 -1.726522666854351e-05 -2.3871162490420796e-05 -3.129768153828384e-05 -3.905584525011301e-05 -4.644428821838452e-05 -5.255595543031645e-05
-5.636274729781409e-05 -5.692512391712216e-05 -5.370060965642684e-05 -4.6824577758083025e-05 -3.719512386035011e-05 -2.627053712825839e-05 -1.5646599099737947e-05 -6.608316253968441e-06
1.465222158438337e-07 4.529302957734438e-06 6.8851685807972474e-06 7.750298511414759e-06 7.654920171496948e-06 7.019446737791151e-06 6.13203592304467e-06 5.170736656407244e-06
4.2375185886092434e-06 3.386887607556691e-06 2.644772430900085e-06 2.019633049449023e-06 1.5089598731131669e-06 1.103438397546624e-06 7.899297240179047e-07 5.537081897909789e-07
2.0578329324094825e-07 2.489044064189445e-07 2.3515938602624488e-07 7.606266762405348e-08 -3.7909936931314653e-07 -1.354220465637781e-06 -3.1349836690718746e-06 -6.018487021951588e-06
-1.021432246384637e-05 -1.5707187832213742e-05 -2.2120318692823286e-05 -2.8645260475906094e-05 -3.410721723463682e-05 -3.720001585633381e-05 -3.6851997767578266e-05 -3.260263631108481e-05
-2.4828144340681233e-05 -1.4693304611595045e-05 -3.823467162359568e-06 6.173277732113159e-06 1.4131133399852738e-05 1.9534796437804155e-05 2.2469868505264842e-05 2.340015873772756e-05
2.2910897388988425e-05 2.15256995220465e-05 1.9631349560063426e-05 1.7483662884385853e-05 1.5247096922706409e-05 1.3032728185862782e-05 1.0921053721510143e-05 8.971319352622152e-06
7.224004843357308e-06 5.7017164661693695e-06 4.410844328210879e-06 3.344340120331151e-06 2.485162057612592e-06 1.8098247269265928e-06 1.2916294889169569e-06 9.03321632016629e-07
2.7018413041195093e-07 3.475888762595464e-07 3.7929541978718543e-07 2.7516473503549646e-07 -1.2014644754043466e-07 -1.034482296095855e-06 -2.7429313494428108e-06 -5.484330921060679e-06
-9.301437900673984e-06 -1.3816408413868484e-05 -1.8008236496804505e-05 -2.0123963983619268e-05 -1.7888384679907234e-05 -9.117433170134772e-06 7.346667398909914e-06 3.072209404731971e-05
00000000: 819c 0281 ed7c 4bbe 6721 d32e d6ee 51be
00000010: c4c9 b35c cb25 54be 266f 75f8 211e 50be
00000020: 0081 3b0a 2cb6 183e 37ec 364d 8fd0 653e
00000030: ac92 9cf7 efba 7e3e d02e 2de9 a637 8f3e
00000040: 2c2c aab8 2977 9a3e 504b 507b fd63 a33e
00000050: a83b 9d33 b574 a83e 6261 a1a4 7361 a93e
00000060: ec9f 46b7 6a45 a23e 8086 8d1c 3eb3 50be
00000070: 6a94 d43f 525f b0be 247b 764b 5828 c3be
00000080: 967b f4b9 3d91 cfbe 2b42 231f 1696 d5be
00000090: 0670 5ab9 2fd2 d9be 0bee 9481 18af dbbe
000000a0: adaf f242 ff01 dbbe 0707 4f8d 1f45 d8be
000000b0: 4827 333b a258 d4be de85 441f ff27 d0be
000000c0: 73f3 36f8 f4c2 c8be e075 2593 7eb3 c2be
000000d0: d475 c3c2 ef62 bcbe 1412 9bf0 edea b5be
000000e0: 9e25 4d32 7140 b1be e23b 91b7 4d83 abbe
000000f0: 4e66 65be 2404 a6be 9d04 2727 ed87 a1be
00000100: 2741 4dfc 749e 9bbe cec9 dbfd 7372 95be
00000110: f203 48f2 e462 90be c585 7e31 299c 88be
00000120: 7bbb 6d74 cc26 82be 1217 75ad 7a49 7abe
00000130: 7d2f 7d25 f9ad 72be 6f5c 76d8 460b 6abe
00000140: d6bb 4bc8 2656 50be b747 cc58 5fba 57be
00000150: 64bf bf7d 2411 60be 35a1 6e8b ffbf 63be
00000160: d6af 35d0 94fd 64be fadb 812e 4336 61be
00000170: b015 3135 8c79 4abe 50c0 b66e 8b4b 503e
00000180: 0015 2937 1672 5a3e 50b2 d0be 1a25 6abe
00000190: 8c31 a0fd a3e4 95be d15e 9972 ec9e b0be
000001a0: bece 056b 7ef3 c2be 5050 ad28 9415 d2be
000001b0: 8431 b1d5 b820 debe db36 3654 8a5b e6be
000001c0: a80f 857d d5e4 edbe 7348 fe29 6120 f2be
000001d0: dadd 2851 8707 f4be bc39 f1a2 5a3d f4be
000001e0: fb09 4279 47c5 f2be e2c0 cd30 cd0b f0be
000001f0: 288f 9c05 5b70 e9be 8ddc f3a9 31dd e2be
00000200: d9e7 a836 8284 dabe 9688 6f04 4dff d1be
00000210: b5d5 a053 6626 c8be f4ea 56b5 ef68 c0be
00000220: 779c 7466 daf9 b6be 0c83 e6b0 77a3 b0be
00000230: df73 904d 63bc a8be b486 fe54 63a3 a2be
00000240: 86d3 a5eb 9827 9cbe 492f 570d b427 95be
00000250: c41e 7bbe bf7c 8fbe 7357 fa12 a726 87be
00000260: 4277 1633 82ca 80be a33f 7026 c4ff 77be
00000270: c68a eea4 e9e1 70be ec3c ae6f 415c 67be
00000280: bc9a bb92 026c 2dbe 6199 8db7 38e5 48be
00000290: d254 a60f bc58 5fbe 14d7 29cc ff33 71be
000002a0: aafb e16b a050 81be f255 c3ef 875e 90be
000002b0: 3d76 a33a a185 9dbe 3459 f4fd e3b5 a9be
000002c0: aa11 7102 02db b5be a738 4333 aa44 c2be
000002d0: a420 aa52 7a15 cebe e32d 3e3b 8048 d8be
000002e0: 3727 7915 4905 e3be dbd6 0d29 678e ecbe
000002f0: c6cb 1772 9c4c f4be a603 9db3 8d0f fbbe
00000300: bf66 16e2 e8c9 00bf 9893 9ed8 384a 03bf
00000310: 5c2a ec7d 1274 04bf 39ca 17b7 aef8 03bf
00000320: c474 2e22 38f0 01bf e320 636a 64a2 fdbe
00000330: 9340 2295 5885 f6be 1a57 19c1 9687 efbe
00000340: 91c7 1b01 c35d e4be f566 d2f4 7b53 d8be
00000350: 00fd b2fc 24e1 cabe 5b1c 38af ee52 bbbe
00000360: af17 75ac 8fe5 a8be 6eb6 ebce f55d 92be
00000370: 80e8 1d3c 058d 65be b49a 54fc 2c44 723e
00000380: 56f7 53a6 1bb8 7d3e b0c8 d738 5707 803e
00000390: b2ab 4d6e 73d0 7d3e f344 d486 2885 793e
000003a0: c466 849f 53a0 743e ee1d 07bc a5e2 6f3e
000003b0: 2a63 d584 79be 673e f471 d71d fd1d 613e
000003c0: 645c a2a8 44bb 633e 30db c9c9 4015 623e
000003d0: 9087 b745 1465 373e 2e59 9636 7bbc 74be
000003e0: 20d3 7f2e 8bac 91be d8d0 df59 200b a5be
000003f0: 9781 2430 c154 b5be e308 3571 9886 c3be
00000400: 881e d48c 3a95 d0be a3c1 d598 178f dabe
00000410: 5742 cab2 bc46 e4be c21f 5bbc 08bb edbe
00000420: 4a6f df42 d1ff f4be 56ea 0072 e68c fcbe
00000430: 05f8 82b5 5b97 02bf 1cbc 552f 2b07 07bf
00000440: 3f4f 9536 c7e9 0abf d00c 3f3f ef73 0dbf
00000450: 64f5 4822 edfa 0dbf 68ad 08f4 9638 0cbf
00000460: e516 9c20 946f 08bf 6d76 1453 4559 03bf
00000470: 3f73 94f0 c8c9 fbbe e86b dd36 63d2 f1be
00000480: 144b d891 d4b5 e3be d591 df86 30e0 d0be
00000490: d000 5e71 3cf6 a5be 0eba 2dbd 78f0 b33e
000004a0: 5e5a 598e f7eb c03e 2588 f2ac 4dd6 c23e
000004b0: 2b92 a95e 7114 c23e e225 2f7b cf13 c03e
000004c0: 34f4 ae7c a33f bb3e be34 a9f8 a948 b63e
000004d0: 857f bb64 23b1 b13e 0bc5 e2e1 ec5a ab3e
000004e0: 6256 5260 c1a0 a43e bd49 afb1 b860 9e3e
000004f0: 9da7 29c4 c9db 953e 891f 9a14 54c2 8e3e
00000500: c422 7d9a e711 7e3e f651 dfc0 55dd 803e
00000510: 1680 c661 eb65 793e e206 8b67 fa52 66be
00000520: 1fa2 d683 4fd8 99be 02b3 60ff fa45 b2be
00000530: b8fc bfb0 c6c4 c3be 3780 3f77 ba8a d2be
00000540: 69b5 e22e 2b7b dfbe 05e0 d9e2 4eb0 e8be
00000550: 72eb a657 991a f2be 79c2 a0cb dd07 f9be
00000560: 12b0 3026 b468 00bf 3c86 e19f fc79 04bf
00000570: f8e6 8497 a559 08bf 6a09 d6e0 f08d 0bbf
00000580: a901 3840 e18c 0dbf d895 465d 5cd8 0dbf
00000590: 4e20 e3e5 9227 0cbf b18a af3d b08c 08bf
000005a0: 71bc 72b9 3e80 03bf b3a5 a590 f18b fbbe
000005b0: 0332 531a 1a68 f0be b6ac eb23 a0b7 dbbe
000005c0: 4080 560a 77aa 833e b9cd 2251 4dff d23e
000005d0: 3572 7bba e4e0 dc3e 0509 a0ea e840 e03e
000005e0: 21cf 9f37 b40d e03e 31a7 c2d3 1271 dd3e
000005f0: 962f 2833 39b8 d93e 441b fc44 09b0 d53e
00000600: 688b 823d 00c6 d13e 5bb4 3a27 4969 cc3e
00000610: 4640 3205 9b2f c63e db63 c702 21f1 c03e
00000620: d44f 24ed ee50 b93e c046 4059 3b83 b23e
00000630: 9c8c 57d5 7181 aa3e 5ede a62f 5194 a23e
00000640: 2d27 61fd a89e 8b3e 6ff3 ff27 25b4 903e
00000650: 7ae6 a3d5 0390 8f3e c488 9199 fc6a 743e
00000660: 4201 98a8 e070 99be edc7 0626 55b8 b6be
00000670: eac1 9e7f 534c cabe d394 951d 4d3e d9be
00000680: 8c0a 34ca c56b e5be 3a32 94ba 5d78 f0be
00000690: c950 ceb9 e031 f7be b338 954f 6709 febe
000006a0: 0847 860f cbe1 01bf 7861 e6cf e680 03bf
000006b0: 40f6 6a00 3152 03bf dcf2 c20d da17 01bf
000006c0: 2efe 6016 c108 fabe c43d ab68 68d0 eebe
000006d0: dca9 9ea6 6a09 d0be 64ff 77a9 81e4 d93e
000006e0: 93cc 932f 98a2 ed3e a40d 46fd d47b f43e
000006f0: f25f 239b b58f f73e eaa3 fba9 6e89 f83e
00000700: 9ec5 4fe1 1806 f83e bd60 bace 4292 f63e
00000710: 4a7b c311 c095 f43e 0631 332a 3c55 f23e
00000720: 332a 670b b9f9 ef3e f7f1 d285 e454 eb3e
00000730: 5c5f bd31 32e7 e63e 50fb 3abe 70d0 e23e
00000740: a1aa c254 b74c de3e 7fa6 61e3 2bea d73e
00000750: dbad 23a8 1b80 d23e e0c9 bd6c ea0d cc3e
00000760: 75f4 244a d8d8 c43e 22ae dc54 235d be3e
00000770: 5fcb 4fa4 81ab b53e c810 ab46 794f ae3e
00000780: 19dc 425f ba21 923e 9a70 660b 8853 973e
00000790: c2e1 cde5 3e74 993e 9df7 8a4d 4b77 923e
000007a0: 26be 2f54 3320 80be aa7f 3350 115b b1be
000007b0: 2807 da74 6602 c7be 88dc 9167 c100 d7be
000007c0: 67f8 0ee4 ab81 e3be e897 90b6 a0f9 ecbe
000007d0: c99b c896 0ce2 f2be 53d8 5946 fc19 f5be
000007e0: b8b0 526f e0c1 f2be 5030 2779 e21e e3be
000007f0: 2895 c08e 6cd0 de3e 73c6 131d 731b 003f
