src/kernel/space_time_kernel1.npy (npy, 169408 bytes, 1 tensors)

array f8 [23, 23, 40]
00000000: b13c b498 c891 d3bd 1af9 b851 4a5e d7bd
00000010: 6638 439a ba56 d5bd 29ce 2f41 89c0 b2bd
00000020: 17af 17d7 5cc4 e43d c168 eba4 8972 013e
00000030: a40d 55fb 13e1 133e fbc4 39a6 94fb 223e
00000040: b20c 7f15 1b1c 303e 841c 8f6d 2ce2 383e
00000050: 55ca e774 9faf 413e 9540 a277 fa43 473e
00000060: ea22 f30b fe63 4c3e 12d9 522a 6e12 503e
00000070: c107 bea4 c2d9 503e 802c d03c 0f48 503e
00000080: b94c 0e82 94b6 4c3e df1b 110c e9a3 463e
00000090: 51e5 3d07 626b 3e3e d5a0 dd4e 85c1 2d3e
000000a0: 8784 6798 9177 e03d 05ba 2593 59ae 26be
000000b0: 5ca3 47eb 0907 34be 6357 1cb4 a77f 39be
000000c0: 0ef9 5c29 f222 3cbe c11b 4177 3f8a 3cbe
000000d0: 3dd1 64e6 3359 3bbe cb38 7033 d121 39be
000000e0: c2e6 92b0 b758 36be 4d79 ee1a 5154 33be
000000f0: c754 db57 3651 30be e3fe 25dc a7ef 2abe
00000100: d6ef e7a6 bcc2 25be 79e1 28a9 3837 21be
00000110: 6255 9447 f5ae 1abe 4625 3e94 5442 14be
00000120: 21bd 5d92 e623 0ebe 932f e39d 92f7 05be
00000130: 5546 2be7 985f ffbd 0eec 6ccb 7ef3 f5bd
00000140: b779 654b 6c4c ecbd 7cc3 7654 5ce5 f0bd
00000150: 0ed6 bc2c 68db eebd dcc8 a5f7 d61d cbbd
00000160: b03d 94d5 c007 fe3d 619b 6209 dc3a 193e
00000170: 7d12 e652 16bf 2c3e 1faf 25a9 3873 3b3e
00000180: 6df9 4325 af4b 473e 3bfa f698 cffd 513e
00000190: 94ea c42c 3193 593e 1c7b 9c1f 56d2 603e
000001a0: 4d4c 1a6b f586 643e 7816 8062 b13d 673e
000001b0: 18a9 0c60 ef5d 683e dacb 2561 3e8b 673e
000001c0: 0fa1 1000 acc2 643e c6b8 ee51 9a5e 603e
000001d0: 005e 0f0a 7efe 553e dea7 8d63 ad83 453e
000001e0: 1635 9dd1 f1cf f73d 1e63 93a1 2666 40be
000001f0: aee9 18ff faf5 4cbe 2de8 f4a6 ac6f 52be
00000200: 4886 94a5 ed57 54be dc76 8554 9ea2 54be
00000210: 05ce 27fa 0fc6 53be b39d 9bb8 d32b 52be
00000220: 26d2 2481 3c28 50be b974 44e8 89f3 4bbe
00000230: c7c3 a9a3 7a98 47be a840 78be bf79 43be
00000240: 3651 57ab 9777 3fbe 1d57 d1b6 15e5 38be
00000250: 27ca d08a f84a 33be a191 cb2c b84b 2dbe
00000260: 5bac 3707 cfca 25be e392 9ef5 fec3 1fbe
00000270: ad34 5de8 10af 16be 91e1 0089 19be 0fbe
00000280: 81b9 6e18 0a17 fcbd 9c70 61c7 7cc5 00be
00000290: a744 9962 32a1 febd 69b7 2593 afea dabd
000002a0: 8478 4851 1acf 0d3e 20b4 5cc2 430b 293e
000002b0: 820e 33d1 db88 3c3e 6e8b 5433 703f 4b3e
000002c0: e997 1ffd bc1f 573e 815b 1ffe dedb 613e
000002d0: 7e30 5343 f262 693e 1f73 e675 9ab2 703e
000002e0: 597f 8b3b 3c60 743e e056 269f d911 773e
000002f0: 35bb 01dc f72f 783e 3e78 3b52 d45e 773e
00000300: 2595 392b 829b 743e fc9b 6afb b83f 703e
00000310: 420d 246e 00d5 653e 00e4 a976 175b 553e
00000320: 1b44 fa28 06a3 073e 27df dc0d 3747 50be
00000330: e80d d1ef 58bf 5cbe ca5d 0d40 e54c 62be
00000340: abdf 602e 8d31 64be 1b21 38f7 b07b 64be
00000350: ae14 edad c2a0 63be e28e 384f 8c09 62be
00000360: 8211 cfb9 c109 60be c2dd 2e62 cfbe 5bbe
00000370: ef2b fc9c f76b 57be 6e8a 4068 0255 53be
00000380: 8b22 933e 3b3c 4fbe 9a52 f13e 1fb6 48be
00000390: 0d8e 2573 9326 43be 88be 9d5f 7414 3dbe
000003a0: e271 dcea b2a1 35be e577 5867 1288 2fbe
000003b0: 0ab1 c233 4684 26be 5293 2c1a 3882 1fbe
000003c0: 3695 e5d8 978d f9bd 1199 1102 7583 febd
000003d0: 6dd4 c75e 08dd fbbd ad24 988f 5d7c d8bd
000003e0: 1beb b3b7 e91d 0b3e 4055 8f0e 3ec8 263e
000003f0: a830 cc0b 22f5 393e f15d 84b1 76c9 483e
00000400: 0104 8579 1b09 553e bcf4 df6e f83e 603e
00000410: c635 ef57 0118 673e 64c6 e393 1961 6e3e
00000420: 6bfa 6ad8 2389 723e ee4f 5534 79fc 743e
00000430: 661e bf55 c000 763e 6e05 a420 8042 753e
00000440: 16f4 b35f 0fbf 723e 26a8 cac0 1690 6d3e
00000450: 749d 499c 3ddc 633e 5d9a 443a 576d 533e
00000460: 668d b64a 8980 053e 67dd 4671 b89d 4dbe
00000470: fca6 0560 b326 5abe 042d 128b c9a5 60be
00000480: 091e ea21 ac5e 62be 92fe 65ca 1da2 62be
00000490: d1be 483a f5da 61be 4c90 2fb0 8568 60be
000004a0: 5724 78a4 e72d 5dbe 9230 e003 553d 59be
000004b0: 3c7c 6bab 734e 55be 742a c355 0c96 51be
000004c0: 9f2c 83cc 106a 4cbe 0295 d20e ca7a 46be
000004d0: ae56 74ed ce6b 41be fe42 fe1d 1f74 3abe
000004e0: dc36 693a 92ad 33be ef12 fa82 0eaf 2cbe
000004f0: 130b f10b af7b 24be 4a7f d486 bba9 1cbe
00000500: ce6e 66dc 8625 0e3e 74ab 8815 d5ff 113e
00000510: 8485 327c a46f 103e 4620 91d9 2ee3 ec3d
00000520: d946 ee22 cffd 1fbe 7dbb 7e4d a9e0 3abe
00000530: a4a3 e4e1 ad9f 4ebe da31 eefa 233e 5dbe
00000540: 96e1 a3e9 25d1 68be a57b 2202 992a 73be
00000550: 9ca1 8236 c33e 7bbe 729c 05d3 90eb 81be
00000560: 3b2e c47c 23de 85be b00f dc3d 3ec2 88be
00000570: 994e eb27 4ff5 89be d98e 2ec1 db14 89be
00000580: 9e9e a95f c01d 86be 8a45 4f26 4670 81be
00000590: 4ef7 4d66 326e 77be 3d29 037d 5ceb 66be
000005a0: d756 0cc2 0b5e 19be e4ac f1a6 5078 613e
000005b0: 1f98 2347 28da 6e3e e332 49ab e5a3 733e
000005c0: b831 8472 09ac 753e 4b5c 1ed3 9afb 753e
000005d0: a410 3125 a510 753e 10c4 a071 9e5b 733e
000005e0: 4f98 0e6b 5b36 713e 49b7 317a d6c6 6d3e
000005f0: eeb1 b349 f522 693e c530 8d14 59bf 643e
00000600: b023 e2cf d5c2 603e d493 b6f8 4885 5a3e
00000610: 9d1b abd3 838d 543e b1bc 2dde 7e35 4f3e
00000620: faaa 3653 2337 473e 64a3 3c20 88eb 403e
00000630: fc10 8748 4d2a 383e 7655 6920 64e8 303e
00000640: b487 e55e ca8a 353e ed37 4d77 54b9 393e
00000650: 3e66 5005 657d 373e 309f 0c38 73a4 143e
00000660: e6b1 b226 46dc 46be 33e3 927d c834 63be
00000670: 53fd 9e04 14e2 75be d247 d94e 72e5 84be
00000680: a589 622e d5bb 91be ff7b 3d3c 5064 9bbe
00000690: 8884 c2a8 0678 a3be 70c8 c29c 5d9c a9be
000006a0: f2c4 49d7 a240 afbe ac3e 3294 2eb1 b1be
000006b0: bb64 62f0 9a8c b2be 85f3 3399 37ec b1be
000006c0: c146 cb8c 8c9b afbe 6418 9f7f 29ec a8be
000006d0: fd6c 3e12 31be a0be f4ac c0fd b260 90be
000006e0: 6ebc e5f8 8320 42be 5dad 936d a7f7 883e
000006f0: 0787 4c90 dd0b 963e 2253 2775 ab11 9c3e
00000700: 30f6 7b60 08f9 9e3e 928a 327a bf6a 9f3e
00000710: 2e3e 50f5 f31a 9e3e 54a8 2363 5faa 9b3e
00000720: 9591 e7b9 6399 983e 98af 3cad 2047 953e
00000730: 4553 1ae6 4af6 913e 1307 b22f c4a6 8d3e
00000740: 6182 434f 4af4 873e c477 41cc 7cf3 823e
00000750: abbf 7e07 8c5f 7d3e 747a a34b 224d 763e
00000760: f8c3 3203 d996 703e aa54 66bf 732e 683e
00000770: 8aeb df96 9b44 613e 60d2 35b4 f629 583e
00000780: ffea d46a 2799 4c3e 94b4 b577 2c13 513e
00000790: 79ca 4e46 132f 4f3e e042 16a4 5d67 2b3e
000007a0: 15e2 fe09 2e59 5ebe 1aa2 3d1e 457f 79be
000007b0: 79bc 415b 080d 8dbe 3043 54d8 a6bd 9bbe
000007c0: 45da 6591 d98a a7be a1b6 c92b 982e b2be
000007d0: cb15 bec4 89d8 b9be 3b3f 61ad f2ff c0be
000007e0: 0d10 f224 9ebe c4be 45ae c0de b57c c7be
000007f0: fdc2 886c 01a0 c8be ec2e 7024 15cb c7be
-7.119330661110587e-11 -8.501345845228296e-11 -7.763004697892709e-11 -1.7054930448952304e-11 1.5110011466536325e-10 5.077865435763315e-10 1.1571223817044541e-09 2.2098814321917927e-09
3.7508523717018e-09 5.793639090132375e-09 8.235698037579483e-09 1.08338615754599e-08 1.3220401105788801e-08 1.4968210355827112e-08 1.569336864583636e-08 1.5163312206588565e-08
1.3370627329086176e-08 1.0542699493044414e-08 7.0825835091462056e-09 3.4640473744028077e-09 1.1981366957786782e-10 -2.6404222360455038e-09 -4.6630145755765575e-09 -5.936867721194456e-09
-6.551041172908268e-09 -6.6449937671010614e-09 -6.367556792866404e-09 -5.851522647514853e-09 -5.202962291198565e-09 -4.500467927930607e-09 -3.799152435101682e-09 -3.135781163540883e-09
-2.5332778576664616e-09 -2.0041722251207986e-09 -1.5531800553311292e-09 -1.179235002156235e-09 -8.771963474453594e-10 -6.393261994243419e-10 -4.5654344815827975e-10 -3.19431324642576e-10
-2.0589888622048385e-10 -2.458682879374205e-10 -2.2451464851207648e-10 -4.932473783229647e-11 4.3699817859748694e-10 1.4685746278261226e-09 3.3465254102493764e-09 6.3912205687133764e-09
1.084787829745761e-08 1.6755842544833072e-08 2.3818546067100564e-08 3.1332721263238994e-08 3.8234856514521493e-08 4.328971342508124e-08 4.538695109184756e-08 4.385396947222306e-08
3.866932730300449e-08 3.04906484430164e-08 2.04836118100642e-08 1.0018406647420228e-08 3.465143325176543e-10 -7.636392006952518e-09 -1.3485951885697669e-08 -1.717007552563364e-08
-1.894633281264013e-08 -1.921805406598059e-08 -1.841567577073807e-08 -1.6923248169924135e-08 -1.5047540166337004e-08 -1.3015849072634146e-08 -1.0987567402119357e-08 -9.069024599898572e-09
-7.3265186603816275e-09 -5.796286878491867e-09 -4.49196783680029e-09 -3.410477544785121e-09 -2.536948479191737e-09 -1.8490018045111023e-09 -1.3203739503284303e-09 -9.23830583219185e-10
-4.08763266665951e-10 -4.881130072711691e-10 -4.45720435038585e-10 -9.792253534669822e-11 8.675559459767906e-10 2.915505631099515e-09 6.643730249270565e-09 1.2688248322297106e-08
2.1535882251034295e-08 3.3264740087189936e-08 4.7286058105217985e-08 6.220366575164651e-08 7.590621365791959e-08 8.594142978374533e-08 9.010499635459253e-08 8.706162596012834e-08
7.676875207195e-08 6.05319304495128e-08 4.066533933375941e-08 1.9889163575183847e-08 6.879217906735654e-10 -1.5160240055699383e-08 -2.6773149909099428e-08 -3.408710114751882e-08
-3.7613437517782e-08 -3.815287543887437e-08 -3.6559944174962755e-08 -3.359708413929521e-08 -2.9873312025070586e-08 -2.583987258514671e-08 -2.181320174405007e-08 -1.8004391325161088e-08
-1.4545060227764856e-08 -1.1507148982089117e-08 -8.91773374996626e-09 -6.770692001725594e-09 -5.036507806104217e-09 -3.6707533078826588e-09 -2.6212884346490516e-09 -1.834045894926344e-09
-3.718465196318813e-10 -4.4402992573489517e-10 -4.05465965300036e-10 -8.907883102900316e-11 7.892041320852024e-10 2.652196785523465e-09 6.043713249271019e-09 1.1542331133014795e-08
1.9590906314958653e-08 3.0260492653292126e-08 4.301549959944298e-08 5.658584932730037e-08 6.90508753326843e-08 7.81797782807849e-08 8.196731954214389e-08 7.919880587807967e-08
6.983551508253765e-08 5.50650939059181e-08 3.6992719586188415e-08 1.8092908186549983e-08 6.257933246480841e-10 -1.3791069210978164e-08 -2.435517920796211e-08 -3.1008583597613646e-08
-3.4216445001180684e-08 -3.470716451996655e-08 -3.3258096086470526e-08 -3.0562821627477315e-08 -2.717535554748765e-08 -2.35061892104172e-08 -1.9843180177884468e-08 -1.6378355880551173e-08
-1.3231448284589653e-08 -1.0467900735738505e-08 -8.112344059131516e-09 -6.159208670769713e-09 -4.581644319642716e-09 -3.3392355753895334e-09 -2.38455130600595e-09 -1.6684072138772435e-09
8.773812169851074e-10 1.0476997794809726e-09 9.567071447466248e-10 2.101837426183526e-10 -1.8621470023279537e-09 -6.257925032269301e-09 -1.4260293443122461e-08 -2.7234420659241652e-08
-4.622523626542484e-08 -7.140039362745191e-08 -1.0149615337302153e-07 -1.3351573492222642e-07 -1.6292727734349662e-07 -1.8446715348990422e-07 -1.9340395237284727e-07 -1.8687157473967417e-07
-1.6477865457113008e-07 -1.299274742504041e-07 -8.728525242686187e-08 -4.269067199884047e-08 -1.476575091530902e-09 3.25403747218949e-08 5.746665800321792e-08 7.316553302903655e-08
8.07345627054942e-08 8.189242775427003e-08 7.847331433367359e-08 7.211374644722028e-08 6.412093501873252e-08 5.546344474740594e-08 4.682048279102499e-08 3.864514270274515e-08
3.1219935068644516e-08 2.4699275109240813e-08 1.9141279876033207e-08 1.4532807795471515e-08 1.081050502487042e-08 7.87901033963057e-09 5.626408790643285e-09 3.936648790440482e-09
5.015672750693949e-09 5.989322694766522e-09 5.469150539589575e-09 1.2015448360203907e-09 -1.0645224443551399e-08 -3.577430591470191e-08 -8.152096700376819e-08 -1.5568938442844888e-07
-2.642530446771765e-07 -4.081703617232908e-07 -5.802169922472351e-07 -7.632614198642623e-07 -9.313966261149201e-07 -1.0545323483635684e-06 -1.1056208122694128e-06 -1.0682775595787126e-06
-9.419802836313245e-07 -7.427486245984943e-07 -4.989783843780247e-07 -2.440472124411022e-07 -8.441048551727405e-09 1.860216148127876e-07 3.285162082801699e-07 4.182610286150743e-07
4.6153044806749335e-07 4.681495459712321e-07 4.486037046844238e-07 4.1224834314171875e-07 3.6655631588239604e-07 3.170645588186843e-07 2.676558549044766e-07 2.2092037696782383e-07
1.7847313638684e-07 1.4119686942126008e-07 1.0942381034498008e-07 8.307883351012784e-08 6.179976779170432e-08 4.504146737801855e-08 3.216415477010768e-08 2.2504404795800144e-08
1.3317101500201788e-08 1.5902237288633417e-08 1.4521129363059187e-08 3.190219006236602e-09 -2.8264111606481748e-08 -9.498427960624827e-08 -2.164461371275826e-07 -4.133705363155384e-07
-7.016176677827378e-07 -1.0837322143258026e-06 -1.5405328381579865e-06 -2.0265336884497108e-06 -2.47294909844383e-06 -2.7998864791290085e-06 -2.9355313453594454e-06 -2.836381358678011e-06
