src/kernel/space_time_kernel1.npy (npy, 169408 bytes, 1 tensors)

array f8 [23, 23, 40]
0	0x8f82b27e0bda95c4	-5.880453000878722e-234
1	0x8f8653a749eb443d	-7.021975388804607e-234
2	0x8f84633fdceb6555	-6.412117436955427e-234
3	0x8f61ea92418a1c89	-1.408709915472158e-234
4	0x0f93d7682a9da719	1.2480627252934027e-233
5	0x0fb0ab75a12953b6	4.1942354500970345e-233
6	0x0fc2fe40aac52b1d	9.557645382377074e-233
7	0x0fd222fbf12691ee	1.8253266378684027e-232
8	0x0fdec8948f4839c3	3.0981439316355906e-232
9	0x0fe7c63f941bcdbe	4.7854530145201325e-232
10	0x0ff0e5d272d64421	6.802554558107932e-232
11	0x0ff63a83a9230c7d	8.948595990986006e-232
12	0x0ffb200ceb713ac0	1.0919839386028576e-231
13	0x0ffeb61785212861	1.2363501808606389e-231
14	0x1000197dd8ae5018	1.29624709316295e-231
15	0x0fff1c91d3a3f868	1.2524652809788878e-231
16	0x0ffb6ef50a2f0580	1.1043923838296723e-231
17	0x0ff5a194a574a5cd	8.708100778334207e-232
18	0x0fed104a8f4c7007	5.850100442425005e-232
19	0x0fdc6dffff8fd6f1	2.8612476014445223e-232
20	0x0f8f775a5d5a82d9	9.896417041901129e-234
21	0x8fd5ab8e0e814c2d	-2.1809464401416924e-232
22	0x8fe322857744fef7	-3.851575289777719e-232
23	0x8fe85cb5f5f744e3	-4.903757567775612e-232
24	0x8feae1e739ebd511	-5.41105499348995e-232
25	0x8feb4499d60964fa	-5.488658330202388e-232
26	0x8fea2126e446c1dd	-5.2594998368899835e-232
27	0x8fe8030e2a753630	-4.833263905025705e-232
28	0x8fe559bd40a9ebcf	-4.297563447343049e-232
29	0x8fe277c3e6ece123	-3.717314364498084e-232
30	0x8fdf2e0f2b3263ff	-3.1380390097380815e-232
31	0x8fd9bc4f29a5ad57	-2.590104973487276e-232
32	0x8fd4ca71856c9b41	-2.092446901160023e-232
33	0x8fd072c974d98b4c	-1.6554141304136198e-232
34	0x8fc97e7ecb28f6dd	-1.282901827719315e-232
35	0x8fc35b2b98ef8738	-9.740292082583388e-233
36	0x8fbccbfeba94be10	-7.245501212455613e-233
37	0x8fb4fcec9eaa3a30	-5.2807319211646185e-233
38	0x8fadf99ee763d5b0	-3.7709756963796954e-233
39	0x8fa4f9075267a9a3	-2.638451535661757e-233
40	0x93af703926145971	-7.295803699534354e-214
41	0x93b2c54739a38463	-8.712076095502225e-214
42	0x93b123f0b2bf08d3	-7.955433044256546e-214
43	0x938e20112699f29d	-1.7477685837020883e-214
44	0x13c0ae5f16e77e7a	1.548455645693601e-213
45	0x13dc077f7feb0fe8	5.203734900859414e-213
46	0x13efef9c229925c0	1.1858049801463282e-212
47	0x13fe7eec0cd98ee0	2.2646596844543935e-212
48	0x1409e1617e3d76e7	3.843828010314715e-212
49	0x1413fcd87d57ead6	5.937251059070894e-212
50	0x141c69a1a9f15ece	8.43984344469922e-212
51	0x1422b024a5ebba97	1.1102409920956442e-211
52	0x1426ce04e7d2d974	1.3548106681407575e-211
53	0x1429d1d65205be3b	1.5339240398818126e-211
54	0x142b120fa1818ecb	1.6082373817792118e-211
55	0x142a27fe17550d75	1.553917840876994e-211
56	0x1427105b99a1cf67	1.3702056692703875e-211
57	0x14222f9182dc1fcf	1.0804030550876772e-211
58	0x14186f384d633ba0	7.258145663967388e-212
59	0x1407e6c72cd3a932	3.5499137282082444e-212
60	0x13ba7450eeeb0d7e	1.2278359516800463e-213
61	0x940237f43878a471	-2.705872677512146e-212
62	0x9410164c01a65ff2	-4.77860077174264e-212
63	0x94147b57c23011a0	-6.084030022729665e-212
64	0x941699c544de7766	-6.713427525734596e-212
65	0x9416ecbf79ac1d39	-6.809709004559138e-212
66	0x9415f7b860ff5a78	-6.525394958848964e-212
67	0x94142ff7ab4bf321	-5.996569426512394e-212
68	0x9411f32b74172df1	-5.33193264080569e-212
69	0x940f0d7a103aa44f	-4.612024939028444e-212
70	0x940a36b24b09bf9f	-3.893325329376677e-212
71	0x9405a2f0840b32e3	-3.2135104973931457e-212
72	0x94017ab29de1a37c	-2.596072418278195e-212
73	0x93fba834ce4cacac	-2.0538513844304797e-212
74	0x93f56ef89d04abcd	-1.5916800796495303e-212
75	0x93f045ec4628de37	-1.2084657253452756e-212
76	0x93e835cd40c5f762	-8.989401759169766e-213
77	0x93e1a5235b1d1c26	-6.551737337399827e-213
78	0x93d93362a015402f	-4.678601875125935e-213
79	0x93d1a1dce7b9f2bd	-3.273493465902483e-213
80	0x977025eaf7160c77	-8.641013864346842e-196
81	0x9773486672846e0e	-1.0318420482349897e-195
82	0x97719bac9c2e5622	-9.422266560802787e-196
83	0x974ef281b76527ea	-2.070024521685457e-196
84	0x178122e5b9cc8c7e	1.83396199429249e-195
85	0x179ccb4bde4b6462	6.163206587861131e-195
86	0x17b067596333d748	1.404445307993954e-194
87	0x17bf53f339973121	2.68222070347736e-194
88	0x17ca962b06098336	4.552558223491412e-194
89	0x17d4887829b96322	7.03196944852203e-194
90	0x17dd301b8af10638	9.995993206782328e-194
91	0x17e332b03b44c20a	1.3149487295110412e-193
92	0x17e76d52543e42c8	1.6046124935785315e-193
93	0x17ea863345594fc8	1.8167510313249827e-193
94	0x17ebcf2980806818	1.9047663678234628e-193
95	0x17eadeb4e1055f8c	1.8404313164197393e-193
96	0x17e7b1786e7decb0	1.6228460458616416e-193
97	0x17e2ae9aefda5eab	1.2796092332762666e-193
98	0x17d919e813d97341	8.596412389192161e-194
99	0x17c88dbdd639c4ae	4.2044516280831973e-194
100	0x177b2d1ce0fd727b	1.4542260069699975e-195
101	0x97c2b7383947fef7	-3.204785145608024e-194
102	0x97d086ac53dc239b	-5.659685652376047e-194
103	0x97d50a6b13907bf7	-7.205811716242425e-194
104	0x97d737a5b5ea5d99	-7.951258383070645e-194
105	0x97d78ce38def49dc	-8.065292371328277e-194
106	0x97d6912cd1c4050d	-7.728556116902058e-194
107	0x97d4bcfc74096ce8	-7.102225016870877e-194
108	0x97d2708ef7096f49	-6.3150416006815e-194
109	0x97cfe6650d872f6c	-5.462396342078355e-194
110	0x97caedcfcb857f2f	-4.61118192526257e-194
111	0x97c63a14b8b2689a	-3.806021914072407e-194
112	0x97c1f4cc9279df69	-3.074739765904345e-194
113	0x97bc696783ca4256	-2.4325432836555672e-194
114	0x97b604b1cb6568ae	-1.8851562079081284e-194
115	0x97b0b7994954c67a	-1.431284272075873e-194
116	0x97a8deebef2d0167	-1.0646879827390027e-194
117	0x97a22065c73bc8ff	-7.759755538878338e-195
118	0x9799e36cb6213cea	-5.541248823800262e-195
119	0x97921d0872db6c45	-3.8770646235338665e-195
120	0x9abb0fc67df0fbb5	-6.521634163725046e-180
121	0x9ac0284d8253f1a8	-7.787623604103534e-180
122	0x9abd8221665b586f	-7.111269171340501e-180
123	0x9a99ee6aef40c910	-1.5623100312422551e-180
124	0x1accb7ba5e29b246	1.3841465115917026e-179
125	0x1ae8208c5537137c	4.651558170428722e-179
126	0x1afb7d6d7b30eb5e	1.0599772949663064e-178
127	0x1b0a40113f1805b9	2.0243529809184952e-178
128	0x1b1647043aa36837	3.435953200488611e-178
129	0x1b21347eaa6690da	5.30723974219876e-178
130	0x1b28750511db0219	7.544278000373595e-178
131	0x1b30161c2cdf7b4b	9.924315239568552e-178
132	0x1b33a144d1756a4c	1.2110495159415873e-177
133	0x1b3639a306263a1c	1.3711568779860187e-177
134	0x1b374d47b73a578d	1.437584710929165e-177
135	0x1b3683cc42ce0a24	1.389029104405874e-177
136	0x1b33da5f3c83a2dd	1.224810928590887e-177
137	0x1b2f4edec1b5b735	9.657597387252086e-178
138	0x1b250863634d52f7	6.487972083246104e-178
139	0x1b1492f0fb63e677	3.1732266384356036e-178
140	0x1ac6c57ef7d0ac39	1.0975482921007748e-179
141	0x9b0f5d4e75a11fb2	-2.4187481493614822e-178
142	0x9b1bb1ebec5de459	-4.27153571165692e-178
143	0x9b21a161a3b693d3	-5.438443752522432e-178
144	0x9b23744b4b82a9cc	-6.001054868063023e-178
145	0x9b23bbb83ab0ee76	-6.087119763377596e-178
146	0x9b22e8cdcc679e94	-5.832974741102848e-178
147	0x9b21607fe3cfefd1	-5.360263741688707e-178
148	0x9b1ee6e3cc331a54	-4.766152640754086e-178
149	0x9b1abac6ae1175d1	-4.122635510086368e-178
150	0x9b1690746c3b6e79	-3.4801982789338954e-178
151	0x9b129fd37a4af14a	-2.8725196987722935e-178
152	0x9b0e177d3fd2102b	-2.3205989733013172e-178
153	0x9b07ce85ca4d1fb2	-1.8359138907164796e-178
154	0x9b027317b3b4c87f	-1.4227843309196344e-178
155	0x9afc03e9b8ba802e	-1.0802334718251156e-178
156	0x9af4d6f6b17685b9	-8.03552179286201e-179
157	0x9aee608d9e871d6a	-5.856521887241394e-179
158	0x9ae5b13e7a0b5b9f	-4.18214785976722e-179
159	0x9ade5aea2baf0ce2	-2.926137777435389e-179
160	0x1dba2c75edaee352	1.7754444543321034e-165
161	0x1dbf412a06d300c1	2.1200964042475435e-165
162	0x1dbc8a43856b969a	1.9359662159135559e-165
163	0x1d991498f1a9a5af	4.253220299208156e-166
164	0x9dcbc680a5e3ae06	-3.768189362196525e-165
165	0x9de755e1ff16469c	-1.26633646573234e-164
166	0x9dfa9683d9a8fdaa	-2.8856736867174192e-164
167	0x9e09639168585708	-5.5110823197870105e-164
168	0x9e158be381ddfbe3	-9.354011436403134e-164
169	0x9e20a3f962cc4444	-1.444838690969387e-163
170	0x9e27a7952e46f4a9	-2.0538481922531376e-163
171	0x9e2f1df8fe1d56ac	-2.7017876214435315e-163
172	0x9e32fc611a91491d	-3.296951489489775e-163
173	0x9e357ef2b0bad874	-3.732826487846264e-163
174	0x9e36898c02084965	-3.9136690874943933e-163
175	0x9e35c6acfb72f95b	-3.7814816937150573e-163
176	0x9e33339bdc7deac9	-3.334415448918648e-163
177	0x9e2e47e2b6efc34b	-2.6291765672386508e-163
178	0x9e2457b71bf8c3a8	-1.7662803165397617e-163
179	0x9e13e61f3e9dde85	-8.638766750957116e-164
180	0x9dc60637d523bcee	-2.98795666799403e-165
181	0x1e0e55d9275a344b	6.584780563276828e-164
182	0x1e1ac949596048b0	1.1628794563372187e-163
183	0x1e210d49b9587d17	1.4805575655132855e-163
184	0x1e22d0e15cf8041e	1.6337223643896447e-163
185	0x1e2315f654adfe17	1.657152602465381e-163
186	0x1e2249f791c53c6c	1.587964365427552e-163
187	0x1e20ce88f98b62d2	1.459273902064878e-163
188	0x1e1de3512dcd631a	1.2975335724280768e-163
189	0x1e19da4019e06e6f	1.1223429848807503e-163
190	0x1e15d2ead3de1e06	9.474463883113666e-164
191	0x1e1203624121aae2	7.820124590110341e-164
192	0x1e0d1ab8c5e29ae2	6.3175800335345224e-164
193	0x1e07068c75a8d10a	4.998077251916937e-164
194	0x1e01d81e3c38dcd2	3.873376651656624e-164
195	0x1dfb18966db3fec9	2.9408189401417562e-164
196	0x1df427e993662d4d	2.1875840083389104e-164
197	0x1ded616369e88f2b	1.5943748216073191e-164
198	0x1de4fb07d3d8323f	1.1385445792285064e-164
199	0x1ddd5bef53e067ee	7.966094017441666e-165
200	0x206b4b46c5d2309b	1.6285465185004267e-152
201	0x20704bd41b2aad80	1.9446824199980153e-152
202	0x206dc302dd2caa51	1.7757869209411618e-152
203	0x204a276eff44b4aa	3.901314453285141e-153
204	0xa07cf6decdea4883	-3.456414337199877e-152
205	0xa0985598deed0f82	-1.1615614543651496e-151
206	0xa0abb9dedb7d1a53	-2.6469168464072346e-151
207	0xa0ba79c8d5919516	-5.0551026269276766e-151
208	0xa0c677ff99be441d	-8.580072849701232e-151
209	0xa0d15a52f186371e	-1.3252946405794876e-150
210	0xa0d8aacb5670cd8c	-1.8839154978129144e-150
211	0xa0e0397ac5829bac	-2.4782452719900063e-150
212	0xa0e3cc6e02141eb4	-3.0241660654448347e-150
213	0xa0e66a80fa2a98c6	-3.423977340499268e-150
214	0xa0e78083bbad60c1	-3.589857261628266e-150
215	0xa0e6b54d46289d6a	-3.468606878715011e-150
216	0xa0e40605fb0847e2	-3.058530306211852e-150
217	0xa0df93b542dc96f0	-2.4116419607788495e-150
218	0xa0d536a22edd172e	-1.6201406093995472e-150
219	0xa0c4c02d8b28c12e	-7.924006567527831e-151
220	0xa076f7906ee65b4d	-2.7407370685231276e-152
221	0x20bfa244b49e9f6c	6.039964491847665e-151
222	0x20cbeed0b81e4776	1.066664341671037e-150
223	0x20d1c82554454397	1.3580581824865768e-150
224	0x20d39f11990bbbb7	1.498550327627072e-150
225	0x20d3e71b93ca2301	1.5200419786628295e-150
226	0x20d3126166896859	1.456578285234287e-150
227	0x20d186b4ec143670	1.3385355013205937e-150
228	0x20cf2ad5ad8ce88d	1.1901773535405146e-150
229	0x20caf58c121497f4	1.0294818044749874e-150
230	0x20c6c21143d08120	8.690559219610839e-151
231	0x20c2c8c69f1e2333	7.173097780890397e-151
232	0x20be59a71cccc9f5	5.794871782024198e-151
233	0x20b802ddf9f7b079	4.5845429227283305e-151
234	0x20b29ba87d36671d	3.5528985688652285e-151
235	0x20ac4182cb4c57fc	2.697499454191386e-151
236	0x20a504c8d136c983	2.0065861886102957e-151
237	0x209ea358214b5a57	1.4624583487125253e-151
238	0x2095e0f08a22dc3c	1.044342900244452e-151
239	0x208e9da848b3c066	7.306989890050949e-152
240	0x22a7880733eeaadf	9.648483917072953e-142
241	0x22ac196bea678114	1.1521462138178672e-141
242	0x22a9a8ac6b23e458	1.0520824153445763e-141
243	0x22868c6b011b8bed	2.3113720934804282e-142
244	0xa2b8f8accc8b2a07	-2.0477866468267327e-141
245	0xa2d4faccf3851979	-6.88178500510612e-141
246	0xa2e7e760413f8b0b	-1.568191901936326e-140
247	0xa2f6d36a8d71795f	-2.9949452374241247e-140
248	0xa3035f0adcebdd94	-5.0833484924879625e-140
249	0xa30debd5338fcb56	-7.851838360004952e-140
250	0xa3154440ae9f6166	-1.1161442534972713e-139
251	0xa31bf9c85f328281	-1.4682607698167142e-139
252	0xa32111b572331d53	-1.791696909700196e-139
253	0xa32353687c3c36a0	-2.028569029311443e-139
254	0xa3244317d1f77d37	-2.1268462190015607e-139
255	0xa32393e50bd3db76	-2.0550102378866516e-139
