src/kernel/space_time_kernel2_spatial.npy (npy, 55616 bytes, 1 tensors)

array f8 [17, 17, 24]
0	0xbebb0b7358555088	-1.6119914517292246e-06
1	0xbed5f65b38c5caa4	-5.236227377347167e-06
2	0xbeedd6ff5484bf73	-1.422874142117923e-05
3	0xbf00f5449544e7cc	-3.2344966401656386e-05
4	0xbf101fcdbf7daeaa	-6.150906835749684e-05
5	0xbf19a6a5c7198020	-9.785067393286483e-05
6	0xbf21117d15f00be9	-0.00013022090840317184
7	0xbf2300846411f9b2	-0.00014497390842289692
8	0xbf21b2728951f7c7	-0.0001350178542089393
9	0xbf1b93596a93390c	-0.00010519250158156165
10	0xbf11f8fb3e480b79	-6.855996577574503e-05
11	0xbf03992a9de68a8f	-3.738080316686043e-05
12	0xbef1e0c4438d6bec	-1.704978442105744e-05
13	0xbedb493d1d2a4ded	-6.505510514859503e-06
14	0xbec16b4ae6042378	-2.076519919684232e-06
15	0xbea29aea720ebf06	-5.544763760269729e-07
16	0xbe809fb5de1fd673	-1.238574745540637e-07
17	0xbe58d9ff37d9b96c	-2.3144810060187513e-08
18	0xbe2f1439ab65b1a5	-3.6180723652998312e-09
19	0xbe0041d0ffee9fad	-4.731437462867568e-10
20	0xbdcc74b03eb2acee	-5.176082465179954e-11
21	0xbd94d55d5b590f1d	-4.736979408822017e-12
22	0xbd59850465c8fb5c	-3.626553045708663e-13
23	0xbd1a268195c23b89	-2.32262341005413e-14
24	0xbeb58089f1bc477e	-1.2816253222619376e-06
25	0xbed1761836542d51	-4.163099992081477e-06
26	0xbee7b97080172c29	-1.1312662539083862e-05
27	0xbefaf71cb4c8456c	-2.5716096660193517e-05
28	0xbf09a3adfe263c52	-4.890322431371691e-05
29	0xbf1464dc2db1f340	-7.779687750715265e-05
30	0xbf1b23fc7db419d9	-0.00010353306372588108
31	0xbf1e372363de28c7	-0.00011526254180985455
32	0xbf1c23edddf8e614	-0.00010734690976556992
33	0xbf15ec9609fda12f	-8.36340500406415e-05
34	0xbf0c94161840cfe6	-5.4509090688631236e-05
35	0xbeff29de3c4f245c	-2.9719874664189578e-05
36	0xbeec6d95024d149e	-1.3555552934039265e-05
37	0xbed5b1a9f9758bb5	-5.172252620286074e-06
38	0xbebbb2c8ebc198cb	-1.6509520000207007e-06
39	0xbe9d95949ab1f977	-4.408404047986039e-07
40	0xbe7a6f10e2a9387b	-9.847377017391647e-08
41	0xbe53c226b093b073	-1.840144662073668e-08
42	0xbe28b5a75c68037e	-2.8765742871466e-09
43	0xbdf9d9c384a6f2ac	-3.7617631635731804e-10
44	0xbdc69fbe5d4399f9	-4.1152813498944905e-11
45	0xbd90905466e04c57	-3.766169327304513e-12
46	0xbd544a1f3ab38218	-2.8833169127047625e-13
47	0xbd14ca83d5f38525	-1.8466183385839466e-14
48	0x3ea0d2e41cfb2787	5.013881096635087e-07
49	0x3ebb5307fb15f7da	1.6286576108577334e-06
50	0x3ed290036b976fd8	4.425657317477066e-06
51	0x3ee5192b9be00475	1.00604637474097e-05
52	0x3ef40f96fa1fb7a2	1.9131562687783558e-05
53	0x3effe9ddff1e512c	3.0435126923204398e-05
54	0x3f053c47f19425fc	4.0503449961159344e-05
55	0x3f07a42b31114471	4.509217081561594e-05
56	0x3f06048988828cd7	4.1995474988421113e-05
57	0x3f01276e12ff08f2	3.2718702982064115e-05
58	0x3ef65c4ab5b32bf7	2.1324648838565827e-05
59	0x3ee8621634100599	1.162679257227482e-05
60	0x3ed63e2a46806ecd	5.303104536859716e-06
61	0x3ec0f953eb35329c	2.023450940724583e-06
62	0x3ea5ac029f93907f	6.458733984552076e-07
63	0x3e8725c306d41c7e	1.7246236742199262e-07
64	0x3e64aeb96fd8a105	3.85241900431551e-08
65	0x3e3eeb40801ed037	7.198879716235404e-09
66	0x3e13555a2c3746af	1.1253524092311253e-09
67	0x3de439e81164fc5c	1.4716495443902419e-10
68	0x3db1b39b7cddd0ce	1.609950350478004e-11
69	0x3d79eb7bc091eff3	1.473373291624123e-12
70	0x3d3fc006ac1441b6	1.1279902100174032e-13
71	0x3d00447891a99b47	7.224205561251738e-15
72	0x3ed088c55a1f8870	3.942075098325057e-06
73	0x3eeadaa62610013b	1.2805031646579402e-05
74	0x3f023e3b9856c8d1	3.479594583257059e-05
75	0x3f14bc37cf242da2	7.909861213677716e-05
76	0x3f23b7353d3010aa	0.00015041851892772423
77	0x3f2f5d44381a8665	0.00023929078820565937
78	0x3f34deb9752a5e71	0.0003184511926206174
79	0x3f373c034e0b086d	0.0003545291965957379
80	0x3f35a388c8957ebf	0.00033018197480847925
81	0x3f30dbdadcb29229	0.0002572450000093729
82	0x3f25f9c7578364b2	0.00016766126987625068
83	0x3f17f6a9997c9995	9.141359475659521e-05
84	0x3f05dc2ba2cad43c	4.169471899243728e-05
85	0x3ef0ae8bd15df9a6	1.5909024191790342e-05
86	0x3ed54c87e50f5bb7	5.078065059080831e-06
87	0x3eb6bfc80c2a6292	1.3559547801576122e-06
88	0x3e94539a9a81b8d2	3.0288961250832925e-07
89	0x3e6e630879937a4b	5.659991515206517e-08
90	0x3e43002cefc5a71e	8.847883752662912e-09
91	0x3e13e0cbe5622973	1.1570583567080578e-09
92	0x3de1659eb31b9f81	1.2657949129304896e-10
93	0x3da97949f87aaae0	1.1584136224025413e-11
94	0x3d6f34253baceca7	8.868622993569334e-13
95	0x3d2ff99a876516ba	5.6799035117335056e-14
96	0x3ee1281be2e28849	8.180940394734422e-06
97	0x3efbdd7009d976f8	2.6574126073312048e-05
98	0x3f12ee09e11b9f00	7.22116021979434e-05
99	0x3f25840a41295d1c	0.00016415238549669856
100	0x3f3475345f5dc95c	0.00031216171861738417
101	0x3f4045c27c71a7c5	0.0004965972556309975
102	0x3f45a7d86fa3bda5	0.0006608778778893111
103	0x3f481beb59e2b34e	0.0007357501197212486
104	0x3f46741063164b2c	0.0006852226271568443
105	0x3f417e521050d333	0.0005338574125120843
106	0x3f36cd8e118a88cd	0.00034794538945893684
107	0x3f28dd985ba36211	0.00018970951879883393
108	0x3f16aed50868f1b4	8.65285420354526e-05
109	0x3f014f4e62db3d1a	3.3015803962416736e-05
110	0x3ee619c90f4e9678	1.0538446511730611e-05
111	0x3ec79b02e51e6a1f	2.8139964251665133e-06
112	0x3ea5177ce6583d26	6.285831203894841e-07
113	0x3e7f87ddc4e197f6	1.1746111392013092e-07
114	0x3e53b7483747e621	1.8361905289635285e-08
115	0x3e24a05bcfb01447	2.4012291022765906e-09
116	0x3df20d4585380e88	2.626888751825725e-10
117	0x3dba6ec6960a942d	2.404041668650658e-11
118	0x3d80306cdacabef6	1.8404945183461654e-12
119	0x3d4096def06102f8	1.1787434515663544e-13
120	0x3ee7acdaf05f860e	1.128922259491501e-05
121	0x3f0339dd650faee8	3.667075055332846e-05
122	0x3f1a1f4075ca9f08	9.964781697624156e-05
123	0x3f2db0c67eb46784	0.00022652075799883483
124	0x3f3c3b09c3c22b27	0.0004307650413088331
125	0x3f467481a6f754b4	0.0006852753703535859
126	0x3f4de22f4b097751	0.0009119730876354458
127	0x3f50a271f2db8f52	0.001015292432776389
128	0x3f4efbfe96ca2e99	0.0009455674276792225
129	0x3f4823d280846352	0.0007366922227759287
130	0x3f3f777c9e6c7598	0.00048014442875107246
131	0x3f312813674f2c59	0.00026178811759497916
132	0x3f1f4d1753905d09	0.00011940436242273781
133	0x3f07e2f1f74bba2c	4.555989190701092e-05
134	0x3eee7f6a4cb95ff0	1.4542444112183834e-05
135	0x3ed04980979f50e4	3.883151629542113e-06
136	0x3ead1afacca4bfd8	8.674081979683598e-07
137	0x3e85c15a73ce22c1	1.620895150567926e-07
138	0x3e5b34f4c5bfe0f8	2.533836283844107e-08
139	0x3e2c769696a9c63a	3.3135566975205154e-09
140	0x3df8e9161b52ea9c	3.624953907563798e-10
141	0x3dc23ce0f55f8491	3.317437875762598e-11
142	0x3d865710eb033f53	2.5397755392160215e-12
143	0x3d46e46f6423d9e7	1.626597501626582e-13
144	0x3ee76f0d3da86026	1.1174104590103215e-05
145	0x3f0307ad000debe7	3.629681305646737e-05
146	0x3f19db0f921e5f0f	9.863169228052311e-05
147	0x3f2d6344e08944cc	0.00022421088967176093
148	0x3f3bf157c7191412	0.00042637246142290905
149	0x3f4639e3550516d5	0.0006782875080168735
150	0x3f4d942cb1862b0e	0.0009026735524896039
151	0x3f50770564ac8f8d	0.0010049393337760754
152	0x3f4eab1c55292064	0.000935925325685549
153	0x3f47e4ce3e617c93	0.0007291800545877906
154	0x3f3f2557fd3a441c	0.0004752483193693495
155	0x3f30fb4a0245a35a	0.00025911862237264704
156	0x3f1efb615e97db95	0.00011818677707951663
157	0x3f07a497114ac44a	4.5095310416861325e-05
158	0x3eee2fcd410d0213	1.4394152488273815e-05
159	0x3ed01efc3839c7b6	3.8435545125381565e-06
160	0x3eaccf003817fa29	8.585630981160024e-07
161	0x3e85888fce7f61dc	1.604366623986606e-07
162	0x3e5aedeef18647c3	2.5079983508010245e-08
163	0x3e2c2c4925cdc049	3.279767830958425e-09
164	0x3df8a80ee5570023	3.587989673944964e-10
165	0x3dc20d44fa2b6e8e	3.283609432206451e-11
166	0x3d861cbf7381ab23	2.513877042637874e-12
167	0x3d46a8ace262c3ae	1.6100108272612944e-13
168	0x3edd4fd5cb608387	6.988491056986944e-06
169	0x3ef7cdabf6a0fc8b	2.2700696185259716e-05
170	0x3f102baec4e627be	6.16860790839937e-05
171	0x3f226130f1e29c9c	0.00014022562476620904
172	0x3f3179d5218d8d32	0.0002666611995236378
173	0x3f3bcd1f2c462311	0.00042421351488335183
174	0x3f427fc711a1d6b6	0.0005645486846918765
175	0x3f44984dc5b41999	0.0006285075900514413
176	0x3f432e3ab921580b	0.0005853449567989622
177	0x3f3de32046944186	0.00045604265194845066
178	0x3f337aad1a26c179	0.0002972290623360001
179	0x3f253dbfe109414d	0.00016205756448296263
180	0x3f13606e783fe6a4	7.391618970578135e-05
181	0x3efd92cd8c456c0b	2.8203438675471935e-05
182	0x3ee2e11c171435d6	9.002368388989523e-06
183	0x3ec42a2f71c1220d	2.403829865858326e-06
184	0x3ea2047626abb4c8	5.369611931462388e-07
185	0x3e7aef50c688c532	1.003400470565594e-07
186	0x3e50d797d251abfc	1.568548415148588e-08
187	0x3e219eb24d2024cb	2.0512272791814544e-09
188	0x3deed75aec0b55c5	2.2439949032814865e-10
189	0x3db69474498ea502	2.0536298874396692e-11
190	0x3d7ba8ac142b543e	1.572225057424247e-12
191	0x3d3c57b2d930f403	1.0069304593705951e-13
192	0xbbb85d76ca0238f6	-5.159509308764856e-21
193	0xbbd3c948c6d7ee51	-1.675961982754372e-20
194	0xbbeae21d022ecb25	-4.5542005657554804e-20
195	0xbbfe8e419bb1663f	-1.0352669988541919e-19
196	0xbc0d0da0edf617cc	-1.968723906218747e-19
197	0xbc171c037d80900f	-3.131911540126053e-19
198	0xbc1ec11afb9d57f8	-4.16798729534975e-19
199	0xbc211e8873e50d8c	-4.6401873237824415e-19
200	0xbc1fe3207b00abe2	-4.3215233858293113e-19
201	0xbc18d7e5cdf35875	-3.36690179429994e-19
202	0xbc10311bdc183b58	-2.1944023415824876e-19
203	0xbc01a80ebedbabb3	-1.1964492845271e-19
204	0xbbf01b4b15ca82d7	-5.457133245868878e-20
205	0xbbd895214ee313d2	-2.0822220876964925e-20
206	0xbbbf62eadfaa8571	-6.646327959092743e-21
207	0xbba0c2ff9d4323b3	-1.774715381109799e-21
208	0xbb7df4187d4c89f9	-3.964312541709072e-22
209	0xbb5663a3defcca6a	-7.407971228819576e-23
210	0xbb2bffe8e5ced2b2	-1.1580382779650771e-23
211	0xbafd4ae9f9e506e4	-1.514393615879087e-24
212	0xbac9a2e8ee0fe821	-1.6567113698637953e-25
213	0xba92c4ed27384bcb	-1.5161674293636418e-26
214	0xba56fdb724290258	-1.1607526936939624e-27
215	0xba178f342d7fd75d	-7.434032663184624e-29
216	0xbedd03cea24e8634	-6.917684491820854e-06
217	0xbef78fee6e4b3be7	-2.2470695415329532e-05
218	0xbf1001bd6b2803e0	-6.106108302363035e-05
219	0xbf223184cccce911	-0.00013880487531443182
220	0xbf314c81134e20b6	-0.000263959419776426
221	0xbf3b85030e0a3482	-0.00041991543370373957
222	0xbf424fcb971245c7	-0.0005588287441630695
223	0xbf4462e2ac24e208	-0.0006221396254551545
224	0xbf42fc7ac2112cee	-0.000579414310899832
225	0xbf3d959b13e1718e	-0.00045142208171513535
226	0xbf334826da30269f	-0.0002942175726166982
227	0xbf2506a7a703ea62	-0.0001604156163990843
228	0xbf132e2c4ad16939	-7.316727961051852e-05
229	0xbefd4618b0639d5f	-2.7917684769199698e-05
230	0xbee2b02427b3aaf4	-8.911157456788808e-06
231	0xbec3f5e1f730572a	-2.379474545853313e-06
232	0xbea1d5ba865c66e2	-5.315207658202057e-07
233	0xbe7aa973f84f4bb5	-9.932341356261286e-08
234	0xbe50abe89394861b	-1.5526560680499473e-08
235	0xbe2170fea11b5adc	-2.0304444868977586e-09
236	0xbdee875c407f88c3	-2.2212590122206087e-10
237	0xbdb659e32a92a985	-2.0328227522131528e-11
238	0xbd7b60ee8091f2df	-1.5562954590207448e-12
239	0xbd3c0e2f4b81f376	-9.96728359001895e-14
240	0xbee6f61aac263ec4	-1.0948822254857624e-05
241	0xbf02a57518087ddb	-3.556502906953601e-05
242	0xbf19559cfbf8db5c	-9.664316802902639e-05
243	0xbf2ccb977394fe6c	-0.00021969054959390959
244	0xbf3b611fa19a9aaa	-0.00041777631995857745
245	0xbf45c72c6ed740ea	-0.00066461247996055
246	0xbf4cfb82dabede00	-0.000884474653040479
247	0xbf50220aa4594ab4	-0.0009846786428126366
248	0xbf4e0cd2d625fbcd	-0.000917056033628566
249	0xbf47697beb2a0484	-0.000714478976377234
250	0xbf3e84979e5906d1	-0.0004656667864289923
251	0xbf30a3a4970e1365	-0.000253894503707655
252	0xbf1e5b7994fe06e6	-0.00011580400064128588
253	0xbf072a902cabc26d	-4.418613896984146e-05
254	0xbeed94002f6d28d5	-1.4103950417916289e-05
255	0xbecf978faf7ecc5b	-3.766064192911541e-06
