optical_flow/src/kernel/kernel3.npy (npy, 92608 bytes, 1 tensors)

array f8 [17, 17, 40]
00000000: 9bed e112 4465 62be 4acc 074d a9cb 64be
00000010: 4f31 fd8a d215 60be a621 01a8 aade 453e
00000020: 8867 79a9 eb27 7e3e a814 69f6 dba2 953e
00000030: 1a20 0af3 5e85 a73e f789 0690 8a19 b63e
00000040: 1b3c 3be7 a4c2 c23e 54e3 e05a a161 cd3e
00000050: 5864 05c7 2a7b d53e 65b9 e1a2 9d90 dd3e
00000060: 3c50 7a9c d642 e33e 8ebb 0874 3dd9 e73e
00000070: 7b81 c588 451a ec3e 25df b443 be7b ef3e
00000080: 2438 e87c 85b4 f03e 22a0 7f40 d8b0 f03e
00000090: 7661 9fb5 0124 ef3e 1499 659d 5cd2 ea3e
000000a0: 1142 11b1 eafb e43e f66a 6229 aaf9 dc3e
000000b0: 9571 13d3 7480 d03e 3eb6 2581 46ff b73e
000000c0: 90b1 434c 8346 9cbe cbae f4b5 7eed babe
000000d0: 5059 4809 0ca4 c2be 2947 a8d2 df56 c4be
000000e0: c091 50f4 9bce c3be fa8f c8a5 cb07 c2be
000000f0: 8059 657b 5f5f bfbe 7a73 2967 5863 babe
00000100: 6ab6 a26c fb96 b5be 0533 336d 5a3c b1be
00000110: ead9 d645 27e5 aabe dab3 3f8a 4e86 a4be
00000120: 3173 7904 98a7 9ebe d706 bb9a 7a68 96be
00000130: e976 ac0d 7e09 90be aa1e bbee 627a 86be
00000140: 6cc9 c90f 2fea 77be 94a1 8fd4 971a 7cbe
00000150: 2cf4 c809 f489 78be 50d7 99ee 3e82 3ebe
00000160: 0acc 1314 aa7e 8d3e 900f 55c6 1a59 a73e
00000170: c080 2125 212a ba3e dc3d 40a5 58d8 c83e
00000180: 6cad 5d20 4216 d53e 848b 295c 225d e03e
00000190: 0228 aa95 297e e73e 967e 257a 0069 ef3e
000001a0: aa23 9e36 47a3 f33e a2cd 55c0 2b06 f73e
000001b0: 4413 9bb7 c756 f93e de02 9e0b c128 fa3e
000001c0: 7683 187e d140 f93e 1ccb bbf5 e0a2 f63e
000001d0: 85e8 a56b 9794 f23e 6a2a 7db6 0926 eb3e
000001e0: c3bb 8fe4 4e77 e03e 4441 aec9 2f66 c93e
000001f0: aca9 5c04 e2a5 b1be c7ca d692 ea3c d1be
00000200: 3a8b 54f4 a983 d9be bdd9 70cb 42b4 ddbe
00000210: f517 403d 7baf debe 838c acb9 e070 ddbe
00000220: 4055 84ee 29d8 dabe 2289 88d5 4091 d7be
00000230: c2fa 1ba0 3613 d4be eabf 53f1 4daa d0be
00000240: ca0c 31d7 1b08 cbbe fd16 507d 2572 c5be
00000250: 0179 ceb2 aaa7 c0be 1221 498e ab54 b9be
00000260: 2555 d4fa a8dd b2be bbe2 6266 8b86 abbe
00000270: f3eb 0839 74ab a3be cd9d ad23 fa89 9bbe
00000280: ea59 5e56 7300 8abe 1335 8fa2 c987 8fbe
00000290: ed9f a290 3ffc 8dbe a412 2156 8f92 74be
000002a0: 5d11 3430 2439 973e 2f8c 63eb ef07 b53e
000002b0: 9cbf f829 4b6d c83e 7239 7b60 3779 d73e
000002c0: a119 6457 32eb e33e c40c 9c7e d799 ee3e
000002d0: 3b7a 030f 0181 f53e f483 0422 37c0 fb3e
000002e0: 63e3 384d 036e 003f 2b95 136b 5ec3 013f
000002f0: 3a54 07ed b959 013f de5b 2246 79f8 fd3e
00000300: 4877 52c4 f0c8 f53e cc74 4650 a2c9 e63e
00000310: 4093 783a d484 9f3e 446c c9f8 b791 e2be
00000320: 60c3 1cce aacd f0be 23bb 819b 4ba1 f5be
00000330: 50da 3d80 1bf4 f7be f34a 8234 5654 f8be
00000340: c039 184e 6b66 f7be 5552 514b c2b4 f5be
00000350: 7377 5dea e89e f3be 8914 66fd 0e5f f1be
00000360: 3c02 6544 2f2f eebe e21c eb0f 72bd e9be
00000370: b90e 8a89 a189 e5be 41b6 3c63 f0ac e1be
00000380: 5b8b 2627 7472 dcbe 65b2 98d1 1771 d6be
00000390: 87b3 8234 cb5a d1be 7d11 0ae1 424f cabe
000003a0: 8418 997d df8b c3be 766d d465 fb76 bcbe
000003b0: 3b02 c240 ea4f b4be 87cf 359c a168 acbe
000003c0: e3a9 caa9 acd0 97be b4c0 a8d1 7cba 9dbe
000003d0: 4e49 8066 bf58 9ebe 5814 5422 de95 90be
000003e0: 00dc 3d80 d51b 9b3e 98d7 53b6 86ed be3e
000003f0: f0e4 b458 83dd d23e fc53 bbe4 6969 e23e
00000400: 97b9 7cf3 273d ef3e eb9a 9b10 60ae f73e
00000410: 775f 4ccd 1b2c 003f 5f9a cb06 87d5 033f
00000420: a857 309f 7682 053f 82e1 57b7 efda 033f
00000430: 3c42 1011 12fa fb3e f09e f991 3aca df3e
00000440: 1c9e e719 04e4 f1be af3b 1ae1 1290 06bf
00000450: f888 6c13 822e 11bf 0a5c e263 ea2c 15bf
00000460: b41e 4a9e 0dd5 16bf 2d5d 8ca1 bd59 16bf
00000470: 14f5 235d e95e 14bf 86db e167 6eaa 11bf
00000480: 00b0 2dc5 b0be 0dbf 3d9f d7cf 95ba 08bf
00000490: 9553 c66c d388 04bf 6211 1a7d 2c1a 01bf
000004a0: ade2 e2f7 1084 fcbe a9a7 7112 33ad f7be
000004b0: 748d f308 5a79 f3be 78d8 04c4 829a efbe
000004c0: 87e4 5bbf 533b e9be 0151 b9c5 6bca e3be
000004d0: 6efa a5de ba79 debe 814b 4ac6 d005 d7be
000004e0: f8bc a17c 630f d1be 0660 e1c3 82cb c8be
000004f0: 2e1e dcb7 c5aa c1be eb0d 10e4 97ae b8be
00000500: 59c6 6550 785c a2be 66d7 f407 f29f a7be
00000510: 87bd 302e 92c9 a9be 6370 5b83 3aba a2be
00000520: 98ed d6ba d035 903e 02a4 61a6 c18b c13e
00000530: d0c2 bba0 fb45 d73e ef06 9383 2645 e73e
00000540: 72bd 55ac a8bb f33e 0835 526c df4e fd3e
00000550: 2c07 0972 3b18 033f dd1d fd83 4453 053f
00000560: 155b de6a 9aed 023f b0d1 99a5 7b2a f33e
00000570: d8f9 0413 86c1 efbe 07c1 1726 ee66 10bf
00000580: cfe2 a093 abdb 1ebf ce76 768e db60 26bf
00000590: e7fc c90f 26ae 2bbf 0d9f 98c7 bf5b 2ebf
000005a0: b4cd 8d4d 8d27 2ebf 7aa1 248c 0b8d 2bbf
000005b0: 7ece 759f 2e80 27bf 077c 5cc6 9107 23bf
000005c0: 022a 1c9f 54d3 1dbf 005b 9587 e715 17bf
000005d0: b15d 417b 26f5 11bf b431 2e70 fd58 0cbf
000005e0: d024 306e edb4 06bf 4aa0 7729 9756 02bf
000005f0: 14ce 136b 299c fdbe f5de 1ac8 42b9 f7be
00000600: 9ec1 6388 5cc5 f2be b9b8 5253 0c40 edbe
00000610: 0b31 3784 ef67 e6be 78c1 f47e 03dc e0be
00000620: df34 9f6b bfe8 d8be 33e9 07e1 ff0e d2be
00000630: bc94 80c9 42b0 c9be 4ac1 f528 a0eb c1be
00000640: e32f 85c3 249e a7be 7ec4 7275 dd7f afbe
00000650: fe6a f2ef 6a78 b2be 0509 ab5c cfba b0be
00000660: 0cba 3286 9284 93be d4cd c1c1 ca43 b93e
00000670: c22c bf97 c6c2 d43e 2da0 6a81 cbda e53e
00000680: eb85 fd0c 7984 f23e aeea 4bfb 1d54 fa3e
00000690: 0e6a ad7c 64b0 fe3e dcdf 7bee 99a6 f93e
000006a0: 0032 cd2a fa28 ce3e d208 aa4b 61da 04bf
000006b0: 1ec3 78f5 6b61 1cbf d6e3 3ee8 f7e6 29bf
000006c0: f1e0 4a92 655f 33bf b824 7247 ca2e 39bf
000006d0: ec09 ffe0 bc2f 3dbf 0a0c 0c8c b397 3ebf
000006e0: 1c8d fa64 0a4b 3dbf 4e9a dadd abdb 39bf
000006f0: ce9f 9763 3743 35bf b0c2 7063 5f81 30bf
00000700: 9ec5 cd70 519e 28bf b128 1969 9704 22bf
00000710: 1de1 2927 b273 1abf b642 63ef 54ca 13bf
00000720: 80c0 9e90 5e58 0ebf c3a3 e685 73b8 07bf
00000730: eaf2 dae4 9db6 02bf 4e35 9b4a 8d80 fdbe
00000740: 913a 69e0 7611 f7be 416f 46b1 1fd0 f1be
00000750: af8d 92f9 c019 ebbe 4d06 6bd4 df47 e4be
00000760: ba42 875c 19d6 ddbe b6f2 d882 378f d5be
00000770: 793a 0124 7f97 cebe ff03 b29d 154d c5be
00000780: a662 809a 96c2 a8be f964 c9fa 565a b1be
00000790: 8688 99e6 fe37 b6be c930 a42f 31a2 b8be
000007a0: 5ffe 544f bd65 b4be 10f1 e705 fdd8 8cbe
000007b0: 4c5e bb87 557c bf3e b6e8 309a 905c d53e
000007c0: 0c5f 6618 4e09 e23e 6846 77ad 42c5 e43e
000007d0: 5036 8e26 630b d13e 38ca aae2 d256 f1be
000007e0: 5304 71da aa04 10bf a60d db9a 9906 22bf
000007f0: 3005 f5ec c63f 30bf 540a d8cb a933 39bf
-3.426441917781318e-08 -3.873473420129125e-08 -2.996110148745608e-08 1.0183915266759871e-08 1.123396294820358e-07 3.224040398301677e-07 7.009798306959289e-07 1.3172489731003007e-06
2.2364054589117607e-06 3.502532044865836e-06 5.121498461179817e-06 7.048822722051329e-06 9.184402088004242e-06 1.1371895767357269e-05 1.3400375131922913e-05 1.5012441613934297e-05
1.59312838210955e-05 1.591758703503599e-05 1.4849019567651024e-05 1.2789595456208276e-05 1.000597470315979e-05 6.908238580428539e-06 3.93433156028709e-06 1.4303427674182673e-06
-4.213369033795794e-07 -1.6050168694753784e-06 -2.2221575568623052e-06 -2.4246397931714783e-06 -2.361186405968311e-06 -2.1493972737363756e-06 -1.8699497395711863e-06 -1.5728513999204036e-06
-1.2868508059525962e-06 -1.0273310422803563e-06 -8.015373499845826e-07 -6.116818167513537e-07 -4.56790079960724e-07 -3.3390702001640903e-07 -2.389711092775654e-07 -1.6747468777597547e-07
-8.908950017443955e-08 -1.0469510870715553e-07 -9.141445151627531e-08 -7.103377200347894e-09 2.197532556268787e-07 6.958265542995944e-07 1.55952979643413e-06 2.9617670325233114e-06
5.027519824323114e-06 7.802870532097048e-06 1.1202250495463004e-05 1.4977533116577399e-05 1.8728070621007856e-05 2.1957497684477912e-05 2.4165139143733695e-05 2.4947353018503193e-05
2.4083325007254412e-05 2.1587605586635616e-05 1.7719684117769203e-05 1.2945454457420977e-05 7.851623324809758e-06 3.0278166156043325e-06 -1.051901578683939e-06 -4.109848572952496e-06
-6.083086025373766e-06 -7.082019855045337e-06 -7.315987165417902e-06 -7.019264468141544e-06 -6.400201279418039e-06 -5.618904957790143e-06 -4.786265437094457e-06 -3.973305657142804e-06
-3.222426749911743e-06 -2.556548660328778e-06 -1.9854245664883328e-06 -1.5098299225459075e-06 -1.1244928644395607e-06 -8.203257493489107e-07 -5.86203997405566e-07 -4.1036267688649017e-07
-1.9372820786170285e-07 -2.3491993886155686e-07 -2.234082290876195e-07 -7.663853332599905e-08 3.460527723960904e-07 1.2535455602917188e-06 2.9119167519672383e-06 5.596518810781181e-06
9.497993897611425e-06 1.459166738327354e-05 2.05077384983715e-05 2.646526456928987e-05 3.1337238081302945e-05 3.3880537907463676e-05 3.309343958660849e-05 2.8582191938210956e-05
2.0775722323499655e-05 1.0865990142156638e-05 4.696676634017266e-07 -8.854490965484509e-06 -1.602495911540451e-05 -2.062803261576174e-05 -2.2843880301571314e-05 -2.3202362428319028e-05
-2.2316050381882132e-05 -2.0700540251122137e-05 -1.871179724532248e-05 -1.6566584088124662e-05 -1.4393002982005934e-05 -1.2273798799879201e-05 -1.0269938045987804e-05 -8.428355705437865e-06
-6.782313550254513e-06 -5.350534843223501e-06 -4.137674132359619e-06 -3.1363504223188652e-06 -2.330109947465291e-06 -1.6966327146043456e-06 -1.2106995681827703e-06 -8.466457121340161e-07
-3.5487316000595716e-07 -4.4298868010201035e-07 -4.5220062938710596e-07 -2.4714202802339306e-07 4.039515035728753e-07 1.8434427258551567e-06 4.49783454863874e-06 8.779417064822333e-06
1.489586394106956e-05 2.2584107717184032e-05 3.08462128144051e-05 3.783052748023286e-05 4.102634911633203e-05 3.787082725276431e-05 2.6680792022006623e-05 7.57931618942225e-06
-1.7061889247131393e-05 -4.3035102987968594e-05 -6.554287834295905e-05 -8.077793697434956e-05 -8.709807986850387e-05 -8.526058116974508e-05 -7.770823802740286e-05 -6.738947738136992e-05
-5.673386535573477e-05 -4.716653527819671e-05 -3.916640489191114e-05 -3.2619936644303805e-05 -2.7194866100118776e-05 -2.257972769507231e-05 -1.8571882319030076e-05 -1.5069750702961302e-05
-1.2031434362113367e-05 -9.43694447311976e-06 -7.265927232656857e-06 -5.489043449674321e-06 -4.067447614371953e-06 -2.955790050978432e-06 -2.1060799885208006e-06 -1.4711621505466339e-06
-5.472067250834517e-07 -7.040735140798157e-07 -7.685240145434448e-07 -5.581216615219085e-07 2.4155104480133617e-07 2.0916370884649553e-06 5.5488039938245685e-06 1.109605737992537e-05
1.8818895815395647e-05 2.7950379053500097e-05 3.6420168048069364e-05 4.067471354446035e-05 3.610255713153689e-05 1.827807350314605e-05 -1.5142417936983671e-05 -6.256893677636733e-05
-0.00011771425934704458 -0.00017073326237675715 -0.00021118368740145126 -0.00023161617336708192 -0.0002300605763384374 -0.00021019712409865357 -0.0001792961991032744 -0.0001451840827763897
-0.00011377529133597272 -8.80644382922173e-05 -6.850287792425112e-05 -5.4068788833825e-05 -4.3309684564071826e-05 -3.4977424714644436e-05 -2.823830317750908e-05 -2.2624659783614593e-05
-1.7901366413165824e-05 -1.3947576557118599e-05 -1.0684012642502469e-05 -8.039201900262387e-06 -5.938809119099638e-06 -4.305503822350006e-06 -3.0623101103960658e-06 -2.136279654223334e-06
-7.038637539840343e-07 -9.387574476852314e-07 -1.1009205420966775e-06 -9.971694107523859e-07 -2.9083878967219987e-07 1.505900178802644e-06 4.949770637761854e-06 1.0421117662431999e-05
1.7659637534866572e-05 2.5108892901729955e-05 2.9267342863329277e-05 2.446249609897021e-05 3.5953601894898966e-06 -3.977403089995699e-05 -0.0001082632201068298 -0.00019761825762801163
-0.0002956030823884201 -0.0003842586369918288 -0.00044535027791084317 -0.0004668057772933559 -0.0004469776513166977 -0.00039456315958333744 -0.0003244409777765051 -0.00025185183352775375
-0.00018782371662555154 -0.00013746593735880977 -0.00010090613231195475 -7.54942264820185e-05 -5.787886227837189e-05 -4.5243287547798025e-05 -3.569287637847868e-05 -2.813544839490772e-05
-2.1999569094705856e-05 -1.6987784947283166e-05 -1.2922573477353422e-05 -9.670619545490379e-06 -7.1135340892903104e-06 -5.140171237591367e-06 -3.6468248083906365e-06 -2.5392903189595975e-06
-7.379087962915514e-07 -1.0343128266281702e-06 -1.3243397013686555e-06 -1.4682747733778335e-06 -1.2157809668593927e-06 -2.149314494852659e-07 1.8766927771164447e-06 5.09299789813228e-06
8.600400872179756e-06 9.904169401861454e-06 4.063721100856075e-06 -1.6535907131307574e-05 -6.110470586497109e-05 -0.00013752579746127458 -0.00024794203359952954 -0.00038454909721977637
