optical_flow/src/kernel/kernel0spatial.npy (npy, 55616 bytes, 1 tensors)

array f8 [17, 17, 24]
-2.2795660182534178e-06 -7.495630967238922e-06 -2.0528813596890214e-05 -4.6801040044004755e-05 -8.875773856148888e-05 -0.00013990641637700235 -0.0001829898202521369 -0.00019782297558475036
-0.00017497065834219192 -0.00012294395715379362 -6.176878909844443e-05 -9.71875969977135e-06 2.4807556854856624e-05 4.2345811858938904e-05 4.7303419987857315e-05 4.4256309885697145e-05
3.683108438571296e-05 2.7783937012540863e-05 1.911062946846261e-05 1.2006240987399671e-05 6.89271517951501e-06 3.616376404285797e-06 1.7340745138843327e-06 7.59932293730568e-07
-2.7733096784774737e-06 -8.90603283414347e-06 -2.4020063035378922e-05 -5.445091702545176e-05 -0.00010381966537208962 -0.0001666167008157792 -0.00022534242151019351 -0.0002575211674749082
-0.0002502828822815957 -0.00021007467215644634 -0.00015761659817078866 -0.00011294730260968544 -8.448040497811459e-05 -6.930161867260126e-05 -6.0210059131984575e-05 -5.1729905423841376e-05
-4.193178913751037e-05 -3.1398729745112347e-05 -2.1556217499232575e-05 -1.3536714099419464e-05 -7.770622371104079e-06 -4.076910539235086e-06 -1.954897109968192e-06 -8.567040533145645e-07
-1.235862980516235e-06 -3.5500034214968716e-06 -8.827066373038991e-06 -1.9377919804571933e-05 -3.808552921036672e-05 -6.718922411482804e-05 -0.0001057592322788098 -0.00014786944575811002
-0.00018505094046524125 -0.0002124987219542246 -0.00023228709910148794 -0.0002490367799174418 -0.0002629522098752158 -0.0002682887374238916 -0.0002582241828755528 -0.0002304976400354368
-0.00018912783207616327 -0.00014210905634741858 -9.764860013980177e-05 -6.133329015044857e-05 -3.520933886842455e-05 -1.8472979689256334e-05 -8.857891031985705e-06 -3.881837553930381e-06
3.046183970622679e-06 1.0730015278058892e-05 3.0631040596941355e-05 7.086775561570003e-05 0.00013254500695638786 0.00019898711064219308 0.0002354288824476866 0.0002079281521954983
0.00010853494538093329 -3.829367443448507e-05 -0.00019359758050593086 -0.0003256149001749795 -0.00041708194313262677 -0.00046113835476729404 -0.00045751657582131304 -0.00041263690458289874
-0.0003396587807752884 -0.00025544525642230936 -0.0001755664158201614 -0.00011027951403366128 -6.330840625651837e-05 -3.321554793200257e-05 -1.5927036370801416e-05 -6.979784647637723e-06
8.766442534055658e-06 2.938780255959959e-05 8.14663867318499e-05 0.00018654092869026942 0.00035231186205212484 0.0005475095342372765 0.000696548439327122 0.0007163142361212827
0.0005741917615289437 0.0003132183084473448 2.0016800179900157e-05 -0.0002293543959789673 -0.0003978387291184176 -0.00048152812161262535 -0.0004925217589125937 -0.00044865776212353473
-0.0003704314489115914 -0.00027882454868695866 -0.00019167637857874927 -0.00012040482834653367 -6.912181002528149e-05 -3.626569866844162e-05 -1.738960672469891e-05 -7.620734612158923e-06
1.2499406939055024e-05 4.105370758804673e-05 0.00011235539216723024 0.0002560771195652055 0.0004857691093447052 0.000766354250298652 0.001003971760696819 0.0010883980080362934
0.0009675929772073124 0.0006873699906326219 0.0003567387178643506 7.54178645584627e-05 -0.0001109359306152942 -0.00020575487163175426 -0.00023360824061604586 -0.0002195669878883065
-0.00018297337958137562 -0.000138078978472791 -9.498380636617599e-05 -5.967482229755499e-05 -3.425913810628654e-05 -1.7974636632569966e-05 -8.61894913663076e-06 -3.777126014585665e-06
1.0760219081127165e-05 3.448351803089764e-05 9.287691016301627e-05 0.00021043460154222102 0.0004014217912588855 0.0006452595426675261 0.0008752181942982811 0.0010047890761664124
0.0009835727809089493 0.0008352785942230477 0.0006390819120076154 0.00047199868175833013 0.00036607057454449816 0.00030923474655761296 0.00027293822481557145 0.0002359657324751581
0.00019166063539548698 0.00014359957207935446 9.860029174276456e-05 6.192043128054486e-05 3.554509906617671e-05 1.8649007788908604e-05 8.9422861688577e-06 3.918821652869054e-06
3.026083777429391e-06 8.431020004935345e-06 2.0442112295171363e-05 4.43978370929909e-05 8.814954709907217e-05 0.0001601104715617941 0.0002622909832026311 0.0003827332078934962
0.0004989942680419005 0.0005945166455586652 0.0006699110635264109 0.0007338021103353238 0.0007844778464871579 0.0008050972147689075 0.0007767004924507292 0.0006938636075886827
0.0005694715464654366 0.0004279262798479803 0.00029404991164674275 0.00018469414137047688 0.00010602666859169807 5.562810603511689e-05 2.6673970581722984e-05 1.1689466585363471e-05
-7.060503365342736e-06 -2.4717295189591396e-05 -7.031173453062271e-05 -0.00016247388723986833 -0.00030422815601623517 -0.00045863782626195113 -0.0005476319510919394 -0.0004940323092278477
-0.00027841393128837127 4.534022217023561e-05 0.00038954221240957885 0.0006821474798216323 0.0008844365467154362 0.0009821320661975853 0.0009759334882397204 0.0008806564314586232
0.00072502041522275 0.0005452862259569515 0.00037477710895943443 0.00023541146289284467 0.0001351432589429223 7.090461048929385e-05 3.399914806083082e-05 1.489961640640067e-05
-1.392551711353319e-05 -4.6615051468364455e-05 -0.00012910680768935976 -0.0002955324652786154 -0.0005583289332343055 -0.0008685815521152979 -0.0011073304891444473 -0.0011432080857089885
-0.0009239641081403192 -0.0005167248934504392 -5.793636708894455e-05 0.00033227763595570093 0.000595624503433465 0.0007266134095826885 0.0007450467882444765 0.0006792316243626118
0.000560937846946784 0.00042224736061552165 0.00029027654221649 0.00018234294947608786 0.00010467923547435772 5.492139504943447e-05 2.6335118959172358e-05 1.1540971379944752e-05
-1.4108848363830162e-05 -4.628676822699017e-05 -0.00012658455727876657 -0.0002884306270973662 -0.0005472808109656821 -0.0008641363889553254 -0.0011339214217264762 -0.0012327380326408422
-0.0011014990053347304 -0.0007909435714818373 -0.0004232103225752811 -0.0001103117734624742 9.666588920154219e-05 0.00020216026876593003 0.00023436215421247775 0.0002215479471320595
00000000: f5fa f2ab 541f c3be 18db fb59 5f70 dfbe
00000010: 2a50 1154 a986 f5be a15d c37d 8789 08bf
00000020: 3bf1 6956 6e44 17bf b2c6 36f7 7a56 22bf
00000030: c583 4396 1efc 27bf be19 cb6b d6ed 29bf
00000040: 4fd5 bb82 0aef 26bf ef28 e98c 501d 20bf
00000050: 64b8 63b7 3b31 10bf 8cc9 8429 b861 e4be
00000060: 3381 7f53 3a03 fa3e 274f 3604 8f33 063f
00000070: 0755 7b22 f5cc 083f 6a02 933a fb33 073f
00000080: f892 5d6c 624f 033f 7a90 f89c 3122 fd3e
00000090: dcfb 0875 f809 f43e 73f2 4932 cd2d e93e
000000a0: 9823 281f ffe8 dc3e 0b2f 16f4 1b56 ce3e
000000b0: 96fe 6817 cb17 bd3e b9e5 5bc9 c47f a93e
000000c0: d797 941e a343 c7be 5865 12d5 63ad e2be
000000d0: 608c b729 d62f f9be 36e7 4c43 478c 0cbf
000000e0: 3cde 1245 3837 1bbf a174 db8f bad6 25bf
000000f0: 5402 5da9 3c89 2dbf 3080 09fe 7ce0 30bf
00000100: bb49 4dcb 0c67 30bf 0778 79b1 ef88 2bbf
00000110: cfab d644 bca8 24bf d95e 2ee2 c39b 1dbf
00000120: e9e2 5e4e 6225 16bf 5a86 37be c02a 12bf
00000130: 7161 ffe0 4191 0fbf 8c5c 2304 121f 0bbf
00000140: c055 d74d fdfb 05bf 58ff 9d23 4476 00bf
00000150: aa0f a9fc 739a f6be d1ee bbd1 7763 ecbe
00000160: e1e1 dd34 d24b e0be b549 c5a2 8c19 d1be
00000170: d600 400d 1c66 c0be cac6 e822 08bf acbe
00000180: e28a a8b7 fdbb b4be 06bd 3105 93c7 cdbe
00000190: 3cc9 b8c3 fe82 e2be e415 5b82 b851 f4be
000001a0: 0202 bcd1 c0f7 03bf 8cb6 b314 fe9c 11bf
000001b0: 9a75 8ac6 61b9 1bbf 98f6 01de ac61 23bf
000001c0: 407a 8b79 4741 28bf 1538 5a1f 46da 2bbf
000001d0: e88d e3fc 4272 2ebf d35b 43d3 2452 30bf
000001e0: 53a4 4e24 9b3b 31bf 061f 665a 2395 31bf
000001f0: 3f06 a56b 48ec 30bf e7ab c9a6 3736 2ebf
00000200: 28f3 01b5 13ca 28bf a186 bb7f 63a0 22bf
00000210: 28b7 282d 1699 19bf debd c2e6 0114 10bf
00000220: 30e6 efab b775 02bf 23f5 7c7f cd5e f3be
00000230: e9e0 fd45 8b93 e2be 1c93 c561 1748 d0be
00000240: 78fc 1759 a18d c93e 3ae4 0f12 a280 e63e
00000250: 852d 758a 3a0f 003f cddc 55c5 da93 123f
00000260: 7653 b4f0 785f 213f cc76 db43 e614 2a3f
00000270: ebf4 87b3 aedb 2e3f 6c6f 293a e940 2b3f
00000280: e48f dd29 a873 1c3f a3e5 7ca2 b013 04bf
00000290: e04a c08d 0e60 29bf 1a65 eb58 e956 35bf
000002a0: f7b0 354e 7955 3bbf aa83 1427 9e38 3ebf
000002b0: 0d0b 04bb dafb 3dbf b96d a302 e60a 3bbf
000002c0: 4b4b f05a 8742 36bf 2c51 b205 a9bd 30bf
000002d0: 7a4e 4807 0803 27bf 2a26 f19f bbe8 1cbf
000002e0: ac91 4223 8e98 10bf a0bc 6489 1d6a 01bf
000002f0: 58a8 f89a 61b3 f0be 05e9 4898 7c46 ddbe
00000300: d279 03b0 7262 e23e 82a6 106a bad0 fe3e
00000310: ea31 f0dd 1d5b 153f ff5a 4d60 4673 283f
00000320: 7b02 eeec cf16 373f 5726 9bc5 d7f0 413f
00000330: 04b9 2c62 12d3 463f ecdf e01b e178 473f
00000340: ade7 2f6b abd0 423f 4491 2b64 ee86 343f
00000350: 1859 c708 38fd f43e 3255 8542 db0f 2ebf
00000360: 1d34 a554 a012 3abf 8d70 d088 b38e 3fbf
00000370: f2b4 6d6c 9223 40bf e8c6 586a 3a67 3dbf
00000380: e548 5ff5 ce46 38bf 5705 6451 e645 32bf
00000390: 67df 088e 971f 29bf afc3 3a33 3b90 1fbf
000003a0: 0b42 6ca7 af1e 12bf 1fc3 00eb 7f03 03bf
000003b0: 3679 bdac fc3b f2be f86e 5e94 b3f6 dfbe
000003c0: 2a29 a268 9136 ea3e 2fda d9a6 2286 053f
000003d0: dc59 86f0 0a74 1d3f 83bf 91da 42c8 303f
000003e0: 988e 2370 dad5 3f3f 7176 9938 a51c 493f
000003f0: c812 3678 f672 503f 2afc 5e76 12d5 513f
00000400: 4a69 b218 c2b4 4f3f e675 a4d0 1386 463f
00000410: 49a8 5e20 1561 373f 8ea4 180c 35c5 133f
00000420: 7142 99c6 c814 1dbf d94d a9e3 fcf7 2abf
00000430: 3ea3 cd81 979e 2ebf 7694 8410 72c7 2cbf
00000440: eaac d85c 91fb 27bf 54b8 c364 2919 22bf
00000450: 423c 335e 41e6 18bf a955 0348 6b49 0fbf
00000460: d2c0 a405 2ff6 01bf ea8f b89f 07d9 f2be
00000470: 711c 7059 4313 e2be 268e 7efc 50af cfbe
00000480: df60 e83f d990 e63e ec2f 55a8 4c14 023f
00000490: eb5e b42a dd58 183f f96c 9076 0395 2b3f
000004a0: 9fbe 2177 bd4e 3a3f d155 0c51 d424 453f
000004b0: f06c bcc2 dcad 4c3f 0044 2d0e 6476 503f
000004c0: 3ae5 573b 671d 503f c1eb 631f d35e 4b3f
000004d0: c445 adf4 01f1 443f e562 e3e6 d2ee 3e3f
000004e0: 7c5e 4c25 a5fd 373f 026e 8d1f 1944 343f
000004f0: 2869 d9bf 24e3 313f 80ea 3935 b2ed 2e3f
00000500: a596 6852 101f 293f 9764 7dee 66d2 223f
00000510: 8cd5 171d f4d8 193f aa6b c2e8 683b 103f
00000520: f1a3 de4d c8a2 023f 51f5 900e 0e8e f33e
00000530: d5d0 e373 dac0 e23e b95e 5e7e cd6f d03e
00000540: 1e62 6326 7762 c93e f828 f190 5eae e13e
00000550: 1833 a342 636f f53e 6006 0e11 fa46 073f
00000560: 9a10 13b0 9d1b 173f eef9 6b7a 6afc 243f
00000570: 2b60 e431 8330 313f 6d37 6a9c 3215 393f
00000580: 22ec f307 de59 403f 7f5c 59c6 2a7b 433f
00000590: 5627 f60d 9ff3 453f c86e 6608 940b 483f
000005a0: caff f858 adb4 493f 3572 901a a561 4a3f
000005b0: aedc 5f9b 6f73 493f b732 51c0 8cbc 463f
000005c0: b95e 83d5 12a9 423f 8216 8660 690b 3c3f
000005d0: 9189 00c1 5645 333f fdb2 0998 4e35 283f
000005e0: 043a e24b 54cb 1b3f 188a 552b 472a 0d3f
000005f0: d656 044d 3df8 fb3e 6e01 dc0d bc83 e83e
00000600: 9dd2 1463 289d ddbe 4b73 7d97 ffea f9be
00000610: aff8 bd66 8a6e 12bf 06dd 7510 b84b 25bf
00000620: 4765 09fb 19f0 33bf 66b5 e976 aa0e 3ebf
00000630: b0ce fba8 def1 41bf 2a1c 3f4e 3e30 40bf
00000640: 0551 c9ba 023f 32bf 6162 db2b 76c5 073f
00000650: bacd 0d10 6f87 393f 6903 f68e 445a 463f
00000660: e563 9205 31fb 4c3f 3ef0 b246 5c17 503f
00000670: 58b6 2035 b9fa 4f3f e473 3b49 7bdb 4c3f
00000680: 6fc9 747c e9c1 473f edef f340 31de 413f
00000690: 360b 206d b78f 383f ad5e 8611 19db 2e3f
000006a0: 571f 3fc1 a7b6 213f c69b c8ee 5396 123f
000006b0: 04d6 04d5 49d3 013f a5a8 9faf 2b3f ef3e
000006c0: 2ae6 a67f 3434 edbe 2e64 f3f8 9070 08bf
000006d0: 7019 8f08 1bec 20bf 808a f545 365e 33bf
000006e0: 7a81 1b41 9a4b 42bf be7a 1cae 3076 4cbf
000006f0: b0bb 260f 7b24 52bf c117 cd55 f6ba 52bf
00000700: a223 46d0 c546 4ebf a8e3 5a42 9aee 40bf
00000710: 487c 486a 1660 0ebf 4e1a 6294 b1c6 353f
00000720: 841d a8e1 7584 433f 03f8 5d6a 46cf 473f
00000730: 46bb 74cb e769 483f b94d 78ce ce41 463f
00000740: 5cbc 96da 7c61 423f d263 cb9a 22ac 3b3f
00000750: 4909 7041 0806 333f b044 6202 6ae6 273f
00000760: bcef 5c92 e770 1b3f 83a6 c3c3 6ccb 0c3f
00000770: 4c49 3b98 479d fb3e ed6c 4c07 0334 e83e
00000780: d8f1 935a a196 edbe f4a0 053f 8144 08bf
00000790: 65f0 3f11 7997 20bf fede 4c1c 10e7 32bf
000007a0: 8d60 a897 ecee 41bf ea03 d2c3 e650 4cbf
000007b0: 200b 0bdb 0294 52bf f1fa 3862 7a32 54bf
000007c0: db59 168d 050c 52bf 8925 e162 eaea 49bf
000007d0: 2296 aa7e 4abc 3bbf 5a0b 69d6 e5ea 1cbf
000007e0: 32e0 be54 2357 193f 946b 5d7c 5f7f 2a3f
000007f0: f8a1 5593 e3b7 2e3f 8794 f65f ea09 2d3f
