optical_flow/src/kernel/space_time_kernel1.npy (npy, 92608 bytes, 1 tensors)

array f8 [17, 17, 40]
00000000: 4ef8 5ad1 1985 65be ccf7 352a 89b2 69be
00000010: 7939 1cc7 3077 67be fe5a c480 ff9e 44be
00000020: 9411 8476 3cd6 763e b63e c1e1 b52f 933e
00000030: 11d2 3369 4cdc a53e d327 e46c eddf b43e
00000040: a5de b921 26b7 c13e 8ce5 0c29 145d cb3e
00000050: 9a86 604a e272 d33e 911d 10f6 9995 d93e
00000060: 9759 8fbb 6138 df3e 4c4f ae57 82ac e13e
00000070: 0374 c3bf b487 e23e 16f4 12c5 7be7 e13e
00000080: 4f34 126e 3393 df3e 887d c462 94e5 d83e
00000090: 3746 4b03 c5b9 d03e 4d90 36a0 5f5c c03e
000000a0: 8d06 aa54 ba1b 723e 992f b547 0ff1 b8be
000000b0: 238c 78eb 0a06 c6be 9f02 a298 410a ccbe
000000c0: 2230 272e daf0 cebe b034 1d3f 7362 cfbe
000000d0: 4703 b46a 0013 cebe 0518 f6ce 10a3 cbbe
000000e0: 8022 a479 e492 c8be 23b3 a8fe 8141 c5be
000000f0: 7247 bc68 8cf1 c1be 06de ef54 ef9e bdbe
00000100: f8bf 09aa f6ed b7be a12b 586f 7bee b2be
00000110: e94a 2bfc c957 adbe 0bce bd69 3e47 a6be
00000120: 7eb3 7458 7792 a0be 23c5 9cbd 1028 98be
00000130: e7e7 8007 0c40 91be 46ce e7e1 9423 88be
00000140: c86d 9c6b 384c 76be 59d7 b508 4fa0 7abe
00000150: 3176 a41a 5050 78be 202d bc02 cd5d 55be
00000160: 77a4 ce82 8aa9 873e 47f0 8df3 3ce1 a33e
00000170: 6fb1 ecd5 91a6 b63e 2a3f 2ab6 13a1 c53e
00000180: 2ce5 04f4 105b d23e 5fa0 e3be 445a dc3e
00000190: b3bb 16e7 d626 e43e 6b21 321b 5482 ea3e
000001a0: a716 30d1 a02c f03e 03bd 4cb7 0a50 f23e
000001b0: 645a b44e 2933 f33e c50a 27d2 258d f23e
000001c0: 78b1 d4d4 ad5b f03e c302 34d6 f1cb e93e
000001d0: baf0 ae5d 8754 e13e 93ea d9cd c1f3 d03e
000001e0: fa9b ddc9 47c3 823e 4636 24f4 d6d7 c9be
000001f0: 049e 4f98 d2d1 d6be d027 d78e b40d ddbe
00000200: 9c9a ed1d 9207 e0be 90cc 0933 6c42 e0be
00000210: 2ca2 21bb 4529 dfbe 0055 f1f7 c8a2 dcbe
00000220: 0bc6 a7d6 4476 d9be 357e 1e2c 2f06 d6be
00000230: 477a f096 9397 d2be 78ce 29b4 02b1 cebe
00000240: cbd3 1ff9 60cb c8be 279d c5f5 a69d c3be
00000250: f5b3 f50e 4b67 bebe 23d9 9c61 6115 b7be
00000260: 4a9e 4208 ce2b b1be 3ca5 89a7 9407 a9be
00000270: 9f45 02d3 a8df a1be 9eea ed4e ef02 99be
00000280: 426a bd2e f5b7 7fbe e748 44ab 1bf0 82be
00000290: c930 8fe1 0c4b 81be 4bc8 fb28 ce64 5ebe
000002a0: 0934 7f02 6fd4 903e b85b 5831 7447 ac3e
000002b0: f979 b06a 3d1c c03e 4836 bd7e 81c4 ce3e
000002c0: c8a3 caf4 6e1c da3e 7fbd 3dda 732a e43e
000002d0: c989 de45 76aa ec3e dfe1 f6dd c8da f23e
000002e0: edae 5dce 0d02 f73e 9fa7 1851 c00c fa3e
000002f0: e614 504c d44f fb3e 8889 29ac ac63 fa3e
00000300: 484d 70de fb44 f73e 85ad c95a 1059 f23e
00000310: 8726 9626 f9a6 e83e a9dc 7cb2 501d d83e
00000320: 6899 80aa adb0 8a3e 974e a732 8661 d2be
00000330: 05da 3dee 003b e0be 1e79 9cc1 13aa e4be
00000340: a148 8df3 56cd e6be 6eb3 c27d 0e21 e7be
00000350: 1dab 874d d829 e6be fff3 ddad 075e e4be
00000360: ffab 777b 201c e2be 20c5 55c8 5454 dfbe
00000370: 510f d66c 8272 dabe 6b0d c9fd 4ed4 d5be
00000380: d563 2dc2 94a2 d1be dae6 2111 50e7 cbbe
00000390: 8c67 9482 e09f c5be ad6b 75de 0d6b c0be
000003a0: 406a 6a16 0b6d b8be 7664 0756 66cd b1be
000003b0: 807e f112 e36c a9be 5bab 8169 18ca a1be
000003c0: ddf8 7531 beac 74be 1a5f 7a9c 2db0 78be
000003d0: 77ed 4870 458b 76be 7e01 9a4b adcf 53be
000003e0: ad18 5355 a3f0 853e 7886 3e53 d06e a23e
000003f0: 07d7 801d 8400 b53e 183d 8f6d 0e0e c43e
00000400: 4055 fc76 0a05 d13e 8002 2f36 f849 da3e
00000410: b5ed e761 59af e23e 03e1 2d4f 6194 e83e
00000420: 6d5e a798 7ffe ed3e 6e17 7ca5 d1fa f03e
00000430: c96a 3d48 68cd f13e 1b16 be27 7a33 f13e
00000440: 0a06 6736 c055 ee3e 0475 cd6d 45eb e73e
00000450: a6f1 26c8 9c11 e03e b2b1 7fc4 c46f cf3e
00000460: 355d 9f75 ab65 813e 6405 91e7 4cf6 c7be
00000470: 4f47 4fef 9e28 d5be 3e3b 728c 58f0 dabe
00000480: 2b51 af30 c7b9 ddbe adfe 3929 ea26 debe
00000490: af6d b5e0 a3e4 dcbe 4d26 f638 358d dabe
000004a0: fb83 7cd7 d49b d7be 14d9 a6f0 cd6b d4be
000004b0: 5925 489a 253d d1be 62fe 93b5 2175 ccbe
000004c0: 2905 4333 61fd c6be 9aa4 5dac 2530 c2be
000004d0: 0c8a e7a6 c730 bcbe 6996 f5e7 4267 b5be
000004e0: 5bed 6f87 b4d7 afbe cc18 3c21 3335 a7be
000004f0: 6b86 68cb 9d92 a0be 9280 e959 e430 97be
00000500: 11e4 6d88 267a 813e 10ef 0dea adde 843e
00000510: 5add 9d09 ab0e 833e 15c7 e578 46bf 603e
00000520: 2621 e871 f38b 92be 35dd 3a5f f929 afbe
00000530: 6d16 838f f7c0 c1be 5d41 a6c4 01f4 d0be
00000540: 4b06 f68e 55c6 dcbe 8fe1 ae53 1739 e6be
00000550: abcd 9516 1597 efbe 9e17 ff3d 2ec7 f4be
00000560: 52f6 49e0 ea5a f9be 20a0 615f 0db5 fcbe
00000570: 895b fda9 1619 febe 5f47 73c3 d714 fdbe
00000580: 24bf 22d7 aca4 f9be d037 7c05 3a38 f4be
00000590: 24bc 9fb1 c62a ebbe a64d 403f 1393 dabe
000005a0: f548 5abe b369 8dbe 5962 32cf 8c41 d43e
000005b0: b834 337b dee2 e13e 95a4 a432 bcc5 e63e
000005c0: 230a 0c5e d320 e93e e2a6 5435 157d e93e
000005d0: e1d8 73fd a66c e83e dc9d 6c1e ee71 e63e
000005e0: d250 60c1 12f5 e33e 62d1 8470 4143 e13e
000005f0: f9b8 ecef 3025 dd3e 2bfd d2dc 630e d83e
00000600: 085f bfd0 206f d33e 041a b17b 06c0 ce3e
00000610: 3895 401c 9cd4 c73e 91ec 3f47 d217 c23e
00000620: e383 88c4 efea ba3e fdab 7f9e 509e b33e
00000630: 4290 7336 e104 ac3e 8a60 5766 ac9a a33e
00000640: fae8 7f27 b3e5 a13e 71d9 a435 1b5f a53e
00000650: 5e54 4ef1 f083 a33e 2812 251e 5526 813e
00000660: 0b8d 60f4 14fe b2be 000c 4481 bfe9 cfbe
00000670: caf0 58f7 372e e2be 4878 a3e8 545c f1be
00000680: 7e2d 5ad6 6777 fdbe 9e80 e656 d8c1 06bf
00000690: 0cfd 2352 bd2c 10bf b395 e3ee 0a47 15bf
000006a0: 17d0 5118 f2f6 19bf ec83 9e4d b565 1dbf
000006b0: 8a63 d989 4dd2 1ebf c9f9 5929 cdc7 1dbf
000006c0: c8bd 48f1 7942 1abf c04e e003 a7b4 14bf
000006d0: 2977 325d f4d1 0bbf c8e4 c664 9b36 fbbe
000006e0: 3f8b 4f57 b31e aebe e9ce 2f2d 33be f43e
000006f0: 84ee 9682 ef50 023f a700 5eb1 de51 073f
00000700: 1e0d 231b 75bb 093f dc1c bfab ee19 0a3f
00000710: e125 89fe f302 093f 9d01 fce6 0cfc 063f
00000720: dcec b681 e26f 043f 3b46 f040 7cad 013f
00000730: 2107 2bf0 8ad8 fd3e 0e2c f7cd 6ca2 f83e
00000740: 5904 c44e b8e6 f33e ca33 5ba3 407d ef3e
00000750: d654 407d 4167 e83e 77a7 1229 2987 e23e
00000760: 6bae 7d96 9490 db3e f3d5 1d7c 0a17 d43e
00000770: 613d 6b07 4db1 cc3e c12b 5adb 4f13 c43e
00000780: 813b 1c7b 4006 b13e 8de5 5f44 4854 b43e
00000790: 5a72 c073 4a90 b23e f542 faab 3750 903e
000007a0: 6e90 c8b3 f510 c2be b50f 4dee 4f5b debe
000007b0: 2048 abe4 3b4b f1be 1d1e fc47 9583 00bf
000007c0: afdf 5d2b 8407 0cbf 3d6f b578 b8a5 15bf
000007d0: b4d1 351a 98c5 1ebf 01a0 df6c 643d 24bf
000007e0: 34cc 46c2 c6b2 28bf 2861 8096 aef6 2bbf
000007f0: 6963 c1d8 7e51 2dbf 6bad dabf fd53 2cbf
-4.008398428238539e-08 -4.7865147646632115e-08 -4.3708063736131116e-08 -9.602441529893797e-09 8.507393334597895e-08 2.8589917789189125e-07 6.514948886192402e-07 1.2442300661463174e-06
2.1118432991759557e-06 3.2619939890592605e-06 4.636947016607761e-06 6.099791648679103e-06 7.443485565658545e-06 8.427555021651684e-06 8.835841065419144e-06 8.537403262893035e-06
7.5280674717406365e-06 5.935858592459062e-06 3.9877086705649865e-06 1.9503634136209723e-06 6.745871875860897e-08 -1.4866375569076152e-06 -2.625418200856361e-06 -3.3426360391278287e-06
-3.6884342631046124e-06 -3.7413324144643326e-06 -3.5851270091539434e-06 -3.2945841820812235e-06 -2.9294250910620536e-06 -2.5338995233353743e-06 -2.1390376953111824e-06 -1.7655396111741395e-06
-1.4263120321732198e-06 -1.128409562569799e-06 -8.74487334401962e-07 -6.639449625492681e-07 -4.938880672537917e-07 -3.599599814773163e-07 -2.570477657424584e-07 -1.7984949436633146e-07
-8.306553924942731e-08 -9.91903467607174e-08 -9.057567377067165e-08 -1.989901947302772e-08 1.762976479501064e-07 5.924652902579332e-07 1.3500847086496834e-06 2.578402402981981e-06
4.376346453499336e-06 6.7597893418162275e-06 9.609087302601482e-06 1.2640521936072628e-05 1.5425042033021194e-05 1.746431685772672e-05 1.8310402919297772e-05 1.769195399404612e-05
1.5600320059026726e-05 1.2300805514177203e-05 8.263678798907696e-06 4.041713706488332e-06 1.3979385909553222e-07 -3.0807404140024143e-06 -5.440621298348061e-06 -6.92690285348549e-06
-7.643496187715198e-06 -7.753116365116671e-06 -7.429413857542227e-06 -6.827325591170609e-06 -6.070610974338786e-06 -5.25096828765631e-06 -4.432701060457103e-06 -3.658705652493003e-06
-2.955728583659759e-06 -2.338389022127737e-06 -1.8121891648085053e-06 -1.3758848411267204e-06 -1.0234780641135465e-06 -7.459405671598019e-07 -5.326768697402337e-07 -3.726998575798046e-07
-1.1816093675507458e-07 -1.4109851565657356e-07 -1.2884412184248102e-07 -2.830640483028751e-08 2.507838439108736e-07 8.427833530524778e-07 1.9204988652842385e-06 3.667783849004348e-06
6.225363745095956e-06 9.615817198243028e-06 1.3668950653859893e-05 1.7981173980637324e-05 2.19421607633848e-05 2.4843034287659276e-05 2.6046593820457183e-05 2.516684868182067e-05
2.2191494192536494e-05 1.749792652320843e-05 1.1755103701788283e-05 5.749347827869286e-06 1.988571132215803e-07 -4.382360922556116e-06 -7.739297366288382e-06 -9.853536585388358e-06
-1.087289239057695e-05 -1.1028827366332916e-05 -1.0568359741965728e-05 -9.711887681390986e-06 -8.635459251634876e-06 -7.469515485568069e-06 -6.305528314046728e-06 -5.204517915805141e-06
-4.204531282103184e-06 -3.3263642161246932e-06 -2.5778436066993393e-06 -1.957199618080624e-06 -1.4559000988458726e-06 -1.0611023172262316e-06 -7.577341757484683e-07 -5.301664769535125e-07
-7.701954662061108e-08 -9.197069694222596e-08 -8.398304991105686e-08 -1.845065320535884e-08 1.634656806912972e-07 5.493422236999367e-07 1.2518176984005473e-06 2.390731293356836e-06
4.057810528275863e-06 6.2677725933274345e-06 8.909682091654385e-06 1.172047129725839e-05 1.4302317841093798e-05 1.6193162394116172e-05 1.6977665395638193e-05 1.6404230776886652e-05
1.446483811385053e-05 1.1405481410593176e-05 7.66220023684027e-06 3.7475342970964588e-06 1.2961884970797576e-07 -2.8565062249192046e-06 -5.044621265564073e-06 -6.422722612544141e-06
-7.0871581198848656e-06 -7.188799503787526e-06 -6.8886579457043935e-06 -6.330393162010096e-06 -5.628756632154205e-06 -4.868772303037614e-06 -4.110063319470497e-06 -3.392403794877199e-06
-2.7405934820151677e-06 -2.1681874810453854e-06 -1.6802875070156993e-06 -1.2757399473149403e-06 -9.489833833193293e-07 -6.916466781254964e-07 -4.939055518496734e-07 -3.4557259623834653e-07
1.3021491815002285e-07 1.5549243406384374e-07 1.4198792968785181e-07 3.119403323399095e-08 -2.7636711932888485e-07 -9.287584234661812e-07 -2.116415199623567e-06 -4.0419464063665325e-06
-6.860433344414695e-06 -1.0596757979417625e-05 -1.5063364758849772e-05 -1.9815492009709835e-05 -2.418055193452999e-05 -2.737735300009658e-05 -2.870369155457854e-05 -2.77342007535883e-05
-2.4455320677573643e-05 -1.9282946907721147e-05 -1.2954280055736392e-05 -6.335857495559833e-06 -2.1914317398626958e-07 4.829419810858058e-06 8.52880825732493e-06 1.085872789426322e-05
1.1982071499887459e-05 1.215391390959074e-05 1.1646472485510005e-05 1.0702628924954176e-05 9.516390530741126e-06 8.231505049673726e-06 6.948775761723844e-06 5.735447712484295e-06
4.63344919051485e-06 3.665697446506067e-06 2.840817815668664e-06 2.1568599155564774e-06 1.6044212022352953e-06 1.169348815106439e-06 8.350331030218782e-07 5.842504832666095e-07
5.333800592304682e-07 6.369205991844192e-07 5.816041005352709e-07 1.277754924732514e-07 -1.1320416475412008e-06 -3.8043354014818086e-06 -8.669157732226272e-06 -1.6556425671214703e-05
-2.810137575308185e-05 -4.340592828389163e-05 -6.17018272670475e-05 -8.116726141656795e-05 -9.90472090778852e-05 -0.00011214179121889185 -0.00011757467515262194 -0.00011360349375342313
-0.00010017270353367754 -7.898587588811134e-05 -5.30626963606131e-05 -2.5952633494451244e-05 -8.97643686156468e-07 1.978203620107882e-05 3.493529250017411e-05 4.447899679771552e-05
4.908038262521119e-05 4.978427520501715e-05 4.7705718149670046e-05 4.383959173815124e-05 3.8980579315028955e-05 3.371749345871781e-05 2.8463239696525166e-05 2.349326393672959e-05
1.8979310810078194e-05 1.5015252852102179e-05 1.1636420744346608e-05 8.834825424425725e-06 6.571952645955188e-06 4.789830144837678e-06 3.4204222701739107e-06 2.393178614228689e-06
1.0147345900800636e-06 1.2117163961086292e-06 1.106478932483927e-06 2.430878502735682e-07 -2.1536647223531263e-06 -7.2375985141238306e-06 -1.6492731712621053e-05 -3.149794883766327e-05
-5.34617624187711e-05 -8.257807183070522e-05 -0.00011738530024791341 -0.00015441752333278383 -0.0001884334207154795 -0.0002133453483572714 -0.00022368119641915797 -0.00021612617995479406
